{"keras_version": "2.1.6", "backend": "tensorflow", "class_name": "Model", "config": {"output_layers": [["dense_1", 0, 0]], "input_layers": [["input_1", 0, 0]], "layers": [{"inbound_nodes": [], "class_name": "InputLayer", "name": "input_1", "config": {"sparse": false, "dtype": "float32", "batch_input_shape": [null, 299, 299, 3], "name": "input_1"}}, {"inbound_nodes": [[["input_1", 0, 0, {}]]], "class_name": "Conv2D", "name": "conv2d_1", "config": {"kernel_initializer": {"class_name": "VarianceScaling", "config": {"scale": 1.0, "mode": "fan_avg", "seed": null, "distribution": "uniform"}}, "trainable": false, "activation": "linear", "kernel_constraint": null, "kernel_size": [3, 3], "data_format": "channels_last", "strides": [2, 2], "padding": "valid", "dilation_rate": [1, 1], "bias_initializer": {"class_name": "Zeros", "config": {}}, "activity_regularizer": null, "kernel_regularizer": null, "filters": 32, "use_bias": false, "bias_constraint": null, "name": "conv2d_1", "bias_regularizer": null}}, {"inbound_nodes": [[["conv2d_1", 0, 0, {}]]], "class_name": "BatchNormalization", "name": "batch_normalization_1", "config": {"epsilon": 0.001, "trainable": false, "gamma_regularizer": null, "beta_initializer": {"class_name": "Zeros", "config": {}}, "center": true, "moving_variance_initializer": {"class_name": "Ones", "config": {}}, "moving_mean_initializer": {"class_name": "Zeros", "config": {}}, "gamma_initializer": {"class_name": "Ones", "config": {}}, "scale": false, "beta_regularizer": null, "beta_constraint": null, "axis": 3, "momentum": 0.99, "gamma_constraint": null, "name": "batch_normalization_1"}}, {"inbound_nodes": [[["batch_normalization_1", 0, 0, {}]]], "class_name": "Activation", "name": "activation_1", "config": {"trainable": false, "activation": "relu", "name": "activation_1"}}, {"inbound_nodes": [[["activation_1", 0, 0, {}]]], "class_name": "Conv2D", "name": "conv2d_2", "config": {"kernel_initializer": {"class_name": "VarianceScaling", "config": {"scale": 1.0, "mode": "fan_avg", "seed": null, "distribution": "uniform"}}, "trainable": false, "activation": "linear", "kernel_constraint": null, "kernel_size": [3, 3], "data_format": "channels_last", "strides": [1, 1], "padding": "valid", "dilation_rate": [1, 1], "bias_initializer": {"class_name": "Zeros", "config": {}}, "activity_regularizer": null, "kernel_regularizer": null, "filters": 32, "use_bias": false, "bias_constraint": null, "name": "conv2d_2", "bias_regularizer": null}}, {"inbound_nodes": [[["conv2d_2", 0, 0, {}]]], "class_name": "BatchNormalization", "name": "batch_normalization_2", "config": {"epsilon": 0.001, "trainable": false, "gamma_regularizer": null, "beta_initializer": {"class_name": "Zeros", "config": {}}, "center": true, "moving_variance_initializer": {"class_name": "Ones", "config": {}}, "moving_mean_initializer": {"class_name": "Zeros", "config": {}}, "gamma_initializer": {"class_name": "Ones", "config": {}}, "scale": false, "beta_regularizer": null, "beta_constraint": null, "axis": 3, "momentum": 0.99, "gamma_constraint": null, "name": "batch_normalization_2"}}, {"inbound_nodes": [[["batch_normalization_2", 0, 0, {}]]], "class_name": "Activation", "name": "activation_2", "config": {"trainable": false, "activation": "relu", "name": "activation_2"}}, {"inbound_nodes": [[["activation_2", 0, 0, {}]]], "class_name": "Conv2D", "name": "conv2d_3", "config": {"kernel_initializer": {"class_name": "VarianceScaling", "config": {"scale": 1.0, "mode": "fan_avg", "seed": null, "distribution": "uniform"}}, "trainable": false, "activation": "linear", "kernel_constraint": null, "kernel_size": [3, 3], "data_format": "channels_last", "strides": [1, 1], "padding": "same", "dilation_rate": [1, 1], "bias_initializer": {"class_name": "Zeros", "config": {}}, "activity_regularizer": null, "kernel_regularizer": null, "filters": 64, "use_bias": false, "bias_constraint": null, "name": "conv2d_3", "bias_regularizer": null}}, {"inbound_nodes": [[["conv2d_3", 0, 0, {}]]], "class_name": "BatchNormalization", "name": "batch_normalization_3", "config": {"epsilon": 0.001, "trainable": false, "gamma_regularizer": null, "beta_initializer": {"class_name": "Zeros", "config": {}}, "center": true, "moving_variance_initializer": {"class_name": "Ones", "config": {}}, "moving_mean_initializer": {"class_name": "Zeros", "config": {}}, "gamma_initializer": {"class_name": "Ones", "config": {}}, "scale": false, "beta_regularizer": null, "beta_constraint": null, "axis": 3, "momentum": 0.99, "gamma_constraint": null, "name": "batch_normalization_3"}}, {"inbound_nodes": [[["batch_normalization_3", 0, 0, {}]]], "class_name": "Activation", "name": "activation_3", "config": {"trainable": false, "activation": "relu", "name": "activation_3"}}, {"inbound_nodes": [[["activation_3", 0, 0, {}]]], "class_name": "MaxPooling2D", "name": "max_pooling2d_1", "config": {"strides": [2, 2], "padding": "valid", "pool_size": [3, 3], "trainable": false, "data_format": "channels_last", "name": "max_pooling2d_1"}}, {"inbound_nodes": [[["max_pooling2d_1", 0, 0, {}]]], "class_name": "Conv2D", "name": "conv2d_4", "config": {"kernel_initializer": {"class_name": "VarianceScaling", "config": {"scale": 1.0, "mode": "fan_avg", "seed": null, "distribution": "uniform"}}, "trainable": false, "activation": "linear", "kernel_constraint": null, "kernel_size": [1, 1], "data_format": "channels_last", "strides": [1, 1], "padding": "valid", "dilation_rate": [1, 1], "bias_initializer": {"class_name": "Zeros", "config": {}}, "activity_regularizer": null, "kernel_regularizer": null, "filters": 80, "use_bias": false, "bias_constraint": null, "name": "conv2d_4", "bias_regularizer": null}}, {"inbound_nodes": [[["conv2d_4", 0, 0, {}]]], "class_name": "BatchNormalization", "name": "batch_normalization_4", "config": {"epsilon": 0.001, "trainable": false, "gamma_regularizer": null, "beta_initializer": {"class_name": "Zeros", "config": {}}, "center": true, "moving_variance_initializer": {"class_name": "Ones", "config": {}}, "moving_mean_initializer": {"class_name": "Zeros", "config": {}}, "gamma_initializer": {"class_name": "Ones", "config": {}}, "scale": false, "beta_regularizer": null, "beta_constraint": null, "axis": 3, "momentum": 0.99, "gamma_constraint": null, "name": "batch_normalization_4"}}, {"inbound_nodes": [[["batch_normalization_4", 0, 0, {}]]], "class_name": "Activation", "name": "activation_4", "config": {"trainable": false, "activation": "relu", "name": "activation_4"}}, {"inbound_nodes": [[["activation_4", 0, 0, {}]]], "class_name": "Conv2D", "name": "conv2d_5", "config": {"kernel_initializer": {"class_name": "VarianceScaling", "config": {"scale": 1.0, "mode": "fan_avg", "seed": null, "distribution": "uniform"}}, "trainable": false, "activation": "linear", "kernel_constraint": null, "kernel_size": [3, 3], "data_format": "channels_last", "strides": [1, 1], "padding": "valid", "dilation_rate": [1, 1], "bias_initializer": {"class_name": "Zeros", "config": {}}, "activity_regularizer": null, "kernel_regularizer": null, "filters": 192, "use_bias": false, "bias_constraint": null, "name": "conv2d_5", "bias_regularizer": null}}, {"inbound_nodes": [[["conv2d_5", 0, 0, {}]]], "class_name": "BatchNormalization", "name": "batch_normalization_5", "config": {"epsilon": 0.001, "trainable": false, "gamma_regularizer": null, "beta_initializer": {"class_name": "Zeros", "config": {}}, "center": true, "moving_variance_initializer": {"class_name": "Ones", "config": {}}, "moving_mean_initializer": {"class_name": "Zeros", "config": {}}, "gamma_initializer": {"class_name": "Ones", "config": {}}, "scale": false, "beta_regularizer": null, "beta_constraint": null, "axis": 3, "momentum": 0.99, "gamma_constraint": null, "name": "batch_normalization_5"}}, {"inbound_nodes": [[["batch_normalization_5", 0, 0, {}]]], "class_name": "Activation", "name": "activation_5", "config": {"trainable": false, "activation": "relu", "name": "activation_5"}}, {"inbound_nodes": [[["activation_5", 0, 0, {}]]], "class_name": "MaxPooling2D", "name": "max_pooling2d_2", "config": {"strides": [2, 2], "padding": "valid", "pool_size": [3, 3], "trainable": false, "data_format": "channels_last", "name": "max_pooling2d_2"}}, {"inbound_nodes": [[["max_pooling2d_2", 0, 0, {}]]], "class_name": "Conv2D", "name": "conv2d_9", "config": {"kernel_initializer": {"class_name": "VarianceScaling", "config": {"scale": 1.0, "mode": "fan_avg", "seed": null, "distribution": "uniform"}}, "trainable": false, "activation": "linear", "kernel_constraint": null, "kernel_size": [1, 1], "data_format": "channels_last", "strides": [1, 1], "padding": "same", "dilation_rate": [1, 1], "bias_initializer": {"class_name": "Zeros", "config": {}}, "activity_regularizer": null, "kernel_regularizer": null, "filters": 64, "use_bias": false, "bias_constraint": null, "name": "conv2d_9", "bias_regularizer": null}}, {"inbound_nodes": [[["conv2d_9", 0, 0, {}]]], "class_name": "BatchNormalization", "name": "batch_normalization_9", "config": {"epsilon": 0.001, "trainable": false, "gamma_regularizer": null, "beta_initializer": {"class_name": "Zeros", "config": {}}, "center": true, "moving_variance_initializer": {"class_name": "Ones", "config": {}}, "moving_mean_initializer": {"class_name": "Zeros", "config": {}}, "gamma_initializer": {"class_name": "Ones", "config": {}}, "scale": false, "beta_regularizer": null, "beta_constraint": null, "axis": 3, "momentum": 0.99, "gamma_constraint": null, "name": "batch_normalization_9"}}, {"inbound_nodes": [[["batch_normalization_9", 0, 0, {}]]], "class_name": "Activation", "name": "activation_9", "config": {"trainable": false, "activation": "relu", "name": "activation_9"}}, {"inbound_nodes": [[["max_pooling2d_2", 0, 0, {}]]], "class_name": "Conv2D", "name": "conv2d_7", "config": {"kernel_initializer": {"class_name": "VarianceScaling", "config": {"scale": 1.0, "mode": "fan_avg", "seed": null, "distribution": "uniform"}}, "trainable": false, "activation": "linear", "kernel_constraint": null, "kernel_size": [1, 1], "data_format": "channels_last", "strides": [1, 1], "padding": "same", "dilation_rate": [1, 1], "bias_initializer": {"class_name": "Zeros", "config": {}}, "activity_regularizer": null, "kernel_regularizer": null, "filters": 48, "use_bias": false, "bias_constraint": null, "name": "conv2d_7", "bias_regularizer": null}}, {"inbound_nodes": [[["activation_9", 0, 0, {}]]], "class_name": "Conv2D", "name": "conv2d_10", "config": {"kernel_initializer": {"class_name": "VarianceScaling", "config": {"scale": 1.0, "mode": "fan_avg", "seed": null, "distribution": "uniform"}}, "trainable": false, "activation": "linear", "kernel_constraint": null, "kernel_size": [3, 3], "data_format": "channels_last", "strides": [1, 1], "padding": "same", "dilation_rate": [1, 1], "bias_initializer": {"class_name": "Zeros", "config": {}}, "activity_regularizer": null, "kernel_regularizer": null, "filters": 96, "use_bias": false, "bias_constraint": null, "name": "conv2d_10", "bias_regularizer": null}}, {"inbound_nodes": [[["conv2d_7", 0, 0, {}]]], "class_name": "BatchNormalization", "name": "batch_normalization_7", "config": {"epsilon": 0.001, "trainable": false, "gamma_regularizer": null, "beta_initializer": {"class_name": "Zeros", "config": {}}, "center": true, "moving_variance_initializer": {"class_name": "Ones", "config": {}}, "moving_mean_initializer": {"class_name": "Zeros", "config": {}}, "gamma_initializer": {"class_name": "Ones", "config": {}}, "scale": false, "beta_regularizer": null, "beta_constraint": null, "axis": 3, "momentum": 0.99, "gamma_constraint": null, "name": "batch_normalization_7"}}, {"inbound_nodes": [[["conv2d_10", 0, 0, {}]]], "class_name": "BatchNormalization", "name": "batch_normalization_10", "config": {"epsilon": 0.001, "trainable": false, "gamma_regularizer": null, "beta_initializer": {"class_name": "Zeros", "config": {}}, "center": true, "moving_variance_initializer": {"class_name": "Ones", "config": {}}, "moving_mean_initializer": {"class_name": "Zeros", "config": {}}, "gamma_initializer": {"class_name": "Ones", "config": {}}, "scale": false, "beta_regularizer": null, "beta_constraint": null, "axis": 3, "momentum": 0.99, "gamma_constraint": null, "name": "batch_normalization_10"}}, {"inbound_nodes": [[["batch_normalization_7", 0, 0, {}]]], "class_name": "Activation", "name": "activation_7", "config": {"trainable": false, "activation": "relu", "name": "activation_7"}}, {"inbound_nodes": [[["batch_normalization_10", 0, 0, {}]]], "class_name": "Activation", "name": "activation_10", "config": {"trainable": false, "activation": "relu", "name": "activation_10"}}, {"inbound_nodes": [[["max_pooling2d_2", 0, 0, {}]]], "class_name": "AveragePooling2D", "name": "average_pooling2d_1", "config": {"strides": [1, 1], "padding": "same", "pool_size": [3, 3], "trainable": false, "data_format": "channels_last", "name": "average_pooling2d_1"}}, {"inbound_nodes": [[["max_pooling2d_2", 0, 0, {}]]], "class_name": "Conv2D", "name": "conv2d_6", "config": {"kernel_initializer": {"class_name": "VarianceScaling", "config": {"scale": 1.0, "mode": "fan_avg", "seed": null, "distribution": "uniform"}}, "trainable": false, "activation": "linear", "kernel_constraint": null, "kernel_size": [1, 1], "data_format": "channels_last", "strides": [1, 1], "padding": "same", "dilation_rate": [1, 1], "bias_initializer": {"class_name": "Zeros", "config": {}}, "activity_regularizer": null, "kernel_regularizer": null, "filters": 96, "use_bias": false, "bias_constraint": null, "name": "conv2d_6", "bias_regularizer": null}}, {"inbound_nodes": [[["activation_7", 0, 0, {}]]], "class_name": "Conv2D", "name": "conv2d_8", "config": {"kernel_initializer": {"class_name": "VarianceScaling", "config": {"scale": 1.0, "mode": "fan_avg", "seed": null, "distribution": "uniform"}}, "trainable": false, "activation": "linear", "kernel_constraint": null, "kernel_size": [5, 5], "data_format": "channels_last", "strides": [1, 1], "padding": "same", "dilation_rate": [1, 1], "bias_initializer": {"class_name": "Zeros", "config": {}}, "activity_regularizer": null, "kernel_regularizer": null, "filters": 64, "use_bias": false, "bias_constraint": null, "name": "conv2d_8", "bias_regularizer": null}}, {"inbound_nodes": [[["activation_10", 0, 0, {}]]], "class_name": "Conv2D", "name": "conv2d_11", "config": {"kernel_initializer": {"class_name": "VarianceScaling", "config": {"scale": 1.0, "mode": "fan_avg", "seed": null, "distribution": "uniform"}}, "trainable": false, "activation": "linear", "kernel_constraint": null, "kernel_size": [3, 3], "data_format": "channels_last", "strides": [1, 1], "padding": "same", "dilation_rate": [1, 1], "bias_initializer": {"class_name": "Zeros", "config": {}}, "activity_regularizer": null, "kernel_regularizer": null, "filters": 96, "use_bias": false, "bias_constraint": null, "name": "conv2d_11", "bias_regularizer": null}}, {"inbound_nodes": [[["average_pooling2d_1", 0, 0, {}]]], "class_name": "Conv2D", "name": "conv2d_12", "config": {"kernel_initializer": {"class_name": "VarianceScaling", "config": {"scale": 1.0, "mode": "fan_avg", "seed": null, "distribution": "uniform"}}, "trainable": false, "activation": "linear", "kernel_constraint": null, "kernel_size": [1, 1], "data_format": "channels_last", "strides": [1, 1], "padding": "same", "dilation_rate": [1, 1], "bias_initializer": {"class_name": "Zeros", "config": {}}, "activity_regularizer": null, "kernel_regularizer": null, "filters": 64, "use_bias": false, "bias_constraint": null, "name": "conv2d_12", "bias_regularizer": null}}, {"inbound_nodes": [[["conv2d_6", 0, 0, {}]]], "class_name": "BatchNormalization", "name": "batch_normalization_6", "config": {"epsilon": 0.001, "trainable": false, "gamma_regularizer": null, "beta_initializer": {"class_name": "Zeros", "config": {}}, "center": true, "moving_variance_initializer": {"class_name": "Ones", "config": {}}, "moving_mean_initializer": {"class_name": "Zeros", "config": {}}, "gamma_initializer": {"class_name": "Ones", "config": {}}, "scale": false, "beta_regularizer": null, "beta_constraint": null, "axis": 3, "momentum": 0.99, "gamma_constraint": null, "name": "batch_normalization_6"}}, {"inbound_nodes": [[["conv2d_8", 0, 0, {}]]], "class_name": "BatchNormalization", "name": "batch_normalization_8", "config": {"epsilon": 0.001, "trainable": false, "gamma_regularizer": null, "beta_initializer": {"class_name": "Zeros", "config": {}}, "center": true, "moving_variance_initializer": {"class_name": "Ones", "config": {}}, "moving_mean_initializer": {"class_name": "Zeros", "config": {}}, "gamma_initializer": {"class_name": "Ones", "config": {}}, "scale": false, "beta_regularizer": null, "beta_constraint": null, "axis": 3, "momentum": 0.99, "gamma_constraint": null, "name": "batch_normalization_8"}}, {"inbound_nodes": [[["conv2d_11", 0, 0, {}]]], "class_name": "BatchNormalization", "name": "batch_normalization_11", "config": {"epsilon": 0.001, "trainable": false, "gamma_regularizer": null, "beta_initializer": {"class_name": "Zeros", "config": {}}, "center": true, "moving_variance_initializer": {"class_name": "Ones", "config": {}}, "moving_mean_initializer": {"class_name": "Zeros", "config": {}}, "gamma_initializer": {"class_name": "Ones", "config": {}}, "scale": false, "beta_regularizer": null, "beta_constraint": null, "axis": 3, "momentum": 0.99, "gamma_constraint": null, "name": "batch_normalization_11"}}, {"inbound_nodes": [[["conv2d_12", 0, 0, {}]]], "class_name": "BatchNormalization", "name": "batch_normalization_12", "config": {"epsilon": 0.001, "trainable": false, "gamma_regularizer": null, "beta_initializer": {"class_name": "Zeros", "config": {}}, "center": true, "moving_variance_initializer": {"class_name": "Ones", "config": {}}, "moving_mean_initializer": {"class_name": "Zeros", "config": {}}, "gamma_initializer": {"class_name": "Ones", "config": {}}, "scale": false, "beta_regularizer": null, "beta_constraint": null, "axis": 3, "momentum": 0.99, "gamma_constraint": null, "name": "batch_normalization_12"}}, {"inbound_nodes": [[["batch_normalization_6", 0, 0, {}]]], "class_name": "Activation", "name": "activation_6", "config": {"trainable": false, "activation": "relu", "name": "activation_6"}}, {"inbound_nodes": [[["batch_normalization_8", 0, 0, {}]]], "class_name": "Activation", "name": "activation_8", "config": {"trainable": false, "activation": "relu", "name": "activation_8"}}, {"inbound_nodes": [[["batch_normalization_11", 0, 0, {}]]], "class_name": "Activation", "name": "activation_11", "config": {"trainable": false, "activation": "relu", "name": "activation_11"}}, {"inbound_nodes": [[["batch_normalization_12", 0, 0, {}]]], "class_name": "Activation", "name": "activation_12", "config": {"trainable": false, "activation": "relu", "name": "activation_12"}}, {"inbound_nodes": [[["activation_6", 0, 0, {}], ["activation_8", 0, 0, {}], ["activation_11", 0, 0, {}], ["activation_12", 0, 0, {}]]], "class_name": "Concatenate", "name": "mixed_5b", "config": {"axis": 3, "trainable": false, "name": "mixed_5b"}}, {"inbound_nodes": [[["mixed_5b", 0, 0, {}]]], "class_name": "Conv2D", "name": "conv2d_16", "config": {"kernel_initializer": {"class_name": "VarianceScaling", "config": {"scale": 1.0, "mode": "fan_avg", "seed": null, "distribution": "uniform"}}, "trainable": false, "activation": "linear", "kernel_constraint": null, "kernel_size": [1, 1], "data_format": "channels_last", "strides": [1, 1], "padding": "same", "dilation_rate": [1, 1], "bias_initializer": {"class_name": "Zeros", "config": {}}, "activity_regularizer": null, "kernel_regularizer": null, "filters": 32, "use_bias": false, "bias_constraint": null, "name": "conv2d_16", "bias_regularizer": null}}, {"inbound_nodes": [[["conv2d_16", 0, 0, {}]]], "class_name": "BatchNormalization", "name": "batch_normalization_16", "config": {"epsilon": 0.001, "trainable": false, "gamma_regularizer": null, "beta_initializer": {"class_name": "Zeros", "config": {}}, "center": true, "moving_variance_initializer": {"class_name": "Ones", "config": {}}, "moving_mean_initializer": {"class_name": "Zeros", "config": {}}, "gamma_initializer": {"class_name": "Ones", "config": {}}, "scale": false, "beta_regularizer": null, "beta_constraint": null, "axis": 3, "momentum": 0.99, "gamma_constraint": null, "name": "batch_normalization_16"}}, {"inbound_nodes": [[["batch_normalization_16", 0, 0, {}]]], "class_name": "Activation", "name": "activation_16", "config": {"trainable": false, "activation": "relu", "name": "activation_16"}}, {"inbound_nodes": [[["mixed_5b", 0, 0, {}]]], "class_name": "Conv2D", "name": "conv2d_14", "config": {"kernel_initializer": {"class_name": "VarianceScaling", "config": {"scale": 1.0, "mode": "fan_avg", "seed": null, "distribution": "uniform"}}, "trainable": false, "activation": "linear", "kernel_constraint": null, "kernel_size": [1, 1], "data_format": "channels_last", "strides": [1, 1], "padding": "same", "dilation_rate": [1, 1], "bias_initializer": {"class_name": "Zeros", "config": {}}, "activity_regularizer": null, "kernel_regularizer": null, "filters": 32, "use_bias": false, "bias_constraint": null, "name": "conv2d_14", "bias_regularizer": null}}, {"inbound_nodes": [[["activation_16", 0, 0, {}]]], "class_name": "Conv2D", "name": "conv2d_17", "config": {"kernel_initializer": {"class_name": "VarianceScaling", "config": {"scale": 1.0, "mode": "fan_avg", "seed": null, "distribution": "uniform"}}, "trainable": false, "activation": "linear", "kernel_constraint": null, "kernel_size": [3, 3], "data_format": "channels_last", "strides": [1, 1], "padding": "same", "dilation_rate": [1, 1], "bias_initializer": {"class_name": "Zeros", "config": {}}, "activity_regularizer": null, "kernel_regularizer": null, "filters": 48, "use_bias": false, "bias_constraint": null, "name": "conv2d_17", "bias_regularizer": null}}, {"inbound_nodes": [[["conv2d_14", 0, 0, {}]]], "class_name": "BatchNormalization", "name": "batch_normalization_14", "config": {"epsilon": 0.001, "trainable": false, "gamma_regularizer": null, "beta_initializer": {"class_name": "Zeros", "config": {}}, "center": true, "moving_variance_initializer": {"class_name": "Ones", "config": {}}, "moving_mean_initializer": {"class_name": "Zeros", "config": {}}, "gamma_initializer": {"class_name": "Ones", "config": {}}, "scale": false, "beta_regularizer": null, "beta_constraint": null, "axis": 3, "momentum": 0.99, "gamma_constraint": null, "name": "batch_normalization_14"}}, {"inbound_nodes": [[["conv2d_17", 0, 0, {}]]], "class_name": "BatchNormalization", "name": "batch_normalization_17", "config": {"epsilon": 0.001, "trainable": false, "gamma_regularizer": null, "beta_initializer": {"class_name": "Zeros", "config": {}}, "center": true, "moving_variance_initializer": {"class_name": "Ones", "config": {}}, "moving_mean_initializer": {"class_name": "Zeros", "config": {}}, "gamma_initializer": {"class_name": "Ones", "config": {}}, "scale": false, "beta_regularizer": null, "beta_constraint": null, "axis": 3, "momentum": 0.99, "gamma_constraint": null, "name": "batch_normalization_17"}}, {"inbound_nodes": [[["batch_normalization_14", 0, 0, {}]]], "class_name": "Activation", "name": "activation_14", "config": {"trainable": false, "activation": "relu", "name": "activation_14"}}, {"inbound_nodes": [[["batch_normalization_17", 0, 0, {}]]], "class_name": "Activation", "name": "activation_17", "config": {"trainable": false, "activation": "relu", "name": "activation_17"}}, {"inbound_nodes": [[["mixed_5b", 0, 0, {}]]], "class_name": "Conv2D", "name": "conv2d_13", "config": {"kernel_initializer": {"class_name": "VarianceScaling", "config": {"scale": 1.0, "mode": "fan_avg", "seed": null, "distribution": "uniform"}}, "trainable": false, "activation": "linear", "kernel_constraint": null, "kernel_size": [1, 1], "data_format": "channels_last", "strides": [1, 1], "padding": "same", "dilation_rate": [1, 1], "bias_initializer": {"class_name": "Zeros", "config": {}}, "activity_regularizer": null, "kernel_regularizer": null, "filters": 32, "use_bias": false, "bias_constraint": null, "name": "conv2d_13", "bias_regularizer": null}}, {"inbound_nodes": [[["activation_14", 0, 0, {}]]], "class_name": "Conv2D", "name": "conv2d_15", "config": {"kernel_initializer": {"class_name": "VarianceScaling", "config": {"scale": 1.0, "mode": "fan_avg", "seed": null, "distribution": "uniform"}}, "trainable": false, "activation": "linear", "kernel_constraint": null, "kernel_size": [3, 3], "data_format": "channels_last", "strides": [1, 1], "padding": "same", "dilation_rate": [1, 1], "bias_initializer": {"class_name": "Zeros", "config": {}}, "activity_regularizer": null, "kernel_regularizer": null, "filters": 32, "use_bias": false, "bias_constraint": null, "name": "conv2d_15", "bias_regularizer": null}}, {"inbound_nodes": [[["activation_17", 0, 0, {}]]], "class_name": "Conv2D", "name": "conv2d_18", "config": {"kernel_initializer": {"class_name": "VarianceScaling", "config": {"scale": 1.0, "mode": "fan_avg", "seed": null, "distribution": "uniform"}}, "trainable": false, "activation": "linear", "kernel_constraint": null, "kernel_size": [3, 3], "data_format": "channels_last", "strides": [1, 1], "padding": "same", "dilation_rate": [1, 1], "bias_initializer": {"class_name": "Zeros", "config": {}}, "activity_regularizer": null, "kernel_regularizer": null, "filters": 64, "use_bias": false, "bias_constraint": null, "name": "conv2d_18", "bias_regularizer": null}}, {"inbound_nodes": [[["conv2d_13", 0, 0, {}]]], "class_name": "BatchNormalization", "name": "batch_normalization_13", "config": {"epsilon": 0.001, "trainable": false, "gamma_regularizer": null, "beta_initializer": {"class_name": "Zeros", "config": {}}, "center": true, "moving_variance_initializer": {"class_name": "Ones", "config": {}}, "moving_mean_initializer": {"class_name": "Zeros", "config": {}}, "gamma_initializer": {"class_name": "Ones", "config": {}}, "scale": false, "beta_regularizer": null, "beta_constraint": null, "axis": 3, "momentum": 0.99, "gamma_constraint": null, "name": "batch_normalization_13"}}, {"inbound_nodes": [[["conv2d_15", 0, 0, {}]]], "class_name": "BatchNormalization", "name": "batch_normalization_15", "config": {"epsilon": 0.001, "trainable": false, "gamma_regularizer": null, "beta_initializer": {"class_name": "Zeros", "config": {}}, "center": true, "moving_variance_initializer": {"class_name": "Ones", "config": {}}, "moving_mean_initializer": {"class_name": "Zeros", "config": {}}, "gamma_initializer": {"class_name": "Ones", "config": {}}, "scale": false, "beta_regularizer": null, "beta_constraint": null, "axis": 3, "momentum": 0.99, "gamma_constraint": null, "name": "batch_normalization_15"}}, {"inbound_nodes": [[["conv2d_18", 0, 0, {}]]], "class_name": "BatchNormalization", "name": "batch_normalization_18", "config": {"epsilon": 0.001, "trainable": false, "gamma_regularizer": null, "beta_initializer": {"class_name": "Zeros", "config": {}}, "center": true, "moving_variance_initializer": {"class_name": "Ones", "config": {}}, "moving_mean_initializer": {"class_name": "Zeros", "config": {}}, "gamma_initializer": {"class_name": "Ones", "config": {}}, "scale": false, "beta_regularizer": null, "beta_constraint": null, "axis": 3, "momentum": 0.99, "gamma_constraint": null, "name": "batch_normalization_18"}}, {"inbound_nodes": [[["batch_normalization_13", 0, 0, {}]]], "class_name": "Activation", "name": "activation_13", "config": {"trainable": false, "activation": "relu", "name": "activation_13"}}, {"inbound_nodes": [[["batch_normalization_15", 0, 0, {}]]], "class_name": "Activation", "name": "activation_15", "config": {"trainable": false, "activation": "relu", "name": "activation_15"}}, {"inbound_nodes": [[["batch_normalization_18", 0, 0, {}]]], "class_name": "Activation", "name": "activation_18", "config": {"trainable": false, "activation": "relu", "name": "activation_18"}}, {"inbound_nodes": [[["activation_13", 0, 0, {}], ["activation_15", 0, 0, {}], ["activation_18", 0, 0, {}]]], "class_name": "Concatenate", "name": "block35_1_mixed", "config": {"axis": 3, "trainable": false, "name": "block35_1_mixed"}}, {"inbound_nodes": [[["block35_1_mixed", 0, 0, {}]]], "class_name": "Conv2D", "name": "block35_1_conv", "config": {"kernel_initializer": {"class_name": "VarianceScaling", "config": {"scale": 1.0, "mode": "fan_avg", "seed": null, "distribution": "uniform"}}, "trainable": false, "activation": "linear", "kernel_constraint": null, "kernel_size": [1, 1], "data_format": "channels_last", "strides": [1, 1], "padding": "same", "dilation_rate": [1, 1], "bias_initializer": {"class_name": "Zeros", "config": {}}, "activity_regularizer": null, "kernel_regularizer": null, "filters": 320, "use_bias": true, "bias_constraint": null, "name": "block35_1_conv", "bias_regularizer": null}}, {"inbound_nodes": [[["mixed_5b", 0, 0, {}], ["block35_1_conv", 0, 0, {}]]], "class_name": "Lambda", "name": "block35_1", "config": {"output_shape_type": "raw", "trainable": false, "arguments": {"scale": 0.17}, "function_type": "lambda", "function": ["4wIAAAAAAAAAAgAAAAMAAABTAAAAcxQAAAB8AABkAQAZfAAAZAIAGXwBABQXUykDTukAAAAA6QEA\nAACpACkC2gZpbnB1dHPaBXNjYWxlcgMAAAByAwAAAPpvQzpcVXNlcnNcSm9lXEFwcERhdGFcTG9j\nYWxcUHJvZ3JhbXNcUHl0aG9uXFB5dGhvbjM1XGxpYlxzaXRlLXBhY2thZ2VzXGtlcmFzXGFwcGxp\nY2F0aW9uc1xpbmNlcHRpb25fcmVzbmV0X3YyLnB52gg8bGFtYmRhPqgAAADzAAAAAA==\n", null, null], "name": "block35_1", "output_shape": [35, 35, 320]}}, {"inbound_nodes": [[["block35_1", 0, 0, {}]]], "class_name": "Activation", "name": "block35_1_ac", "config": {"trainable": false, "activation": "relu", "name": "block35_1_ac"}}, {"inbound_nodes": [[["block35_1_ac", 0, 0, {}]]], "class_name": "Conv2D", "name": "conv2d_22", "config": {"kernel_initializer": {"class_name": "VarianceScaling", "config": {"scale": 1.0, "mode": "fan_avg", "seed": null, "distribution": "uniform"}}, "trainable": false, "activation": "linear", "kernel_constraint": null, "kernel_size": [1, 1], "data_format": "channels_last", "strides": [1, 1], "padding": "same", "dilation_rate": [1, 1], "bias_initializer": {"class_name": "Zeros", "config": {}}, "activity_regularizer": null, "kernel_regularizer": null, "filters": 32, "use_bias": false, "bias_constraint": null, "name": "conv2d_22", "bias_regularizer": null}}, {"inbound_nodes": [[["conv2d_22", 0, 0, {}]]], "class_name": "BatchNormalization", "name": "batch_normalization_22", "config": {"epsilon": 0.001, "trainable": false, "gamma_regularizer": null, "beta_initializer": {"class_name": "Zeros", "config": {}}, "center": true, "moving_variance_initializer": {"class_name": "Ones", "config": {}}, "moving_mean_initializer": {"class_name": "Zeros", "config": {}}, "gamma_initializer": {"class_name": "Ones", "config": {}}, "scale": false, "beta_regularizer": null, "beta_constraint": null, "axis": 3, "momentum": 0.99, "gamma_constraint": null, "name": "batch_normalization_22"}}, {"inbound_nodes": [[["batch_normalization_22", 0, 0, {}]]], "class_name": "Activation", "name": "activation_22", "config": {"trainable": false, "activation": "relu", "name": "activation_22"}}, {"inbound_nodes": [[["block35_1_ac", 0, 0, {}]]], "class_name": "Conv2D", "name": "conv2d_20", "config": {"kernel_initializer": {"class_name": "VarianceScaling", "config": {"scale": 1.0, "mode": "fan_avg", "seed": null, "distribution": "uniform"}}, "trainable": false, "activation": "linear", "kernel_constraint": null, "kernel_size": [1, 1], "data_format": "channels_last", "strides": [1, 1], "padding": "same", "dilation_rate": [1, 1], "bias_initializer": {"class_name": "Zeros", "config": {}}, "activity_regularizer": null, "kernel_regularizer": null, "filters": 32, "use_bias": false, "bias_constraint": null, "name": "conv2d_20", "bias_regularizer": null}}, {"inbound_nodes": [[["activation_22", 0, 0, {}]]], "class_name": "Conv2D", "name": "conv2d_23", "config": {"kernel_initializer": {"class_name": "VarianceScaling", "config": {"scale": 1.0, "mode": "fan_avg", "seed": null, "distribution": "uniform"}}, "trainable": false, "activation": "linear", "kernel_constraint": null, "kernel_size": [3, 3], "data_format": "channels_last", "strides": [1, 1], "padding": "same", "dilation_rate": [1, 1], "bias_initializer": {"class_name": "Zeros", "config": {}}, "activity_regularizer": null, "kernel_regularizer": null, "filters": 48, "use_bias": false, "bias_constraint": null, "name": "conv2d_23", "bias_regularizer": null}}, {"inbound_nodes": [[["conv2d_20", 0, 0, {}]]], "class_name": "BatchNormalization", "name": "batch_normalization_20", "config": {"epsilon": 0.001, "trainable": false, "gamma_regularizer": null, "beta_initializer": {"class_name": "Zeros", "config": {}}, "center": true, "moving_variance_initializer": {"class_name": "Ones", "config": {}}, "moving_mean_initializer": {"class_name": "Zeros", "config": {}}, "gamma_initializer": {"class_name": "Ones", "config": {}}, "scale": false, "beta_regularizer": null, "beta_constraint": null, "axis": 3, "momentum": 0.99, "gamma_constraint": null, "name": "batch_normalization_20"}}, {"inbound_nodes": [[["conv2d_23", 0, 0, {}]]], "class_name": "BatchNormalization", "name": "batch_normalization_23", "config": {"epsilon": 0.001, "trainable": false, "gamma_regularizer": null, "beta_initializer": {"class_name": "Zeros", "config": {}}, "center": true, "moving_variance_initializer": {"class_name": "Ones", "config": {}}, "moving_mean_initializer": {"class_name": "Zeros", "config": {}}, "gamma_initializer": {"class_name": "Ones", "config": {}}, "scale": false, "beta_regularizer": null, "beta_constraint": null, "axis": 3, "momentum": 0.99, "gamma_constraint": null, "name": "batch_normalization_23"}}, {"inbound_nodes": [[["batch_normalization_20", 0, 0, {}]]], "class_name": "Activation", "name": "activation_20", "config": {"trainable": false, "activation": "relu", "name": "activation_20"}}, {"inbound_nodes": [[["batch_normalization_23", 0, 0, {}]]], "class_name": "Activation", "name": "activation_23", "config": {"trainable": false, "activation": "relu", "name": "activation_23"}}, {"inbound_nodes": [[["block35_1_ac", 0, 0, {}]]], "class_name": "Conv2D", "name": "conv2d_19", "config": {"kernel_initializer": {"class_name": "VarianceScaling", "config": {"scale": 1.0, "mode": "fan_avg", "seed": null, "distribution": "uniform"}}, "trainable": false, "activation": "linear", "kernel_constraint": null, "kernel_size": [1, 1], "data_format": "channels_last", "strides": [1, 1], "padding": "same", "dilation_rate": [1, 1], "bias_initializer": {"class_name": "Zeros", "config": {}}, "activity_regularizer": null, "kernel_regularizer": null, "filters": 32, "use_bias": false, "bias_constraint": null, "name": "conv2d_19", "bias_regularizer": null}}, {"inbound_nodes": [[["activation_20", 0, 0, {}]]], "class_name": "Conv2D", "name": "conv2d_21", "config": {"kernel_initializer": {"class_name": "VarianceScaling", "config": {"scale": 1.0, "mode": "fan_avg", "seed": null, "distribution": "uniform"}}, "trainable": false, "activation": "linear", "kernel_constraint": null, "kernel_size": [3, 3], "data_format": "channels_last", "strides": [1, 1], "padding": "same", "dilation_rate": [1, 1], "bias_initializer": {"class_name": "Zeros", "config": {}}, "activity_regularizer": null, "kernel_regularizer": null, "filters": 32, "use_bias": false, "bias_constraint": null, "name": "conv2d_21", "bias_regularizer": null}}, {"inbound_nodes": [[["activation_23", 0, 0, {}]]], "class_name": "Conv2D", "name": "conv2d_24", "config": {"kernel_initializer": {"class_name": "VarianceScaling", "config": {"scale": 1.0, "mode": "fan_avg", "seed": null, "distribution": "uniform"}}, "trainable": false, "activation": "linear", "kernel_constraint": null, "kernel_size": [3, 3], "data_format": "channels_last", "strides": [1, 1], "padding": "same", "dilation_rate": [1, 1], "bias_initializer": {"class_name": "Zeros", "config": {}}, "activity_regularizer": null, "kernel_regularizer": null, "filters": 64, "use_bias": false, "bias_constraint": null, "name": "conv2d_24", "bias_regularizer": null}}, {"inbound_nodes": [[["conv2d_19", 0, 0, {}]]], "class_name": "BatchNormalization", "name": "batch_normalization_19", "config": {"epsilon": 0.001, "trainable": false, "gamma_regularizer": null, "beta_initializer": {"class_name": "Zeros", "config": {}}, "center": true, "moving_variance_initializer": {"class_name": "Ones", "config": {}}, "moving_mean_initializer": {"class_name": "Zeros", "config": {}}, "gamma_initializer": {"class_name": "Ones", "config": {}}, "scale": false, "beta_regularizer": null, "beta_constraint": null, "axis": 3, "momentum": 0.99, "gamma_constraint": null, "name": "batch_normalization_19"}}, {"inbound_nodes": [[["conv2d_21", 0, 0, {}]]], "class_name": "BatchNormalization", "name": "batch_normalization_21", "config": {"epsilon": 0.001, "trainable": false, "gamma_regularizer": null, "beta_initializer": {"class_name": "Zeros", "config": {}}, "center": true, "moving_variance_initializer": {"class_name": "Ones", "config": {}}, "moving_mean_initializer": {"class_name": "Zeros", "config": {}}, "gamma_initializer": {"class_name": "Ones", "config": {}}, "scale": false, "beta_regularizer": null, "beta_constraint": null, "axis": 3, "momentum": 0.99, "gamma_constraint": null, "name": "batch_normalization_21"}}, {"inbound_nodes": [[["conv2d_24", 0, 0, {}]]], "class_name": "BatchNormalization", "name": "batch_normalization_24", "config": {"epsilon": 0.001, "trainable": false, "gamma_regularizer": null, "beta_initializer": {"class_name": "Zeros", "config": {}}, "center": true, "moving_variance_initializer": {"class_name": "Ones", "config": {}}, "moving_mean_initializer": {"class_name": "Zeros", "config": {}}, "gamma_initializer": {"class_name": "Ones", "config": {}}, "scale": false, "beta_regularizer": null, "beta_constraint": null, "axis": 3, "momentum": 0.99, "gamma_constraint": null, "name": "batch_normalization_24"}}, {"inbound_nodes": [[["batch_normalization_19", 0, 0, {}]]], "class_name": "Activation", "name": "activation_19", "config": {"trainable": false, "activation": "relu", "name": "activation_19"}}, {"inbound_nodes": [[["batch_normalization_21", 0, 0, {}]]], "class_name": "Activation", "name": "activation_21", "config": {"trainable": false, "activation": "relu", "name": "activation_21"}}, {"inbound_nodes": [[["batch_normalization_24", 0, 0, {}]]], "class_name": "Activation", "name": "activation_24", "config": {"trainable": false, "activation": "relu", "name": "activation_24"}}, {"inbound_nodes": [[["activation_19", 0, 0, {}], ["activation_21", 0, 0, {}], ["activation_24", 0, 0, {}]]], "class_name": "Concatenate", "name": "block35_2_mixed", "config": {"axis": 3, "trainable": false, "name": "block35_2_mixed"}}, {"inbound_nodes": [[["block35_2_mixed", 0, 0, {}]]], "class_name": "Conv2D", "name": "block35_2_conv", "config": {"kernel_initializer": {"class_name": "VarianceScaling", "config": {"scale": 1.0, "mode": "fan_avg", "seed": null, "distribution": "uniform"}}, "trainable": false, "activation": "linear", "kernel_constraint": null, "kernel_size": [1, 1], "data_format": "channels_last", "strides": [1, 1], "padding": "same", "dilation_rate": [1, 1], "bias_initializer": {"class_name": "Zeros", "config": {}}, "activity_regularizer": null, "kernel_regularizer": null, "filters": 320, "use_bias": true, "bias_constraint": null, "name": "block35_2_conv", "bias_regularizer": null}}, {"inbound_nodes": [[["block35_1_ac", 0, 0, {}], ["block35_2_conv", 0, 0, {}]]], "class_name": "Lambda", "name": "block35_2", "config": {"output_shape_type": "raw", "trainable": false, "arguments": {"scale": 0.17}, "function_type": "lambda", "function": ["4wIAAAAAAAAAAgAAAAMAAABTAAAAcxQAAAB8AABkAQAZfAAAZAIAGXwBABQXUykDTukAAAAA6QEA\nAACpACkC2gZpbnB1dHPaBXNjYWxlcgMAAAByAwAAAPpvQzpcVXNlcnNcSm9lXEFwcERhdGFcTG9j\nYWxcUHJvZ3JhbXNcUHl0aG9uXFB5dGhvbjM1XGxpYlxzaXRlLXBhY2thZ2VzXGtlcmFzXGFwcGxp\nY2F0aW9uc1xpbmNlcHRpb25fcmVzbmV0X3YyLnB52gg8bGFtYmRhPqgAAADzAAAAAA==\n", null, null], "name": "block35_2", "output_shape": [35, 35, 320]}}, {"inbound_nodes": [[["block35_2", 0, 0, {}]]], "class_name": "Activation", "name": "block35_2_ac", "config": {"trainable": false, "activation": "relu", "name": "block35_2_ac"}}, {"inbound_nodes": [[["block35_2_ac", 0, 0, {}]]], "class_name": "Conv2D", "name": "conv2d_28", "config": {"kernel_initializer": {"class_name": "VarianceScaling", "config": {"scale": 1.0, "mode": "fan_avg", "seed": null, "distribution": "uniform"}}, "trainable": false, "activation": "linear", "kernel_constraint": null, "kernel_size": [1, 1], "data_format": "channels_last", "strides": [1, 1], "padding": "same", "dilation_rate": [1, 1], "bias_initializer": {"class_name": "Zeros", "config": {}}, "activity_regularizer": null, "kernel_regularizer": null, "filters": 32, "use_bias": false, "bias_constraint": null, "name": "conv2d_28", "bias_regularizer": null}}, {"inbound_nodes": [[["conv2d_28", 0, 0, {}]]], "class_name": "BatchNormalization", "name": "batch_normalization_28", "config": {"epsilon": 0.001, "trainable": false, "gamma_regularizer": null, "beta_initializer": {"class_name": "Zeros", "config": {}}, "center": true, "moving_variance_initializer": {"class_name": "Ones", "config": {}}, "moving_mean_initializer": {"class_name": "Zeros", "config": {}}, "gamma_initializer": {"class_name": "Ones", "config": {}}, "scale": false, "beta_regularizer": null, "beta_constraint": null, "axis": 3, "momentum": 0.99, "gamma_constraint": null, "name": "batch_normalization_28"}}, {"inbound_nodes": [[["batch_normalization_28", 0, 0, {}]]], "class_name": "Activation", "name": "activation_28", "config": {"trainable": false, "activation": "relu", "name": "activation_28"}}, {"inbound_nodes": [[["block35_2_ac", 0, 0, {}]]], "class_name": "Conv2D", "name": "conv2d_26", "config": {"kernel_initializer": {"class_name": "VarianceScaling", "config": {"scale": 1.0, "mode": "fan_avg", "seed": null, "distribution": "uniform"}}, "trainable": false, "activation": "linear", "kernel_constraint": null, "kernel_size": [1, 1], "data_format": "channels_last", "strides": [1, 1], "padding": "same", "dilation_rate": [1, 1], "bias_initializer": {"class_name": "Zeros", "config": {}}, "activity_regularizer": null, "kernel_regularizer": null, "filters": 32, "use_bias": false, "bias_constraint": null, "name": "conv2d_26", "bias_regularizer": null}}, {"inbound_nodes": [[["activation_28", 0, 0, {}]]], "class_name": "Conv2D", "name": "conv2d_29", "config": {"kernel_initializer": {"class_name": "VarianceScaling", "config": {"scale": 1.0, "mode": "fan_avg", "seed": null, "distribution": "uniform"}}, "trainable": false, "activation": "linear", "kernel_constraint": null, "kernel_size": [3, 3], "data_format": "channels_last", "strides": [1, 1], "padding": "same", "dilation_rate": [1, 1], "bias_initializer": {"class_name": "Zeros", "config": {}}, "activity_regularizer": null, "kernel_regularizer": null, "filters": 48, "use_bias": false, "bias_constraint": null, "name": "conv2d_29", "bias_regularizer": null}}, {"inbound_nodes": [[["conv2d_26", 0, 0, {}]]], "class_name": "BatchNormalization", "name": "batch_normalization_26", "config": {"epsilon": 0.001, "trainable": false, "gamma_regularizer": null, "beta_initializer": {"class_name": "Zeros", "config": {}}, "center": true, "moving_variance_initializer": {"class_name": "Ones", "config": {}}, "moving_mean_initializer": {"class_name": "Zeros", "config": {}}, "gamma_initializer": {"class_name": "Ones", "config": {}}, "scale": false, "beta_regularizer": null, "beta_constraint": null, "axis": 3, "momentum": 0.99, "gamma_constraint": null, "name": "batch_normalization_26"}}, {"inbound_nodes": [[["conv2d_29", 0, 0, {}]]], "class_name": "BatchNormalization", "name": "batch_normalization_29", "config": {"epsilon": 0.001, "trainable": false, "gamma_regularizer": null, "beta_initializer": {"class_name": "Zeros", "config": {}}, "center": true, "moving_variance_initializer": {"class_name": "Ones", "config": {}}, "moving_mean_initializer": {"class_name": "Zeros", "config": {}}, "gamma_initializer": {"class_name": "Ones", "config": {}}, "scale": false, "beta_regularizer": null, "beta_constraint": null, "axis": 3, "momentum": 0.99, "gamma_constraint": null, "name": "batch_normalization_29"}}, {"inbound_nodes": [[["batch_normalization_26", 0, 0, {}]]], "class_name": "Activation", "name": "activation_26", "config": {"trainable": false, "activation": "relu", "name": "activation_26"}}, {"inbound_nodes": [[["batch_normalization_29", 0, 0, {}]]], "class_name": "Activation", "name": "activation_29", "config": {"trainable": false, "activation": "relu", "name": "activation_29"}}, {"inbound_nodes": [[["block35_2_ac", 0, 0, {}]]], "class_name": "Conv2D", "name": "conv2d_25", "config": {"kernel_initializer": {"class_name": "VarianceScaling", "config": {"scale": 1.0, "mode": "fan_avg", "seed": null, "distribution": "uniform"}}, "trainable": false, "activation": "linear", "kernel_constraint": null, "kernel_size": [1, 1], "data_format": "channels_last", "strides": [1, 1], "padding": "same", "dilation_rate": [1, 1], "bias_initializer": {"class_name": "Zeros", "config": {}}, "activity_regularizer": null, "kernel_regularizer": null, "filters": 32, "use_bias": false, "bias_constraint": null, "name": "conv2d_25", "bias_regularizer": null}}, {"inbound_nodes": [[["activation_26", 0, 0, {}]]], "class_name": "Conv2D", "name": "conv2d_27", "config": {"kernel_initializer": {"class_name": "VarianceScaling", "config": {"scale": 1.0, "mode": "fan_avg", "seed": null, "distribution": "uniform"}}, "trainable": false, "activation": "linear", "kernel_constraint": null, "kernel_size": [3, 3], "data_format": "channels_last", "strides": [1, 1], "padding": "same", "dilation_rate": [1, 1], "bias_initializer": {"class_name": "Zeros", "config": {}}, "activity_regularizer": null, "kernel_regularizer": null, "filters": 32, "use_bias": false, "bias_constraint": null, "name": "conv2d_27", "bias_regularizer": null}}, {"inbound_nodes": [[["activation_29", 0, 0, {}]]], "class_name": "Conv2D", "name": "conv2d_30", "config": {"kernel_initializer": {"class_name": "VarianceScaling", "config": {"scale": 1.0, "mode": "fan_avg", "seed": null, "distribution": "uniform"}}, "trainable": false, "activation": "linear", "kernel_constraint": null, "kernel_size": [3, 3], "data_format": "channels_last", "strides": [1, 1], "padding": "same", "dilation_rate": [1, 1], "bias_initializer": {"class_name": "Zeros", "config": {}}, "activity_regularizer": null, "kernel_regularizer": null, "filters": 64, "use_bias": false, "bias_constraint": null, "name": "conv2d_30", "bias_regularizer": null}}, {"inbound_nodes": [[["conv2d_25", 0, 0, {}]]], "class_name": "BatchNormalization", "name": "batch_normalization_25", "config": {"epsilon": 0.001, "trainable": false, "gamma_regularizer": null, "beta_initializer": {"class_name": "Zeros", "config": {}}, "center": true, "moving_variance_initializer": {"class_name": "Ones", "config": {}}, "moving_mean_initializer": {"class_name": "Zeros", "config": {}}, "gamma_initializer": {"class_name": "Ones", "config": {}}, "scale": false, "beta_regularizer": null, "beta_constraint": null, "axis": 3, "momentum": 0.99, "gamma_constraint": null, "name": "batch_normalization_25"}}, {"inbound_nodes": [[["conv2d_27", 0, 0, {}]]], "class_name": "BatchNormalization", "name": "batch_normalization_27", "config": {"epsilon": 0.001, "trainable": false, "gamma_regularizer": null, "beta_initializer": {"class_name": "Zeros", "config": {}}, "center": true, "moving_variance_initializer": {"class_name": "Ones", "config": {}}, "moving_mean_initializer": {"class_name": "Zeros", "config": {}}, "gamma_initializer": {"class_name": "Ones", "config": {}}, "scale": false, "beta_regularizer": null, "beta_constraint": null, "axis": 3, "momentum": 0.99, "gamma_constraint": null, "name": "batch_normalization_27"}}, {"inbound_nodes": [[["conv2d_30", 0, 0, {}]]], "class_name": "BatchNormalization", "name": "batch_normalization_30", "config": {"epsilon": 0.001, "trainable": false, "gamma_regularizer": null, "beta_initializer": {"class_name": "Zeros", "config": {}}, "center": true, "moving_variance_initializer": {"class_name": "Ones", "config": {}}, "moving_mean_initializer": {"class_name": "Zeros", "config": {}}, "gamma_initializer": {"class_name": "Ones", "config": {}}, "scale": false, "beta_regularizer": null, "beta_constraint": null, "axis": 3, "momentum": 0.99, "gamma_constraint": null, "name": "batch_normalization_30"}}, {"inbound_nodes": [[["batch_normalization_25", 0, 0, {}]]], "class_name": "Activation", "name": "activation_25", "config": {"trainable": false, "activation": "relu", "name": "activation_25"}}, {"inbound_nodes": [[["batch_normalization_27", 0, 0, {}]]], "class_name": "Activation", "name": "activation_27", "config": {"trainable": false, "activation": "relu", "name": "activation_27"}}, {"inbound_nodes": [[["batch_normalization_30", 0, 0, {}]]], "class_name": "Activation", "name": "activation_30", "config": {"trainable": false, "activation": "relu", "name": "activation_30"}}, {"inbound_nodes": [[["activation_25", 0, 0, {}], ["activation_27", 0, 0, {}], ["activation_30", 0, 0, {}]]], "class_name": "Concatenate", "name": "block35_3_mixed", "config": {"axis": 3, "trainable": false, "name": "block35_3_mixed"}}, {"inbound_nodes": [[["block35_3_mixed", 0, 0, {}]]], "class_name": "Conv2D", "name": "block35_3_conv", "config": {"kernel_initializer": {"class_name": "VarianceScaling", "config": {"scale": 1.0, "mode": "fan_avg", "seed": null, "distribution": "uniform"}}, "trainable": false, "activation": "linear", "kernel_constraint": null, "kernel_size": [1, 1], "data_format": "channels_last", "strides": [1, 1], "padding": "same", "dilation_rate": [1, 1], "bias_initializer": {"class_name": "Zeros", "config": {}}, "activity_regularizer": null, "kernel_regularizer": null, "filters": 320, "use_bias": true, "bias_constraint": null, "name": "block35_3_conv", "bias_regularizer": null}}, {"inbound_nodes": [[["block35_2_ac", 0, 0, {}], ["block35_3_conv", 0, 0, {}]]], "class_name": "Lambda", "name": "block35_3", "config": {"output_shape_type": "raw", "trainable": false, "arguments": {"scale": 0.17}, "function_type": "lambda", "function": ["4wIAAAAAAAAAAgAAAAMAAABTAAAAcxQAAAB8AABkAQAZfAAAZAIAGXwBABQXUykDTukAAAAA6QEA\nAACpACkC2gZpbnB1dHPaBXNjYWxlcgMAAAByAwAAAPpvQzpcVXNlcnNcSm9lXEFwcERhdGFcTG9j\nYWxcUHJvZ3JhbXNcUHl0aG9uXFB5dGhvbjM1XGxpYlxzaXRlLXBhY2thZ2VzXGtlcmFzXGFwcGxp\nY2F0aW9uc1xpbmNlcHRpb25fcmVzbmV0X3YyLnB52gg8bGFtYmRhPqgAAADzAAAAAA==\n", null, null], "name": "block35_3", "output_shape": [35, 35, 320]}}, {"inbound_nodes": [[["block35_3", 0, 0, {}]]], "class_name": "Activation", "name": "block35_3_ac", "config": {"trainable": false, "activation": "relu", "name": "block35_3_ac"}}, {"inbound_nodes": [[["block35_3_ac", 0, 0, {}]]], "class_name": "Conv2D", "name": "conv2d_34", "config": {"kernel_initializer": {"class_name": "VarianceScaling", "config": {"scale": 1.0, "mode": "fan_avg", "seed": null, "distribution": "uniform"}}, "trainable": false, "activation": "linear", "kernel_constraint": null, "kernel_size": [1, 1], "data_format": "channels_last", "strides": [1, 1], "padding": "same", "dilation_rate": [1, 1], "bias_initializer": {"class_name": "Zeros", "config": {}}, "activity_regularizer": null, "kernel_regularizer": null, "filters": 32, "use_bias": false, "bias_constraint": null, "name": "conv2d_34", "bias_regularizer": null}}, {"inbound_nodes": [[["conv2d_34", 0, 0, {}]]], "class_name": "BatchNormalization", "name": "batch_normalization_34", "config": {"epsilon": 0.001, "trainable": false, "gamma_regularizer": null, "beta_initializer": {"class_name": "Zeros", "config": {}}, "center": true, "moving_variance_initializer": {"class_name": "Ones", "config": {}}, "moving_mean_initializer": {"class_name": "Zeros", "config": {}}, "gamma_initializer": {"class_name": "Ones", "config": {}}, "scale": false, "beta_regularizer": null, "beta_constraint": null, "axis": 3, "momentum": 0.99, "gamma_constraint": null, "name": "batch_normalization_34"}}, {"inbound_nodes": [[["batch_normalization_34", 0, 0, {}]]], "class_name": "Activation", "name": "activation_34", "config": {"trainable": false, "activation": "relu", "name": "activation_34"}}, {"inbound_nodes": [[["block35_3_ac", 0, 0, {}]]], "class_name": "Conv2D", "name": "conv2d_32", "config": {"kernel_initializer": {"class_name": "VarianceScaling", "config": {"scale": 1.0, "mode": "fan_avg", "seed": null, "distribution": "uniform"}}, "trainable": false, "activation": "linear", "kernel_constraint": null, "kernel_size": [1, 1], "data_format": "channels_last", "strides": [1, 1], "padding": "same", "dilation_rate": [1, 1], "bias_initializer": {"class_name": "Zeros", "config": {}}, "activity_regularizer": null, "kernel_regularizer": null, "filters": 32, "use_bias": false, "bias_constraint": null, "name": "conv2d_32", "bias_regularizer": null}}, {"inbound_nodes": [[["activation_34", 0, 0, {}]]], "class_name": "Conv2D", "name": "conv2d_35", "config": {"kernel_initializer": {"class_name": "VarianceScaling", "config": {"scale": 1.0, "mode": "fan_avg", "seed": null, "distribution": "uniform"}}, "trainable": false, "activation": "linear", "kernel_constraint": null, "kernel_size": [3, 3], "data_format": "channels_last", "strides": [1, 1], "padding": "same", "dilation_rate": [1, 1], "bias_initializer": {"class_name": "Zeros", "config": {}}, "activity_regularizer": null, "kernel_regularizer": null, "filters": 48, "use_bias": false, "bias_constraint": null, "name": "conv2d_35", "bias_regularizer": null}}, {"inbound_nodes": [[["conv2d_32", 0, 0, {}]]], "class_name": "BatchNormalization", "name": "batch_normalization_32", "config": {"epsilon": 0.001, "trainable": false, "gamma_regularizer": null, "beta_initializer": {"class_name": "Zeros", "config": {}}, "center": true, "moving_variance_initializer": {"class_name": "Ones", "config": {}}, "moving_mean_initializer": {"class_name": "Zeros", "config": {}}, "gamma_initializer": {"class_name": "Ones", "config": {}}, "scale": false, "beta_regularizer": null, "beta_constraint": null, "axis": 3, "momentum": 0.99, "gamma_constraint": null, "name": "batch_normalization_32"}}, {"inbound_nodes": [[["conv2d_35", 0, 0, {}]]], "class_name": "BatchNormalization", "name": "batch_normalization_35", "config": {"epsilon": 0.001, "trainable": false, "gamma_regularizer": null, "beta_initializer": {"class_name": "Zeros", "config": {}}, "center": true, "moving_variance_initializer": {"class_name": "Ones", "config": {}}, "moving_mean_initializer": {"class_name": "Zeros", "config": {}}, "gamma_initializer": {"class_name": "Ones", "config": {}}, "scale": false, "beta_regularizer": null, "beta_constraint": null, "axis": 3, "momentum": 0.99, "gamma_constraint": null, "name": "batch_normalization_35"}}, {"inbound_nodes": [[["batch_normalization_32", 0, 0, {}]]], "class_name": "Activation", "name": "activation_32", "config": {"trainable": false, "activation": "relu", "name": "activation_32"}}, {"inbound_nodes": [[["batch_normalization_35", 0, 0, {}]]], "class_name": "Activation", "name": "activation_35", "config": {"trainable": false, "activation": "relu", "name": "activation_35"}}, {"inbound_nodes": [[["block35_3_ac", 0, 0, {}]]], "class_name": "Conv2D", "name": "conv2d_31", "config": {"kernel_initializer": {"class_name": "VarianceScaling", "config": {"scale": 1.0, "mode": "fan_avg", "seed": null, "distribution": "uniform"}}, "trainable": false, "activation": "linear", "kernel_constraint": null, "kernel_size": [1, 1], "data_format": "channels_last", "strides": [1, 1], "padding": "same", "dilation_rate": [1, 1], "bias_initializer": {"class_name": "Zeros", "config": {}}, "activity_regularizer": null, "kernel_regularizer": null, "filters": 32, "use_bias": false, "bias_constraint": null, "name": "conv2d_31", "bias_regularizer": null}}, {"inbound_nodes": [[["activation_32", 0, 0, {}]]], "class_name": "Conv2D", "name": "conv2d_33", "config": {"kernel_initializer": {"class_name": "VarianceScaling", "config": {"scale": 1.0, "mode": "fan_avg", "seed": null, "distribution": "uniform"}}, "trainable": false, "activation": "linear", "kernel_constraint": null, "kernel_size": [3, 3], "data_format": "channels_last", "strides": [1, 1], "padding": "same", "dilation_rate": [1, 1], "bias_initializer": {"class_name": "Zeros", "config": {}}, "activity_regularizer": null, "kernel_regularizer": null, "filters": 32, "use_bias": false, "bias_constraint": null, "name": "conv2d_33", "bias_regularizer": null}}, {"inbound_nodes": [[["activation_35", 0, 0, {}]]], "class_name": "Conv2D", "name": "conv2d_36", "config": {"kernel_initializer": {"class_name": "VarianceScaling", "config": {"scale": 1.0, "mode": "fan_avg", "seed": null, "distribution": "uniform"}}, "trainable": false, "activation": "linear", "kernel_constraint": null, "kernel_size": [3, 3], "data_format": "channels_last", "strides": [1, 1], "padding": "same", "dilation_rate": [1, 1], "bias_initializer": {"class_name": "Zeros", "config": {}}, "activity_regularizer": null, "kernel_regularizer": null, "filters": 64, "use_bias": false, "bias_constraint": null, "name": "conv2d_36", "bias_regularizer": null}}, {"inbound_nodes": [[["conv2d_31", 0, 0, {}]]], "class_name": "BatchNormalization", "name": "batch_normalization_31", "config": {"epsilon": 0.001, "trainable": false, "gamma_regularizer": null, "beta_initializer": {"class_name": "Zeros", "config": {}}, "center": true, "moving_variance_initializer": {"class_name": "Ones", "config": {}}, "moving_mean_initializer": {"class_name": "Zeros", "config": {}}, "gamma_initializer": {"class_name": "Ones", "config": {}}, "scale": false, "beta_regularizer": null, "beta_constraint": null, "axis": 3, "momentum": 0.99, "gamma_constraint": null, "name": "batch_normalization_31"}}, {"inbound_nodes": [[["conv2d_33", 0, 0, {}]]], "class_name": "BatchNormalization", "name": "batch_normalization_33", "config": {"epsilon": 0.001, "trainable": false, "gamma_regularizer": null, "beta_initializer": {"class_name": "Zeros", "config": {}}, "center": true, "moving_variance_initializer": {"class_name": "Ones", "config": {}}, "moving_mean_initializer": {"class_name": "Zeros", "config": {}}, "gamma_initializer": {"class_name": "Ones", "config": {}}, "scale": false, "beta_regularizer": null, "beta_constraint": null, "axis": 3, "momentum": 0.99, "gamma_constraint": null, "name": "batch_normalization_33"}}, {"inbound_nodes": [[["conv2d_36", 0, 0, {}]]], "class_name": "BatchNormalization", "name": "batch_normalization_36", "config": {"epsilon": 0.001, "trainable": false, "gamma_regularizer": null, "beta_initializer": {"class_name": "Zeros", "config": {}}, "center": true, "moving_variance_initializer": {"class_name": "Ones", "config": {}}, "moving_mean_initializer": {"class_name": "Zeros", "config": {}}, "gamma_initializer": {"class_name": "Ones", "config": {}}, "scale": false, "beta_regularizer": null, "beta_constraint": null, "axis": 3, "momentum": 0.99, "gamma_constraint": null, "name": "batch_normalization_36"}}, {"inbound_nodes": [[["batch_normalization_31", 0, 0, {}]]], "class_name": "Activation", "name": "activation_31", "config": {"trainable": false, "activation": "relu", "name": "activation_31"}}, {"inbound_nodes": [[["batch_normalization_33", 0, 0, {}]]], "class_name": "Activation", "name": "activation_33", "config": {"trainable": false, "activation": "relu", "name": "activation_33"}}, {"inbound_nodes": [[["batch_normalization_36", 0, 0, {}]]], "class_name": "Activation", "name": "activation_36", "config": {"trainable": false, "activation": "relu", "name": "activation_36"}}, {"inbound_nodes": [[["activation_31", 0, 0, {}], ["activation_33", 0, 0, {}], ["activation_36", 0, 0, {}]]], "class_name": "Concatenate", "name": "block35_4_mixed", "config": {"axis": 3, "trainable": false, "name": "block35_4_mixed"}}, {"inbound_nodes": [[["block35_4_mixed", 0, 0, {}]]], "class_name": "Conv2D", "name": "block35_4_conv", "config": {"kernel_initializer": {"class_name": "VarianceScaling", "config": {"scale": 1.0, "mode": "fan_avg", "seed": null, "distribution": "uniform"}}, "trainable": false, "activation": "linear", "kernel_constraint": null, "kernel_size": [1, 1], "data_format": "channels_last", "strides": [1, 1], "padding": "same", "dilation_rate": [1, 1], "bias_initializer": {"class_name": "Zeros", "config": {}}, "activity_regularizer": null, "kernel_regularizer": null, "filters": 320, "use_bias": true, "bias_constraint": null, "name": "block35_4_conv", "bias_regularizer": null}}, {"inbound_nodes": [[["block35_3_ac", 0, 0, {}], ["block35_4_conv", 0, 0, {}]]], "class_name": "Lambda", "name": "block35_4", "config": {"output_shape_type": "raw", "trainable": false, "arguments": {"scale": 0.17}, "function_type": "lambda", "function": ["4wIAAAAAAAAAAgAAAAMAAABTAAAAcxQAAAB8AABkAQAZfAAAZAIAGXwBABQXUykDTukAAAAA6QEA\nAACpACkC2gZpbnB1dHPaBXNjYWxlcgMAAAByAwAAAPpvQzpcVXNlcnNcSm9lXEFwcERhdGFcTG9j\nYWxcUHJvZ3JhbXNcUHl0aG9uXFB5dGhvbjM1XGxpYlxzaXRlLXBhY2thZ2VzXGtlcmFzXGFwcGxp\nY2F0aW9uc1xpbmNlcHRpb25fcmVzbmV0X3YyLnB52gg8bGFtYmRhPqgAAADzAAAAAA==\n", null, null], "name": "block35_4", "output_shape": [35, 35, 320]}}, {"inbound_nodes": [[["block35_4", 0, 0, {}]]], "class_name": "Activation", "name": "block35_4_ac", "config": {"trainable": false, "activation": "relu", "name": "block35_4_ac"}}, {"inbound_nodes": [[["block35_4_ac", 0, 0, {}]]], "class_name": "Conv2D", "name": "conv2d_40", "config": {"kernel_initializer": {"class_name": "VarianceScaling", "config": {"scale": 1.0, "mode": "fan_avg", "seed": null, "distribution": "uniform"}}, "trainable": false, "activation": "linear", "kernel_constraint": null, "kernel_size": [1, 1], "data_format": "channels_last", "strides": [1, 1], "padding": "same", "dilation_rate": [1, 1], "bias_initializer": {"class_name": "Zeros", "config": {}}, "activity_regularizer": null, "kernel_regularizer": null, "filters": 32, "use_bias": false, "bias_constraint": null, "name": "conv2d_40", "bias_regularizer": null}}, {"inbound_nodes": [[["conv2d_40", 0, 0, {}]]], "class_name": "BatchNormalization", "name": "batch_normalization_40", "config": {"epsilon": 0.001, "trainable": false, "gamma_regularizer": null, "beta_initializer": {"class_name": "Zeros", "config": {}}, "center": true, "moving_variance_initializer": {"class_name": "Ones", "config": {}}, "moving_mean_initializer": {"class_name": "Zeros", "config": {}}, "gamma_initializer": {"class_name": "Ones", "config": {}}, "scale": false, "beta_regularizer": null, "beta_constraint": null, "axis": 3, "momentum": 0.99, "gamma_constraint": null, "name": "batch_normalization_40"}}, {"inbound_nodes": [[["batch_normalization_40", 0, 0, {}]]], "class_name": "Activation", "name": "activation_40", "config": {"trainable": false, "activation": "relu", "name": "activation_40"}}, {"inbound_nodes": [[["block35_4_ac", 0, 0, {}]]], "class_name": "Conv2D", "name": "conv2d_38", "config": {"kernel_initializer": {"class_name": "VarianceScaling", "config": {"scale": 1.0, "mode": "fan_avg", "seed": null, "distribution": "uniform"}}, "trainable": false, "activation": "linear", "kernel_constraint": null, "kernel_size": [1, 1], "data_format": "channels_last", "strides": [1, 1], "padding": "same", "dilation_rate": [1, 1], "bias_initializer": {"class_name": "Zeros", "config": {}}, "activity_regularizer": null, "kernel_regularizer": null, "filters": 32, "use_bias": false, "bias_constraint": null, "name": "conv2d_38", "bias_regularizer": null}}, {"inbound_nodes": [[["activation_40", 0, 0, {}]]], "class_name": "Conv2D", "name": "conv2d_41", "config": {"kernel_initializer": {"class_name": "VarianceScaling", "config": {"scale": 1.0, "mode": "fan_avg", "seed": null, "distribution": "uniform"}}, "trainable": false, "activation": "linear", "kernel_constraint": null, "kernel_size": [3, 3], "data_format": "channels_last", "strides": [1, 1], "padding": "same", "dilation_rate": [1, 1], "bias_initializer": {"class_name": "Zeros", "config": {}}, "activity_regularizer": null, "kernel_regularizer": null, "filters": 48, "use_bias": false, "bias_constraint": null, "name": "conv2d_41", "bias_regularizer": null}}, {"inbound_nodes": [[["conv2d_38", 0, 0, {}]]], "class_name": "BatchNormalization", "name": "batch_normalization_38", "config": {"epsilon": 0.001, "trainable": false, "gamma_regularizer": null, "beta_initializer": {"class_name": "Zeros", "config": {}}, "center": true, "moving_variance_initializer": {"class_name": "Ones", "config": {}}, "moving_mean_initializer": {"class_name": "Zeros", "config": {}}, "gamma_initializer": {"class_name": "Ones", "config": {}}, "scale": false, "beta_regularizer": null, "beta_constraint": null, "axis": 3, "momentum": 0.99, "gamma_constraint": null, "name": "batch_normalization_38"}}, {"inbound_nodes": [[["conv2d_41", 0, 0, {}]]], "class_name": "BatchNormalization", "name": "batch_normalization_41", "config": {"epsilon": 0.001, "trainable": false, "gamma_regularizer": null, "beta_initializer": {"class_name": "Zeros", "config": {}}, "center": true, "moving_variance_initializer": {"class_name": "Ones", "config": {}}, "moving_mean_initializer": {"class_name": "Zeros", "config": {}}, "gamma_initializer": {"class_name": "Ones", "config": {}}, "scale": false, "beta_regularizer": null, "beta_constraint": null, "axis": 3, "momentum": 0.99, "gamma_constraint": null, "name": "batch_normalization_41"}}, {"inbound_nodes": [[["batch_normalization_38", 0, 0, {}]]], "class_name": "Activation", "name": "activation_38", "config": {"trainable": false, "activation": "relu", "name": "activation_38"}}, {"inbound_nodes": [[["batch_normalization_41", 0, 0, {}]]], "class_name": "Activation", "name": "activation_41", "config": {"trainable": false, "activation": "relu", "name": "activation_41"}}, {"inbound_nodes": [[["block35_4_ac", 0, 0, {}]]], "class_name": "Conv2D", "name": "conv2d_37", "config": {"kernel_initializer": {"class_name": "VarianceScaling", "config": {"scale": 1.0, "mode": "fan_avg", "seed": null, "distribution": "uniform"}}, "trainable": false, "activation": "linear", "kernel_constraint": null, "kernel_size": [1, 1], "data_format": "channels_last", "strides": [1, 1], "padding": "same", "dilation_rate": [1, 1], "bias_initializer": {"class_name": "Zeros", "config": {}}, "activity_regularizer": null, "kernel_regularizer": null, "filters": 32, "use_bias": false, "bias_constraint": null, "name": "conv2d_37", "bias_regularizer": null}}, {"inbound_nodes": [[["activation_38", 0, 0, {}]]], "class_name": "Conv2D", "name": "conv2d_39", "config": {"kernel_initializer": {"class_name": "VarianceScaling", "config": {"scale": 1.0, "mode": "fan_avg", "seed": null, "distribution": "uniform"}}, "trainable": false, "activation": "linear", "kernel_constraint": null, "kernel_size": [3, 3], "data_format": "channels_last", "strides": [1, 1], "padding": "same", "dilation_rate": [1, 1], "bias_initializer": {"class_name": "Zeros", "config": {}}, "activity_regularizer": null, "kernel_regularizer": null, "filters": 32, "use_bias": false, "bias_constraint": null, "name": "conv2d_39", "bias_regularizer": null}}, {"inbound_nodes": [[["activation_41", 0, 0, {}]]], "class_name": "Conv2D", "name": "conv2d_42", "config": {"kernel_initializer": {"class_name": "VarianceScaling", "config": {"scale": 1.0, "mode": "fan_avg", "seed": null, "distribution": "uniform"}}, "trainable": false, "activation": "linear", "kernel_constraint": null, "kernel_size": [3, 3], "data_format": "channels_last", "strides": [1, 1], "padding": "same", "dilation_rate": [1, 1], "bias_initializer": {"class_name": "Zeros", "config": {}}, "activity_regularizer": null, "kernel_regularizer": null, "filters": 64, "use_bias": false, "bias_constraint": null, "name": "conv2d_42", "bias_regularizer": null}}, {"inbound_nodes": [[["conv2d_37", 0, 0, {}]]], "class_name": "BatchNormalization", "name": "batch_normalization_37", "config": {"epsilon": 0.001, "trainable": false, "gamma_regularizer": null, "beta_initializer": {"class_name": "Zeros", "config": {}}, "center": true, "moving_variance_initializer": {"class_name": "Ones", "config": {}}, "moving_mean_initializer": {"class_name": "Zeros", "config": {}}, "gamma_initializer": {"class_name": "Ones", "config": {}}, "scale": false, "beta_regularizer": null, "beta_constraint": null, "axis": 3, "momentum": 0.99, "gamma_constraint": null, "name": "batch_normalization_37"}}, {"inbound_nodes": [[["conv2d_39", 0, 0, {}]]], "class_name": "BatchNormalization", "name": "batch_normalization_39", "config": {"epsilon": 0.001, "trainable": false, "gamma_regularizer": null, "beta_initializer": {"class_name": "Zeros", "config": {}}, "center": true, "moving_variance_initializer": {"class_name": "Ones", "config": {}}, "moving_mean_initializer": {"class_name": "Zeros", "config": {}}, "gamma_initializer": {"class_name": "Ones", "config": {}}, "scale": false, "beta_regularizer": null, "beta_constraint": null, "axis": 3, "momentum": 0.99, "gamma_constraint": null, "name": "batch_normalization_39"}}, {"inbound_nodes": [[["conv2d_42", 0, 0, {}]]], "class_name": "BatchNormalization", "name": "batch_normalization_42", "config": {"epsilon": 0.001, "trainable": false, "gamma_regularizer": null, "beta_initializer": {"class_name": "Zeros", "config": {}}, "center": true, "moving_variance_initializer": {"class_name": "Ones", "config": {}}, "moving_mean_initializer": {"class_name": "Zeros", "config": {}}, "gamma_initializer": {"class_name": "Ones", "config": {}}, "scale": false, "beta_regularizer": null, "beta_constraint": null, "axis": 3, "momentum": 0.99, "gamma_constraint": null, "name": "batch_normalization_42"}}, {"inbound_nodes": [[["batch_normalization_37", 0, 0, {}]]], "class_name": "Activation", "name": "activation_37", "config": {"trainable": false, "activation": "relu", "name": "activation_37"}}, {"inbound_nodes": [[["batch_normalization_39", 0, 0, {}]]], "class_name": "Activation", "name": "activation_39", "config": {"trainable": false, "activation": "relu", "name": "activation_39"}}, {"inbound_nodes": [[["batch_normalization_42", 0, 0, {}]]], "class_name": "Activation", "name": "activation_42", "config": {"trainable": false, "activation": "relu", "name": "activation_42"}}, {"inbound_nodes": [[["activation_37", 0, 0, {}], ["activation_39", 0, 0, {}], ["activation_42", 0, 0, {}]]], "class_name": "Concatenate", "name": "block35_5_mixed", "config": {"axis": 3, "trainable": false, "name": "block35_5_mixed"}}, {"inbound_nodes": [[["block35_5_mixed", 0, 0, {}]]], "class_name": "Conv2D", "name": "block35_5_conv", "config": {"kernel_initializer": {"class_name": "VarianceScaling", "config": {"scale": 1.0, "mode": "fan_avg", "seed": null, "distribution": "uniform"}}, "trainable": false, "activation": "linear", "kernel_constraint": null, "kernel_size": [1, 1], "data_format": "channels_last", "strides": [1, 1], "padding": "same", "dilation_rate": [1, 1], "bias_initializer": {"class_name": "Zeros", "config": {}}, "activity_regularizer": null, "kernel_regularizer": null, "filters": 320, "use_bias": true, "bias_constraint": null, "name": "block35_5_conv", "bias_regularizer": null}}, {"inbound_nodes": [[["block35_4_ac", 0, 0, {}], ["block35_5_conv", 0, 0, {}]]], "class_name": "Lambda", "name": "block35_5", "config": {"output_shape_type": "raw", "trainable": false, "arguments": {"scale": 0.17}, "function_type": "lambda", "function": ["4wIAAAAAAAAAAgAAAAMAAABTAAAAcxQAAAB8AABkAQAZfAAAZAIAGXwBABQXUykDTukAAAAA6QEA\nAACpACkC2gZpbnB1dHPaBXNjYWxlcgMAAAByAwAAAPpvQzpcVXNlcnNcSm9lXEFwcERhdGFcTG9j\nYWxcUHJvZ3JhbXNcUHl0aG9uXFB5dGhvbjM1XGxpYlxzaXRlLXBhY2thZ2VzXGtlcmFzXGFwcGxp\nY2F0aW9uc1xpbmNlcHRpb25fcmVzbmV0X3YyLnB52gg8bGFtYmRhPqgAAADzAAAAAA==\n", null, null], "name": "block35_5", "output_shape": [35, 35, 320]}}, {"inbound_nodes": [[["block35_5", 0, 0, {}]]], "class_name": "Activation", "name": "block35_5_ac", "config": {"trainable": false, "activation": "relu", "name": "block35_5_ac"}}, {"inbound_nodes": [[["block35_5_ac", 0, 0, {}]]], "class_name": "Conv2D", "name": "conv2d_46", "config": {"kernel_initializer": {"class_name": "VarianceScaling", "config": {"scale": 1.0, "mode": "fan_avg", "seed": null, "distribution": "uniform"}}, "trainable": false, "activation": "linear", "kernel_constraint": null, "kernel_size": [1, 1], "data_format": "channels_last", "strides": [1, 1], "padding": "same", "dilation_rate": [1, 1], "bias_initializer": {"class_name": "Zeros", "config": {}}, "activity_regularizer": null, "kernel_regularizer": null, "filters": 32, "use_bias": false, "bias_constraint": null, "name": "conv2d_46", "bias_regularizer": null}}, {"inbound_nodes": [[["conv2d_46", 0, 0, {}]]], "class_name": "BatchNormalization", "name": "batch_normalization_46", "config": {"epsilon": 0.001, "trainable": false, "gamma_regularizer": null, "beta_initializer": {"class_name": "Zeros", "config": {}}, "center": true, "moving_variance_initializer": {"class_name": "Ones", "config": {}}, "moving_mean_initializer": {"class_name": "Zeros", "config": {}}, "gamma_initializer": {"class_name": "Ones", "config": {}}, "scale": false, "beta_regularizer": null, "beta_constraint": null, "axis": 3, "momentum": 0.99, "gamma_constraint": null, "name": "batch_normalization_46"}}, {"inbound_nodes": [[["batch_normalization_46", 0, 0, {}]]], "class_name": "Activation", "name": "activation_46", "config": {"trainable": false, "activation": "relu", "name": "activation_46"}}, {"inbound_nodes": [[["block35_5_ac", 0, 0, {}]]], "class_name": "Conv2D", "name": "conv2d_44", "config": {"kernel_initializer": {"class_name": "VarianceScaling", "config": {"scale": 1.0, "mode": "fan_avg", "seed": null, "distribution": "uniform"}}, "trainable": false, "activation": "linear", "kernel_constraint": null, "kernel_size": [1, 1], "data_format": "channels_last", "strides": [1, 1], "padding": "same", "dilation_rate": [1, 1], "bias_initializer": {"class_name": "Zeros", "config": {}}, "activity_regularizer": null, "kernel_regularizer": null, "filters": 32, "use_bias": false, "bias_constraint": null, "name": "conv2d_44", "bias_regularizer": null}}, {"inbound_nodes": [[["activation_46", 0, 0, {}]]], "class_name": "Conv2D", "name": "conv2d_47", "config": {"kernel_initializer": {"class_name": "VarianceScaling", "config": {"scale": 1.0, "mode": "fan_avg", "seed": null, "distribution": "uniform"}}, "trainable": false, "activation": "linear", "kernel_constraint": null, "kernel_size": [3, 3], "data_format": "channels_last", "strides": [1, 1], "padding": "same", "dilation_rate": [1, 1], "bias_initializer": {"class_name": "Zeros", "config": {}}, "activity_regularizer": null, "kernel_regularizer": null, "filters": 48, "use_bias": false, "bias_constraint": null, "name": "conv2d_47", "bias_regularizer": null}}, {"inbound_nodes": [[["conv2d_44", 0, 0, {}]]], "class_name": "BatchNormalization", "name": "batch_normalization_44", "config": {"epsilon": 0.001, "trainable": false, "gamma_regularizer": null, "beta_initializer": {"class_name": "Zeros", "config": {}}, "center": true, "moving_variance_initializer": {"class_name": "Ones", "config": {}}, "moving_mean_initializer": {"class_name": "Zeros", "config": {}}, "gamma_initializer": {"class_name": "Ones", "config": {}}, "scale": false, "beta_regularizer": null, "beta_constraint": null, "axis": 3, "momentum": 0.99, "gamma_constraint": null, "name": "batch_normalization_44"}}, {"inbound_nodes": [[["conv2d_47", 0, 0, {}]]], "class_name": "BatchNormalization", "name": "batch_normalization_47", "config": {"epsilon": 0.001, "trainable": false, "gamma_regularizer": null, "beta_initializer": {"class_name": "Zeros", "config": {}}, "center": true, "moving_variance_initializer": {"class_name": "Ones", "config": {}}, "moving_mean_initializer": {"class_name": "Zeros", "config": {}}, "gamma_initializer": {"class_name": "Ones", "config": {}}, "scale": false, "beta_regularizer": null, "beta_constraint": null, "axis": 3, "momentum": 0.99, "gamma_constraint": null, "name": "batch_normalization_47"}}, {"inbound_nodes": [[["batch_normalization_44", 0, 0, {}]]], "class_name": "Activation", "name": "activation_44", "config": {"trainable": false, "activation": "relu", "name": "activation_44"}}, {"inbound_nodes": [[["batch_normalization_47", 0, 0, {}]]], "class_name": "Activation", "name": "activation_47", "config": {"trainable": false, "activation": "relu", "name": "activation_47"}}, {"inbound_nodes": [[["block35_5_ac", 0, 0, {}]]], "class_name": "Conv2D", "name": "conv2d_43", "config": {"kernel_initializer": {"class_name": "VarianceScaling", "config": {"scale": 1.0, "mode": "fan_avg", "seed": null, "distribution": "uniform"}}, "trainable": false, "activation": "linear", "kernel_constraint": null, "kernel_size": [1, 1], "data_format": "channels_last", "strides": [1, 1], "padding": "same", "dilation_rate": [1, 1], "bias_initializer": {"class_name": "Zeros", "config": {}}, "activity_regularizer": null, "kernel_regularizer": null, "filters": 32, "use_bias": false, "bias_constraint": null, "name": "conv2d_43", "bias_regularizer": null}}, {"inbound_nodes": [[["activation_44", 0, 0, {}]]], "class_name": "Conv2D", "name": "conv2d_45", "config": {"kernel_initializer": {"class_name": "VarianceScaling", "config": {"scale": 1.0, "mode": "fan_avg", "seed": null, "distribution": "uniform"}}, "trainable": false, "activation": "linear", "kernel_constraint": null, "kernel_size": [3, 3], "data_format": "channels_last", "strides": [1, 1], "padding": "same", "dilation_rate": [1, 1], "bias_initializer": {"class_name": "Zeros", "config": {}}, "activity_regularizer": null, "kernel_regularizer": null, "filters": 32, "use_bias": false, "bias_constraint": null, "name": "conv2d_45", "bias_regularizer": null}}, {"inbound_nodes": [[["activation_47", 0, 0, {}]]], "class_name": "Conv2D", "name": "conv2d_48", "config": {"kernel_initializer": {"class_name": "VarianceScaling", "config": {"scale": 1.0, "mode": "fan_avg", "seed": null, "distribution": "uniform"}}, "trainable": false, "activation": "linear", "kernel_constraint": null, "kernel_size": [3, 3], "data_format": "channels_last", "strides": [1, 1], "padding": "same", "dilation_rate": [1, 1], "bias_initializer": {"class_name": "Zeros", "config": {}}, "activity_regularizer": null, "kernel_regularizer": null, "filters": 64, "use_bias": false, "bias_constraint": null, "name": "conv2d_48", "bias_regularizer": null}}, {"inbound_nodes": [[["conv2d_43", 0, 0, {}]]], "class_name": "BatchNormalization", "name": "batch_normalization_43", "config": {"epsilon": 0.001, "trainable": false, "gamma_regularizer": null, "beta_initializer": {"class_name": "Zeros", "config": {}}, "center": true, "moving_variance_initializer": {"class_name": "Ones", "config": {}}, "moving_mean_initializer": {"class_name": "Zeros", "config": {}}, "gamma_initializer": {"class_name": "Ones", "config": {}}, "scale": false, "beta_regularizer": null, "beta_constraint": null, "axis": 3, "momentum": 0.99, "gamma_constraint": null, "name": "batch_normalization_43"}}, {"inbound_nodes": [[["conv2d_45", 0, 0, {}]]], "class_name": "BatchNormalization", "name": "batch_normalization_45", "config": {"epsilon": 0.001, "trainable": false, "gamma_regularizer": null, "beta_initializer": {"class_name": "Zeros", "config": {}}, "center": true, "moving_variance_initializer": {"class_name": "Ones", "config": {}}, "moving_mean_initializer": {"class_name": "Zeros", "config": {}}, "gamma_initializer": {"class_name": "Ones", "config": {}}, "scale": false, "beta_regularizer": null, "beta_constraint": null, "axis": 3, "momentum": 0.99, "gamma_constraint": null, "name": "batch_normalization_45"}}, {"inbound_nodes": [[["conv2d_48", 0, 0, {}]]], "class_name": "BatchNormalization", "name": "batch_normalization_48", "config": {"epsilon": 0.001, "trainable": false, "gamma_regularizer": null, "beta_initializer": {"class_name": "Zeros", "config": {}}, "center": true, "moving_variance_initializer": {"class_name": "Ones", "config": {}}, "moving_mean_initializer": {"class_name": "Zeros", "config": {}}, "gamma_initializer": {"class_name": "Ones", "config": {}}, "scale": false, "beta_regularizer": null, "beta_constraint": null, "axis": 3, "momentum": 0.99, "gamma_constraint": null, "name": "batch_normalization_48"}}, {"inbound_nodes": [[["batch_normalization_43", 0, 0, {}]]], "class_name": "Activation", "name": "activation_43", "config": {"trainable": false, "activation": "relu", "name": "activation_43"}}, {"inbound_nodes": [[["batch_normalization_45", 0, 0, {}]]], "class_name": "Activation", "name": "activation_45", "config": {"trainable": false, "activation": "relu", "name": "activation_45"}}, {"inbound_nodes": [[["batch_normalization_48", 0, 0, {}]]], "class_name": "Activation", "name": "activation_48", "config": {"trainable": false, "activation": "relu", "name": "activation_48"}}, {"inbound_nodes": [[["activation_43", 0, 0, {}], ["activation_45", 0, 0, {}], ["activation_48", 0, 0, {}]]], "class_name": "Concatenate", "name": "block35_6_mixed", "config": {"axis": 3, "trainable": false, "name": "block35_6_mixed"}}, {"inbound_nodes": [[["block35_6_mixed", 0, 0, {}]]], "class_name": "Conv2D", "name": "block35_6_conv", "config": {"kernel_initializer": {"class_name": "VarianceScaling", "config": {"scale": 1.0, "mode": "fan_avg", "seed": null, "distribution": "uniform"}}, "trainable": false, "activation": "linear", "kernel_constraint": null, "kernel_size": [1, 1], "data_format": "channels_last", "strides": [1, 1], "padding": "same", "dilation_rate": [1, 1], "bias_initializer": {"class_name": "Zeros", "config": {}}, "activity_regularizer": null, "kernel_regularizer": null, "filters": 320, "use_bias": true, "bias_constraint": null, "name": "block35_6_conv", "bias_regularizer": null}}, {"inbound_nodes": [[["block35_5_ac", 0, 0, {}], ["block35_6_conv", 0, 0, {}]]], "class_name": "Lambda", "name": "block35_6", "config": {"output_shape_type": "raw", "trainable": false, "arguments": {"scale": 0.17}, "function_type": "lambda", "function": ["4wIAAAAAAAAAAgAAAAMAAABTAAAAcxQAAAB8AABkAQAZfAAAZAIAGXwBABQXUykDTukAAAAA6QEA\nAACpACkC2gZpbnB1dHPaBXNjYWxlcgMAAAByAwAAAPpvQzpcVXNlcnNcSm9lXEFwcERhdGFcTG9j\nYWxcUHJvZ3JhbXNcUHl0aG9uXFB5dGhvbjM1XGxpYlxzaXRlLXBhY2thZ2VzXGtlcmFzXGFwcGxp\nY2F0aW9uc1xpbmNlcHRpb25fcmVzbmV0X3YyLnB52gg8bGFtYmRhPqgAAADzAAAAAA==\n", null, null], "name": "block35_6", "output_shape": [35, 35, 320]}}, {"inbound_nodes": [[["block35_6", 0, 0, {}]]], "class_name": "Activation", "name": "block35_6_ac", "config": {"trainable": false, "activation": "relu", "name": "block35_6_ac"}}, {"inbound_nodes": [[["block35_6_ac", 0, 0, {}]]], "class_name": "Conv2D", "name": "conv2d_52", "config": {"kernel_initializer": {"class_name": "VarianceScaling", "config": {"scale": 1.0, "mode": "fan_avg", "seed": null, "distribution": "uniform"}}, "trainable": false, "activation": "linear", "kernel_constraint": null, "kernel_size": [1, 1], "data_format": "channels_last", "strides": [1, 1], "padding": "same", "dilation_rate": [1, 1], "bias_initializer": {"class_name": "Zeros", "config": {}}, "activity_regularizer": null, "kernel_regularizer": null, "filters": 32, "use_bias": false, "bias_constraint": null, "name": "conv2d_52", "bias_regularizer": null}}, {"inbound_nodes": [[["conv2d_52", 0, 0, {}]]], "class_name": "BatchNormalization", "name": "batch_normalization_52", "config": {"epsilon": 0.001, "trainable": false, "gamma_regularizer": null, "beta_initializer": {"class_name": "Zeros", "config": {}}, "center": true, "moving_variance_initializer": {"class_name": "Ones", "config": {}}, "moving_mean_initializer": {"class_name": "Zeros", "config": {}}, "gamma_initializer": {"class_name": "Ones", "config": {}}, "scale": false, "beta_regularizer": null, "beta_constraint": null, "axis": 3, "momentum": 0.99, "gamma_constraint": null, "name": "batch_normalization_52"}}, {"inbound_nodes": [[["batch_normalization_52", 0, 0, {}]]], "class_name": "Activation", "name": "activation_52", "config": {"trainable": false, "activation": "relu", "name": "activation_52"}}, {"inbound_nodes": [[["block35_6_ac", 0, 0, {}]]], "class_name": "Conv2D", "name": "conv2d_50", "config": {"kernel_initializer": {"class_name": "VarianceScaling", "config": {"scale": 1.0, "mode": "fan_avg", "seed": null, "distribution": "uniform"}}, "trainable": false, "activation": "linear", "kernel_constraint": null, "kernel_size": [1, 1], "data_format": "channels_last", "strides": [1, 1], "padding": "same", "dilation_rate": [1, 1], "bias_initializer": {"class_name": "Zeros", "config": {}}, "activity_regularizer": null, "kernel_regularizer": null, "filters": 32, "use_bias": false, "bias_constraint": null, "name": "conv2d_50", "bias_regularizer": null}}, {"inbound_nodes": [[["activation_52", 0, 0, {}]]], "class_name": "Conv2D", "name": "conv2d_53", "config": {"kernel_initializer": {"class_name": "VarianceScaling", "config": {"scale": 1.0, "mode": "fan_avg", "seed": null, "distribution": "uniform"}}, "trainable": false, "activation": "linear", "kernel_constraint": null, "kernel_size": [3, 3], "data_format": "channels_last", "strides": [1, 1], "padding": "same", "dilation_rate": [1, 1], "bias_initializer": {"class_name": "Zeros", "config": {}}, "activity_regularizer": null, "kernel_regularizer": null, "filters": 48, "use_bias": false, "bias_constraint": null, "name": "conv2d_53", "bias_regularizer": null}}, {"inbound_nodes": [[["conv2d_50", 0, 0, {}]]], "class_name": "BatchNormalization", "name": "batch_normalization_50", "config": {"epsilon": 0.001, "trainable": false, "gamma_regularizer": null, "beta_initializer": {"class_name": "Zeros", "config": {}}, "center": true, "moving_variance_initializer": {"class_name": "Ones", "config": {}}, "moving_mean_initializer": {"class_name": "Zeros", "config": {}}, "gamma_initializer": {"class_name": "Ones", "config": {}}, "scale": false, "beta_regularizer": null, "beta_constraint": null, "axis": 3, "momentum": 0.99, "gamma_constraint": null, "name": "batch_normalization_50"}}, {"inbound_nodes": [[["conv2d_53", 0, 0, {}]]], "class_name": "BatchNormalization", "name": "batch_normalization_53", "config": {"epsilon": 0.001, "trainable": false, "gamma_regularizer": null, "beta_initializer": {"class_name": "Zeros", "config": {}}, "center": true, "moving_variance_initializer": {"class_name": "Ones", "config": {}}, "moving_mean_initializer": {"class_name": "Zeros", "config": {}}, "gamma_initializer": {"class_name": "Ones", "config": {}}, "scale": false, "beta_regularizer": null, "beta_constraint": null, "axis": 3, "momentum": 0.99, "gamma_constraint": null, "name": "batch_normalization_53"}}, {"inbound_nodes": [[["batch_normalization_50", 0, 0, {}]]], "class_name": "Activation", "name": "activation_50", "config": {"trainable": false, "activation": "relu", "name": "activation_50"}}, {"inbound_nodes": [[["batch_normalization_53", 0, 0, {}]]], "class_name": "Activation", "name": "activation_53", "config": {"trainable": false, "activation": "relu", "name": "activation_53"}}, {"inbound_nodes": [[["block35_6_ac", 0, 0, {}]]], "class_name": "Conv2D", "name": "conv2d_49", "config": {"kernel_initializer": {"class_name": "VarianceScaling", "config": {"scale": 1.0, "mode": "fan_avg", "seed": null, "distribution": "uniform"}}, "trainable": false, "activation": "linear", "kernel_constraint": null, "kernel_size": [1, 1], "data_format": "channels_last", "strides": [1, 1], "padding": "same", "dilation_rate": [1, 1], "bias_initializer": {"class_name": "Zeros", "config": {}}, "activity_regularizer": null, "kernel_regularizer": null, "filters": 32, "use_bias": false, "bias_constraint": null, "name": "conv2d_49", "bias_regularizer": null}}, {"inbound_nodes": [[["activation_50", 0, 0, {}]]], "class_name": "Conv2D", "name": "conv2d_51", "config": {"kernel_initializer": {"class_name": "VarianceScaling", "config": {"scale": 1.0, "mode": "fan_avg", "seed": null, "distribution": "uniform"}}, "trainable": false, "activation": "linear", "kernel_constraint": null, "kernel_size": [3, 3], "data_format": "channels_last", "strides": [1, 1], "padding": "same", "dilation_rate": [1, 1], "bias_initializer": {"class_name": "Zeros", "config": {}}, "activity_regularizer": null, "kernel_regularizer": null, "filters": 32, "use_bias": false, "bias_constraint": null, "name": "conv2d_51", "bias_regularizer": null}}, {"inbound_nodes": [[["activation_53", 0, 0, {}]]], "class_name": "Conv2D", "name": "conv2d_54", "config": {"kernel_initializer": {"class_name": "VarianceScaling", "config": {"scale": 1.0, "mode": "fan_avg", "seed": null, "distribution": "uniform"}}, "trainable": false, "activation": "linear", "kernel_constraint": null, "kernel_size": [3, 3], "data_format": "channels_last", "strides": [1, 1], "padding": "same", "dilation_rate": [1, 1], "bias_initializer": {"class_name": "Zeros", "config": {}}, "activity_regularizer": null, "kernel_regularizer": null, "filters": 64, "use_bias": false, "bias_constraint": null, "name": "conv2d_54", "bias_regularizer": null}}, {"inbound_nodes": [[["conv2d_49", 0, 0, {}]]], "class_name": "BatchNormalization", "name": "batch_normalization_49", "config": {"epsilon": 0.001, "trainable": false, "gamma_regularizer": null, "beta_initializer": {"class_name": "Zeros", "config": {}}, "center": true, "moving_variance_initializer": {"class_name": "Ones", "config": {}}, "moving_mean_initializer": {"class_name": "Zeros", "config": {}}, "gamma_initializer": {"class_name": "Ones", "config": {}}, "scale": false, "beta_regularizer": null, "beta_constraint": null, "axis": 3, "momentum": 0.99, "gamma_constraint": null, "name": "batch_normalization_49"}}, {"inbound_nodes": [[["conv2d_51", 0, 0, {}]]], "class_name": "BatchNormalization", "name": "batch_normalization_51", "config": {"epsilon": 0.001, "trainable": false, "gamma_regularizer": null, "beta_initializer": {"class_name": "Zeros", "config": {}}, "center": true, "moving_variance_initializer": {"class_name": "Ones", "config": {}}, "moving_mean_initializer": {"class_name": "Zeros", "config": {}}, "gamma_initializer": {"class_name": "Ones", "config": {}}, "scale": false, "beta_regularizer": null, "beta_constraint": null, "axis": 3, "momentum": 0.99, "gamma_constraint": null, "name": "batch_normalization_51"}}, {"inbound_nodes": [[["conv2d_54", 0, 0, {}]]], "class_name": "BatchNormalization", "name": "batch_normalization_54", "config": {"epsilon": 0.001, "trainable": false, "gamma_regularizer": null, "beta_initializer": {"class_name": "Zeros", "config": {}}, "center": true, "moving_variance_initializer": {"class_name": "Ones", "config": {}}, "moving_mean_initializer": {"class_name": "Zeros", "config": {}}, "gamma_initializer": {"class_name": "Ones", "config": {}}, "scale": false, "beta_regularizer": null, "beta_constraint": null, "axis": 3, "momentum": 0.99, "gamma_constraint": null, "name": "batch_normalization_54"}}, {"inbound_nodes": [[["batch_normalization_49", 0, 0, {}]]], "class_name": "Activation", "name": "activation_49", "config": {"trainable": false, "activation": "relu", "name": "activation_49"}}, {"inbound_nodes": [[["batch_normalization_51", 0, 0, {}]]], "class_name": "Activation", "name": "activation_51", "config": {"trainable": false, "activation": "relu", "name": "activation_51"}}, {"inbound_nodes": [[["batch_normalization_54", 0, 0, {}]]], "class_name": "Activation", "name": "activation_54", "config": {"trainable": false, "activation": "relu", "name": "activation_54"}}, {"inbound_nodes": [[["activation_49", 0, 0, {}], ["activation_51", 0, 0, {}], ["activation_54", 0, 0, {}]]], "class_name": "Concatenate", "name": "block35_7_mixed", "config": {"axis": 3, "trainable": false, "name": "block35_7_mixed"}}, {"inbound_nodes": [[["block35_7_mixed", 0, 0, {}]]], "class_name": "Conv2D", "name": "block35_7_conv", "config": {"kernel_initializer": {"class_name": "VarianceScaling", "config": {"scale": 1.0, "mode": "fan_avg", "seed": null, "distribution": "uniform"}}, "trainable": false, "activation": "linear", "kernel_constraint": null, "kernel_size": [1, 1], "data_format": "channels_last", "strides": [1, 1], "padding": "same", "dilation_rate": [1, 1], "bias_initializer": {"class_name": "Zeros", "config": {}}, "activity_regularizer": null, "kernel_regularizer": null, "filters": 320, "use_bias": true, "bias_constraint": null, "name": "block35_7_conv", "bias_regularizer": null}}, {"inbound_nodes": [[["block35_6_ac", 0, 0, {}], ["block35_7_conv", 0, 0, {}]]], "class_name": "Lambda", "name": "block35_7", "config": {"output_shape_type": "raw", "trainable": false, "arguments": {"scale": 0.17}, "function_type": "lambda", "function": ["4wIAAAAAAAAAAgAAAAMAAABTAAAAcxQAAAB8AABkAQAZfAAAZAIAGXwBABQXUykDTukAAAAA6QEA\nAACpACkC2gZpbnB1dHPaBXNjYWxlcgMAAAByAwAAAPpvQzpcVXNlcnNcSm9lXEFwcERhdGFcTG9j\nYWxcUHJvZ3JhbXNcUHl0aG9uXFB5dGhvbjM1XGxpYlxzaXRlLXBhY2thZ2VzXGtlcmFzXGFwcGxp\nY2F0aW9uc1xpbmNlcHRpb25fcmVzbmV0X3YyLnB52gg8bGFtYmRhPqgAAADzAAAAAA==\n", null, null], "name": "block35_7", "output_shape": [35, 35, 320]}}, {"inbound_nodes": [[["block35_7", 0, 0, {}]]], "class_name": "Activation", "name": "block35_7_ac", "config": {"trainable": false, "activation": "relu", "name": "block35_7_ac"}}, {"inbound_nodes": [[["block35_7_ac", 0, 0, {}]]], "class_name": "Conv2D", "name": "conv2d_58", "config": {"kernel_initializer": {"class_name": "VarianceScaling", "config": {"scale": 1.0, "mode": "fan_avg", "seed": null, "distribution": "uniform"}}, "trainable": false, "activation": "linear", "kernel_constraint": null, "kernel_size": [1, 1], "data_format": "channels_last", "strides": [1, 1], "padding": "same", "dilation_rate": [1, 1], "bias_initializer": {"class_name": "Zeros", "config": {}}, "activity_regularizer": null, "kernel_regularizer": null, "filters": 32, "use_bias": false, "bias_constraint": null, "name": "conv2d_58", "bias_regularizer": null}}, {"inbound_nodes": [[["conv2d_58", 0, 0, {}]]], "class_name": "BatchNormalization", "name": "batch_normalization_58", "config": {"epsilon": 0.001, "trainable": false, "gamma_regularizer": null, "beta_initializer": {"class_name": "Zeros", "config": {}}, "center": true, "moving_variance_initializer": {"class_name": "Ones", "config": {}}, "moving_mean_initializer": {"class_name": "Zeros", "config": {}}, "gamma_initializer": {"class_name": "Ones", "config": {}}, "scale": false, "beta_regularizer": null, "beta_constraint": null, "axis": 3, "momentum": 0.99, "gamma_constraint": null, "name": "batch_normalization_58"}}, {"inbound_nodes": [[["batch_normalization_58", 0, 0, {}]]], "class_name": "Activation", "name": "activation_58", "config": {"trainable": false, "activation": "relu", "name": "activation_58"}}, {"inbound_nodes": [[["block35_7_ac", 0, 0, {}]]], "class_name": "Conv2D", "name": "conv2d_56", "config": {"kernel_initializer": {"class_name": "VarianceScaling", "config": {"scale": 1.0, "mode": "fan_avg", "seed": null, "distribution": "uniform"}}, "trainable": false, "activation": "linear", "kernel_constraint": null, "kernel_size": [1, 1], "data_format": "channels_last", "strides": [1, 1], "padding": "same", "dilation_rate": [1, 1], "bias_initializer": {"class_name": "Zeros", "config": {}}, "activity_regularizer": null, "kernel_regularizer": null, "filters": 32, "use_bias": false, "bias_constraint": null, "name": "conv2d_56", "bias_regularizer": null}}, {"inbound_nodes": [[["activation_58", 0, 0, {}]]], "class_name": "Conv2D", "name": "conv2d_59", "config": {"kernel_initializer": {"class_name": "VarianceScaling", "config": {"scale": 1.0, "mode": "fan_avg", "seed": null, "distribution": "uniform"}}, "trainable": false, "activation": "linear", "kernel_constraint": null, "kernel_size": [3, 3], "data_format": "channels_last", "strides": [1, 1], "padding": "same", "dilation_rate": [1, 1], "bias_initializer": {"class_name": "Zeros", "config": {}}, "activity_regularizer": null, "kernel_regularizer": null, "filters": 48, "use_bias": false, "bias_constraint": null, "name": "conv2d_59", "bias_regularizer": null}}, {"inbound_nodes": [[["conv2d_56", 0, 0, {}]]], "class_name": "BatchNormalization", "name": "batch_normalization_56", "config": {"epsilon": 0.001, "trainable": false, "gamma_regularizer": null, "beta_initializer": {"class_name": "Zeros", "config": {}}, "center": true, "moving_variance_initializer": {"class_name": "Ones", "config": {}}, "moving_mean_initializer": {"class_name": "Zeros", "config": {}}, "gamma_initializer": {"class_name": "Ones", "config": {}}, "scale": false, "beta_regularizer": null, "beta_constraint": null, "axis": 3, "momentum": 0.99, "gamma_constraint": null, "name": "batch_normalization_56"}}, {"inbound_nodes": [[["conv2d_59", 0, 0, {}]]], "class_name": "BatchNormalization", "name": "batch_normalization_59", "config": {"epsilon": 0.001, "trainable": false, "gamma_regularizer": null, "beta_initializer": {"class_name": "Zeros", "config": {}}, "center": true, "moving_variance_initializer": {"class_name": "Ones", "config": {}}, "moving_mean_initializer": {"class_name": "Zeros", "config": {}}, "gamma_initializer": {"class_name": "Ones", "config": {}}, "scale": false, "beta_regularizer": null, "beta_constraint": null, "axis": 3, "momentum": 0.99, "gamma_constraint": null, "name": "batch_normalization_59"}}, {"inbound_nodes": [[["batch_normalization_56", 0, 0, {}]]], "class_name": "Activation", "name": "activation_56", "config": {"trainable": false, "activation": "relu", "name": "activation_56"}}, {"inbound_nodes": [[["batch_normalization_59", 0, 0, {}]]], "class_name": "Activation", "name": "activation_59", "config": {"trainable": false, "activation": "relu", "name": "activation_59"}}, {"inbound_nodes": [[["block35_7_ac", 0, 0, {}]]], "class_name": "Conv2D", "name": "conv2d_55", "config": {"kernel_initializer": {"class_name": "VarianceScaling", "config": {"scale": 1.0, "mode": "fan_avg", "seed": null, "distribution": "uniform"}}, "trainable": false, "activation": "linear", "kernel_constraint": null, "kernel_size": [1, 1], "data_format": "channels_last", "strides": [1, 1], "padding": "same", "dilation_rate": [1, 1], "bias_initializer": {"class_name": "Zeros", "config": {}}, "activity_regularizer": null, "kernel_regularizer": null, "filters": 32, "use_bias": false, "bias_constraint": null, "name": "conv2d_55", "bias_regularizer": null}}, {"inbound_nodes": [[["activation_56", 0, 0, {}]]], "class_name": "Conv2D", "name": "conv2d_57", "config": {"kernel_initializer": {"class_name": "VarianceScaling", "config": {"scale": 1.0, "mode": "fan_avg", "seed": null, "distribution": "uniform"}}, "trainable": false, "activation": "linear", "kernel_constraint": null, "kernel_size": [3, 3], "data_format": "channels_last", "strides": [1, 1], "padding": "same", "dilation_rate": [1, 1], "bias_initializer": {"class_name": "Zeros", "config": {}}, "activity_regularizer": null, "kernel_regularizer": null, "filters": 32, "use_bias": false, "bias_constraint": null, "name": "conv2d_57", "bias_regularizer": null}}, {"inbound_nodes": [[["activation_59", 0, 0, {}]]], "class_name": "Conv2D", "name": "conv2d_60", "config": {"kernel_initializer": {"class_name": "VarianceScaling", "config": {"scale": 1.0, "mode": "fan_avg", "seed": null, "distribution": "uniform"}}, "trainable": false, "activation": "linear", "kernel_constraint": null, "kernel_size": [3, 3], "data_format": "channels_last", "strides": [1, 1], "padding": "same", "dilation_rate": [1, 1], "bias_initializer": {"class_name": "Zeros", "config": {}}, "activity_regularizer": null, "kernel_regularizer": null, "filters": 64, "use_bias": false, "bias_constraint": null, "name": "conv2d_60", "bias_regularizer": null}}, {"inbound_nodes": [[["conv2d_55", 0, 0, {}]]], "class_name": "BatchNormalization", "name": "batch_normalization_55", "config": {"epsilon": 0.001, "trainable": false, "gamma_regularizer": null, "beta_initializer": {"class_name": "Zeros", "config": {}}, "center": true, "moving_variance_initializer": {"class_name": "Ones", "config": {}}, "moving_mean_initializer": {"class_name": "Zeros", "config": {}}, "gamma_initializer": {"class_name": "Ones", "config": {}}, "scale": false, "beta_regularizer": null, "beta_constraint": null, "axis": 3, "momentum": 0.99, "gamma_constraint": null, "name": "batch_normalization_55"}}, {"inbound_nodes": [[["conv2d_57", 0, 0, {}]]], "class_name": "BatchNormalization", "name": "batch_normalization_57", "config": {"epsilon": 0.001, "trainable": false, "gamma_regularizer": null, "beta_initializer": {"class_name": "Zeros", "config": {}}, "center": true, "moving_variance_initializer": {"class_name": "Ones", "config": {}}, "moving_mean_initializer": {"class_name": "Zeros", "config": {}}, "gamma_initializer": {"class_name": "Ones", "config": {}}, "scale": false, "beta_regularizer": null, "beta_constraint": null, "axis": 3, "momentum": 0.99, "gamma_constraint": null, "name": "batch_normalization_57"}}, {"inbound_nodes": [[["conv2d_60", 0, 0, {}]]], "class_name": "BatchNormalization", "name": "batch_normalization_60", "config": {"epsilon": 0.001, "trainable": false, "gamma_regularizer": null, "beta_initializer": {"class_name": "Zeros", "config": {}}, "center": true, "moving_variance_initializer": {"class_name": "Ones", "config": {}}, "moving_mean_initializer": {"class_name": "Zeros", "config": {}}, "gamma_initializer": {"class_name": "Ones", "config": {}}, "scale": false, "beta_regularizer": null, "beta_constraint": null, "axis": 3, "momentum": 0.99, "gamma_constraint": null, "name": "batch_normalization_60"}}, {"inbound_nodes": [[["batch_normalization_55", 0, 0, {}]]], "class_name": "Activation", "name": "activation_55", "config": {"trainable": false, "activation": "relu", "name": "activation_55"}}, {"inbound_nodes": [[["batch_normalization_57", 0, 0, {}]]], "class_name": "Activation", "name": "activation_57", "config": {"trainable": false, "activation": "relu", "name": "activation_57"}}, {"inbound_nodes": [[["batch_normalization_60", 0, 0, {}]]], "class_name": "Activation", "name": "activation_60", "config": {"trainable": false, "activation": "relu", "name": "activation_60"}}, {"inbound_nodes": [[["activation_55", 0, 0, {}], ["activation_57", 0, 0, {}], ["activation_60", 0, 0, {}]]], "class_name": "Concatenate", "name": "block35_8_mixed", "config": {"axis": 3, "trainable": false, "name": "block35_8_mixed"}}, {"inbound_nodes": [[["block35_8_mixed", 0, 0, {}]]], "class_name": "Conv2D", "name": "block35_8_conv", "config": {"kernel_initializer": {"class_name": "VarianceScaling", "config": {"scale": 1.0, "mode": "fan_avg", "seed": null, "distribution": "uniform"}}, "trainable": false, "activation": "linear", "kernel_constraint": null, "kernel_size": [1, 1], "data_format": "channels_last", "strides": [1, 1], "padding": "same", "dilation_rate": [1, 1], "bias_initializer": {"class_name": "Zeros", "config": {}}, "activity_regularizer": null, "kernel_regularizer": null, "filters": 320, "use_bias": true, "bias_constraint": null, "name": "block35_8_conv", "bias_regularizer": null}}, {"inbound_nodes": [[["block35_7_ac", 0, 0, {}], ["block35_8_conv", 0, 0, {}]]], "class_name": "Lambda", "name": "block35_8", "config": {"output_shape_type": "raw", "trainable": false, "arguments": {"scale": 0.17}, "function_type": "lambda", "function": ["4wIAAAAAAAAAAgAAAAMAAABTAAAAcxQAAAB8AABkAQAZfAAAZAIAGXwBABQXUykDTukAAAAA6QEA\nAACpACkC2gZpbnB1dHPaBXNjYWxlcgMAAAByAwAAAPpvQzpcVXNlcnNcSm9lXEFwcERhdGFcTG9j\nYWxcUHJvZ3JhbXNcUHl0aG9uXFB5dGhvbjM1XGxpYlxzaXRlLXBhY2thZ2VzXGtlcmFzXGFwcGxp\nY2F0aW9uc1xpbmNlcHRpb25fcmVzbmV0X3YyLnB52gg8bGFtYmRhPqgAAADzAAAAAA==\n", null, null], "name": "block35_8", "output_shape": [35, 35, 320]}}, {"inbound_nodes": [[["block35_8", 0, 0, {}]]], "class_name": "Activation", "name": "block35_8_ac", "config": {"trainable": false, "activation": "relu", "name": "block35_8_ac"}}, {"inbound_nodes": [[["block35_8_ac", 0, 0, {}]]], "class_name": "Conv2D", "name": "conv2d_64", "config": {"kernel_initializer": {"class_name": "VarianceScaling", "config": {"scale": 1.0, "mode": "fan_avg", "seed": null, "distribution": "uniform"}}, "trainable": false, "activation": "linear", "kernel_constraint": null, "kernel_size": [1, 1], "data_format": "channels_last", "strides": [1, 1], "padding": "same", "dilation_rate": [1, 1], "bias_initializer": {"class_name": "Zeros", "config": {}}, "activity_regularizer": null, "kernel_regularizer": null, "filters": 32, "use_bias": false, "bias_constraint": null, "name": "conv2d_64", "bias_regularizer": null}}, {"inbound_nodes": [[["conv2d_64", 0, 0, {}]]], "class_name": "BatchNormalization", "name": "batch_normalization_64", "config": {"epsilon": 0.001, "trainable": false, "gamma_regularizer": null, "beta_initializer": {"class_name": "Zeros", "config": {}}, "center": true, "moving_variance_initializer": {"class_name": "Ones", "config": {}}, "moving_mean_initializer": {"class_name": "Zeros", "config": {}}, "gamma_initializer": {"class_name": "Ones", "config": {}}, "scale": false, "beta_regularizer": null, "beta_constraint": null, "axis": 3, "momentum": 0.99, "gamma_constraint": null, "name": "batch_normalization_64"}}, {"inbound_nodes": [[["batch_normalization_64", 0, 0, {}]]], "class_name": "Activation", "name": "activation_64", "config": {"trainable": false, "activation": "relu", "name": "activation_64"}}, {"inbound_nodes": [[["block35_8_ac", 0, 0, {}]]], "class_name": "Conv2D", "name": "conv2d_62", "config": {"kernel_initializer": {"class_name": "VarianceScaling", "config": {"scale": 1.0, "mode": "fan_avg", "seed": null, "distribution": "uniform"}}, "trainable": false, "activation": "linear", "kernel_constraint": null, "kernel_size": [1, 1], "data_format": "channels_last", "strides": [1, 1], "padding": "same", "dilation_rate": [1, 1], "bias_initializer": {"class_name": "Zeros", "config": {}}, "activity_regularizer": null, "kernel_regularizer": null, "filters": 32, "use_bias": false, "bias_constraint": null, "name": "conv2d_62", "bias_regularizer": null}}, {"inbound_nodes": [[["activation_64", 0, 0, {}]]], "class_name": "Conv2D", "name": "conv2d_65", "config": {"kernel_initializer": {"class_name": "VarianceScaling", "config": {"scale": 1.0, "mode": "fan_avg", "seed": null, "distribution": "uniform"}}, "trainable": false, "activation": "linear", "kernel_constraint": null, "kernel_size": [3, 3], "data_format": "channels_last", "strides": [1, 1], "padding": "same", "dilation_rate": [1, 1], "bias_initializer": {"class_name": "Zeros", "config": {}}, "activity_regularizer": null, "kernel_regularizer": null, "filters": 48, "use_bias": false, "bias_constraint": null, "name": "conv2d_65", "bias_regularizer": null}}, {"inbound_nodes": [[["conv2d_62", 0, 0, {}]]], "class_name": "BatchNormalization", "name": "batch_normalization_62", "config": {"epsilon": 0.001, "trainable": false, "gamma_regularizer": null, "beta_initializer": {"class_name": "Zeros", "config": {}}, "center": true, "moving_variance_initializer": {"class_name": "Ones", "config": {}}, "moving_mean_initializer": {"class_name": "Zeros", "config": {}}, "gamma_initializer": {"class_name": "Ones", "config": {}}, "scale": false, "beta_regularizer": null, "beta_constraint": null, "axis": 3, "momentum": 0.99, "gamma_constraint": null, "name": "batch_normalization_62"}}, {"inbound_nodes": [[["conv2d_65", 0, 0, {}]]], "class_name": "BatchNormalization", "name": "batch_normalization_65", "config": {"epsilon": 0.001, "trainable": false, "gamma_regularizer": null, "beta_initializer": {"class_name": "Zeros", "config": {}}, "center": true, "moving_variance_initializer": {"class_name": "Ones", "config": {}}, "moving_mean_initializer": {"class_name": "Zeros", "config": {}}, "gamma_initializer": {"class_name": "Ones", "config": {}}, "scale": false, "beta_regularizer": null, "beta_constraint": null, "axis": 3, "momentum": 0.99, "gamma_constraint": null, "name": "batch_normalization_65"}}, {"inbound_nodes": [[["batch_normalization_62", 0, 0, {}]]], "class_name": "Activation", "name": "activation_62", "config": {"trainable": false, "activation": "relu", "name": "activation_62"}}, {"inbound_nodes": [[["batch_normalization_65", 0, 0, {}]]], "class_name": "Activation", "name": "activation_65", "config": {"trainable": false, "activation": "relu", "name": "activation_65"}}, {"inbound_nodes": [[["block35_8_ac", 0, 0, {}]]], "class_name": "Conv2D", "name": "conv2d_61", "config": {"kernel_initializer": {"class_name": "VarianceScaling", "config": {"scale": 1.0, "mode": "fan_avg", "seed": null, "distribution": "uniform"}}, "trainable": false, "activation": "linear", "kernel_constraint": null, "kernel_size": [1, 1], "data_format": "channels_last", "strides": [1, 1], "padding": "same", "dilation_rate": [1, 1], "bias_initializer": {"class_name": "Zeros", "config": {}}, "activity_regularizer": null, "kernel_regularizer": null, "filters": 32, "use_bias": false, "bias_constraint": null, "name": "conv2d_61", "bias_regularizer": null}}, {"inbound_nodes": [[["activation_62", 0, 0, {}]]], "class_name": "Conv2D", "name": "conv2d_63", "config": {"kernel_initializer": {"class_name": "VarianceScaling", "config": {"scale": 1.0, "mode": "fan_avg", "seed": null, "distribution": "uniform"}}, "trainable": false, "activation": "linear", "kernel_constraint": null, "kernel_size": [3, 3], "data_format": "channels_last", "strides": [1, 1], "padding": "same", "dilation_rate": [1, 1], "bias_initializer": {"class_name": "Zeros", "config": {}}, "activity_regularizer": null, "kernel_regularizer": null, "filters": 32, "use_bias": false, "bias_constraint": null, "name": "conv2d_63", "bias_regularizer": null}}, {"inbound_nodes": [[["activation_65", 0, 0, {}]]], "class_name": "Conv2D", "name": "conv2d_66", "config": {"kernel_initializer": {"class_name": "VarianceScaling", "config": {"scale": 1.0, "mode": "fan_avg", "seed": null, "distribution": "uniform"}}, "trainable": false, "activation": "linear", "kernel_constraint": null, "kernel_size": [3, 3], "data_format": "channels_last", "strides": [1, 1], "padding": "same", "dilation_rate": [1, 1], "bias_initializer": {"class_name": "Zeros", "config": {}}, "activity_regularizer": null, "kernel_regularizer": null, "filters": 64, "use_bias": false, "bias_constraint": null, "name": "conv2d_66", "bias_regularizer": null}}, {"inbound_nodes": [[["conv2d_61", 0, 0, {}]]], "class_name": "BatchNormalization", "name": "batch_normalization_61", "config": {"epsilon": 0.001, "trainable": false, "gamma_regularizer": null, "beta_initializer": {"class_name": "Zeros", "config": {}}, "center": true, "moving_variance_initializer": {"class_name": "Ones", "config": {}}, "moving_mean_initializer": {"class_name": "Zeros", "config": {}}, "gamma_initializer": {"class_name": "Ones", "config": {}}, "scale": false, "beta_regularizer": null, "beta_constraint": null, "axis": 3, "momentum": 0.99, "gamma_constraint": null, "name": "batch_normalization_61"}}, {"inbound_nodes": [[["conv2d_63", 0, 0, {}]]], "class_name": "BatchNormalization", "name": "batch_normalization_63", "config": {"epsilon": 0.001, "trainable": false, "gamma_regularizer": null, "beta_initializer": {"class_name": "Zeros", "config": {}}, "center": true, "moving_variance_initializer": {"class_name": "Ones", "config": {}}, "moving_mean_initializer": {"class_name": "Zeros", "config": {}}, "gamma_initializer": {"class_name": "Ones", "config": {}}, "scale": false, "beta_regularizer": null, "beta_constraint": null, "axis": 3, "momentum": 0.99, "gamma_constraint": null, "name": "batch_normalization_63"}}, {"inbound_nodes": [[["conv2d_66", 0, 0, {}]]], "class_name": "BatchNormalization", "name": "batch_normalization_66", "config": {"epsilon": 0.001, "trainable": false, "gamma_regularizer": null, "beta_initializer": {"class_name": "Zeros", "config": {}}, "center": true, "moving_variance_initializer": {"class_name": "Ones", "config": {}}, "moving_mean_initializer": {"class_name": "Zeros", "config": {}}, "gamma_initializer": {"class_name": "Ones", "config": {}}, "scale": false, "beta_regularizer": null, "beta_constraint": null, "axis": 3, "momentum": 0.99, "gamma_constraint": null, "name": "batch_normalization_66"}}, {"inbound_nodes": [[["batch_normalization_61", 0, 0, {}]]], "class_name": "Activation", "name": "activation_61", "config": {"trainable": false, "activation": "relu", "name": "activation_61"}}, {"inbound_nodes": [[["batch_normalization_63", 0, 0, {}]]], "class_name": "Activation", "name": "activation_63", "config": {"trainable": false, "activation": "relu", "name": "activation_63"}}, {"inbound_nodes": [[["batch_normalization_66", 0, 0, {}]]], "class_name": "Activation", "name": "activation_66", "config": {"trainable": false, "activation": "relu", "name": "activation_66"}}, {"inbound_nodes": [[["activation_61", 0, 0, {}], ["activation_63", 0, 0, {}], ["activation_66", 0, 0, {}]]], "class_name": "Concatenate", "name": "block35_9_mixed", "config": {"axis": 3, "trainable": false, "name": "block35_9_mixed"}}, {"inbound_nodes": [[["block35_9_mixed", 0, 0, {}]]], "class_name": "Conv2D", "name": "block35_9_conv", "config": {"kernel_initializer": {"class_name": "VarianceScaling", "config": {"scale": 1.0, "mode": "fan_avg", "seed": null, "distribution": "uniform"}}, "trainable": false, "activation": "linear", "kernel_constraint": null, "kernel_size": [1, 1], "data_format": "channels_last", "strides": [1, 1], "padding": "same", "dilation_rate": [1, 1], "bias_initializer": {"class_name": "Zeros", "config": {}}, "activity_regularizer": null, "kernel_regularizer": null, "filters": 320, "use_bias": true, "bias_constraint": null, "name": "block35_9_conv", "bias_regularizer": null}}, {"inbound_nodes": [[["block35_8_ac", 0, 0, {}], ["block35_9_conv", 0, 0, {}]]], "class_name": "Lambda", "name": "block35_9", "config": {"output_shape_type": "raw", "trainable": false, "arguments": {"scale": 0.17}, "function_type": "lambda", "function": ["4wIAAAAAAAAAAgAAAAMAAABTAAAAcxQAAAB8AABkAQAZfAAAZAIAGXwBABQXUykDTukAAAAA6QEA\nAACpACkC2gZpbnB1dHPaBXNjYWxlcgMAAAByAwAAAPpvQzpcVXNlcnNcSm9lXEFwcERhdGFcTG9j\nYWxcUHJvZ3JhbXNcUHl0aG9uXFB5dGhvbjM1XGxpYlxzaXRlLXBhY2thZ2VzXGtlcmFzXGFwcGxp\nY2F0aW9uc1xpbmNlcHRpb25fcmVzbmV0X3YyLnB52gg8bGFtYmRhPqgAAADzAAAAAA==\n", null, null], "name": "block35_9", "output_shape": [35, 35, 320]}}, {"inbound_nodes": [[["block35_9", 0, 0, {}]]], "class_name": "Activation", "name": "block35_9_ac", "config": {"trainable": false, "activation": "relu", "name": "block35_9_ac"}}, {"inbound_nodes": [[["block35_9_ac", 0, 0, {}]]], "class_name": "Conv2D", "name": "conv2d_70", "config": {"kernel_initializer": {"class_name": "VarianceScaling", "config": {"scale": 1.0, "mode": "fan_avg", "seed": null, "distribution": "uniform"}}, "trainable": false, "activation": "linear", "kernel_constraint": null, "kernel_size": [1, 1], "data_format": "channels_last", "strides": [1, 1], "padding": "same", "dilation_rate": [1, 1], "bias_initializer": {"class_name": "Zeros", "config": {}}, "activity_regularizer": null, "kernel_regularizer": null, "filters": 32, "use_bias": false, "bias_constraint": null, "name": "conv2d_70", "bias_regularizer": null}}, {"inbound_nodes": [[["conv2d_70", 0, 0, {}]]], "class_name": "BatchNormalization", "name": "batch_normalization_70", "config": {"epsilon": 0.001, "trainable": false, "gamma_regularizer": null, "beta_initializer": {"class_name": "Zeros", "config": {}}, "center": true, "moving_variance_initializer": {"class_name": "Ones", "config": {}}, "moving_mean_initializer": {"class_name": "Zeros", "config": {}}, "gamma_initializer": {"class_name": "Ones", "config": {}}, "scale": false, "beta_regularizer": null, "beta_constraint": null, "axis": 3, "momentum": 0.99, "gamma_constraint": null, "name": "batch_normalization_70"}}, {"inbound_nodes": [[["batch_normalization_70", 0, 0, {}]]], "class_name": "Activation", "name": "activation_70", "config": {"trainable": false, "activation": "relu", "name": "activation_70"}}, {"inbound_nodes": [[["block35_9_ac", 0, 0, {}]]], "class_name": "Conv2D", "name": "conv2d_68", "config": {"kernel_initializer": {"class_name": "VarianceScaling", "config": {"scale": 1.0, "mode": "fan_avg", "seed": null, "distribution": "uniform"}}, "trainable": false, "activation": "linear", "kernel_constraint": null, "kernel_size": [1, 1], "data_format": "channels_last", "strides": [1, 1], "padding": "same", "dilation_rate": [1, 1], "bias_initializer": {"class_name": "Zeros", "config": {}}, "activity_regularizer": null, "kernel_regularizer": null, "filters": 32, "use_bias": false, "bias_constraint": null, "name": "conv2d_68", "bias_regularizer": null}}, {"inbound_nodes": [[["activation_70", 0, 0, {}]]], "class_name": "Conv2D", "name": "conv2d_71", "config": {"kernel_initializer": {"class_name": "VarianceScaling", "config": {"scale": 1.0, "mode": "fan_avg", "seed": null, "distribution": "uniform"}}, "trainable": false, "activation": "linear", "kernel_constraint": null, "kernel_size": [3, 3], "data_format": "channels_last", "strides": [1, 1], "padding": "same", "dilation_rate": [1, 1], "bias_initializer": {"class_name": "Zeros", "config": {}}, "activity_regularizer": null, "kernel_regularizer": null, "filters": 48, "use_bias": false, "bias_constraint": null, "name": "conv2d_71", "bias_regularizer": null}}, {"inbound_nodes": [[["conv2d_68", 0, 0, {}]]], "class_name": "BatchNormalization", "name": "batch_normalization_68", "config": {"epsilon": 0.001, "trainable": false, "gamma_regularizer": null, "beta_initializer": {"class_name": "Zeros", "config": {}}, "center": true, "moving_variance_initializer": {"class_name": "Ones", "config": {}}, "moving_mean_initializer": {"class_name": "Zeros", "config": {}}, "gamma_initializer": {"class_name": "Ones", "config": {}}, "scale": false, "beta_regularizer": null, "beta_constraint": null, "axis": 3, "momentum": 0.99, "gamma_constraint": null, "name": "batch_normalization_68"}}, {"inbound_nodes": [[["conv2d_71", 0, 0, {}]]], "class_name": "BatchNormalization", "name": "batch_normalization_71", "config": {"epsilon": 0.001, "trainable": false, "gamma_regularizer": null, "beta_initializer": {"class_name": "Zeros", "config": {}}, "center": true, "moving_variance_initializer": {"class_name": "Ones", "config": {}}, "moving_mean_initializer": {"class_name": "Zeros", "config": {}}, "gamma_initializer": {"class_name": "Ones", "config": {}}, "scale": false, "beta_regularizer": null, "beta_constraint": null, "axis": 3, "momentum": 0.99, "gamma_constraint": null, "name": "batch_normalization_71"}}, {"inbound_nodes": [[["batch_normalization_68", 0, 0, {}]]], "class_name": "Activation", "name": "activation_68", "config": {"trainable": false, "activation": "relu", "name": "activation_68"}}, {"inbound_nodes": [[["batch_normalization_71", 0, 0, {}]]], "class_name": "Activation", "name": "activation_71", "config": {"trainable": false, "activation": "relu", "name": "activation_71"}}, {"inbound_nodes": [[["block35_9_ac", 0, 0, {}]]], "class_name": "Conv2D", "name": "conv2d_67", "config": {"kernel_initializer": {"class_name": "VarianceScaling", "config": {"scale": 1.0, "mode": "fan_avg", "seed": null, "distribution": "uniform"}}, "trainable": false, "activation": "linear", "kernel_constraint": null, "kernel_size": [1, 1], "data_format": "channels_last", "strides": [1, 1], "padding": "same", "dilation_rate": [1, 1], "bias_initializer": {"class_name": "Zeros", "config": {}}, "activity_regularizer": null, "kernel_regularizer": null, "filters": 32, "use_bias": false, "bias_constraint": null, "name": "conv2d_67", "bias_regularizer": null}}, {"inbound_nodes": [[["activation_68", 0, 0, {}]]], "class_name": "Conv2D", "name": "conv2d_69", "config": {"kernel_initializer": {"class_name": "VarianceScaling", "config": {"scale": 1.0, "mode": "fan_avg", "seed": null, "distribution": "uniform"}}, "trainable": false, "activation": "linear", "kernel_constraint": null, "kernel_size": [3, 3], "data_format": "channels_last", "strides": [1, 1], "padding": "same", "dilation_rate": [1, 1], "bias_initializer": {"class_name": "Zeros", "config": {}}, "activity_regularizer": null, "kernel_regularizer": null, "filters": 32, "use_bias": false, "bias_constraint": null, "name": "conv2d_69", "bias_regularizer": null}}, {"inbound_nodes": [[["activation_71", 0, 0, {}]]], "class_name": "Conv2D", "name": "conv2d_72", "config": {"kernel_initializer": {"class_name": "VarianceScaling", "config": {"scale": 1.0, "mode": "fan_avg", "seed": null, "distribution": "uniform"}}, "trainable": false, "activation": "linear", "kernel_constraint": null, "kernel_size": [3, 3], "data_format": "channels_last", "strides": [1, 1], "padding": "same", "dilation_rate": [1, 1], "bias_initializer": {"class_name": "Zeros", "config": {}}, "activity_regularizer": null, "kernel_regularizer": null, "filters": 64, "use_bias": false, "bias_constraint": null, "name": "conv2d_72", "bias_regularizer": null}}, {"inbound_nodes": [[["conv2d_67", 0, 0, {}]]], "class_name": "BatchNormalization", "name": "batch_normalization_67", "config": {"epsilon": 0.001, "trainable": false, "gamma_regularizer": null, "beta_initializer": {"class_name": "Zeros", "config": {}}, "center": true, "moving_variance_initializer": {"class_name": "Ones", "config": {}}, "moving_mean_initializer": {"class_name": "Zeros", "config": {}}, "gamma_initializer": {"class_name": "Ones", "config": {}}, "scale": false, "beta_regularizer": null, "beta_constraint": null, "axis": 3, "momentum": 0.99, "gamma_constraint": null, "name": "batch_normalization_67"}}, {"inbound_nodes": [[["conv2d_69", 0, 0, {}]]], "class_name": "BatchNormalization", "name": "batch_normalization_69", "config": {"epsilon": 0.001, "trainable": false, "gamma_regularizer": null, "beta_initializer": {"class_name": "Zeros", "config": {}}, "center": true, "moving_variance_initializer": {"class_name": "Ones", "config": {}}, "moving_mean_initializer": {"class_name": "Zeros", "config": {}}, "gamma_initializer": {"class_name": "Ones", "config": {}}, "scale": false, "beta_regularizer": null, "beta_constraint": null, "axis": 3, "momentum": 0.99, "gamma_constraint": null, "name": "batch_normalization_69"}}, {"inbound_nodes": [[["conv2d_72", 0, 0, {}]]], "class_name": "BatchNormalization", "name": "batch_normalization_72", "config": {"epsilon": 0.001, "trainable": false, "gamma_regularizer": null, "beta_initializer": {"class_name": "Zeros", "config": {}}, "center": true, "moving_variance_initializer": {"class_name": "Ones", "config": {}}, "moving_mean_initializer": {"class_name": "Zeros", "config": {}}, "gamma_initializer": {"class_name": "Ones", "config": {}}, "scale": false, "beta_regularizer": null, "beta_constraint": null, "axis": 3, "momentum": 0.99, "gamma_constraint": null, "name": "batch_normalization_72"}}, {"inbound_nodes": [[["batch_normalization_67", 0, 0, {}]]], "class_name": "Activation", "name": "activation_67", "config": {"trainable": false, "activation": "relu", "name": "activation_67"}}, {"inbound_nodes": [[["batch_normalization_69", 0, 0, {}]]], "class_name": "Activation", "name": "activation_69", "config": {"trainable": false, "activation": "relu", "name": "activation_69"}}, {"inbound_nodes": [[["batch_normalization_72", 0, 0, {}]]], "class_name": "Activation", "name": "activation_72", "config": {"trainable": false, "activation": "relu", "name": "activation_72"}}, {"inbound_nodes": [[["activation_67", 0, 0, {}], ["activation_69", 0, 0, {}], ["activation_72", 0, 0, {}]]], "class_name": "Concatenate", "name": "block35_10_mixed", "config": {"axis": 3, "trainable": false, "name": "block35_10_mixed"}}, {"inbound_nodes": [[["block35_10_mixed", 0, 0, {}]]], "class_name": "Conv2D", "name": "block35_10_conv", "config": {"kernel_initializer": {"class_name": "VarianceScaling", "config": {"scale": 1.0, "mode": "fan_avg", "seed": null, "distribution": "uniform"}}, "trainable": false, "activation": "linear", "kernel_constraint": null, "kernel_size": [1, 1], "data_format": "channels_last", "strides": [1, 1], "padding": "same", "dilation_rate": [1, 1], "bias_initializer": {"class_name": "Zeros", "config": {}}, "activity_regularizer": null, "kernel_regularizer": null, "filters": 320, "use_bias": true, "bias_constraint": null, "name": "block35_10_conv", "bias_regularizer": null}}, {"inbound_nodes": [[["block35_9_ac", 0, 0, {}], ["block35_10_conv", 0, 0, {}]]], "class_name": "Lambda", "name": "block35_10", "config": {"output_shape_type": "raw", "trainable": false, "arguments": {"scale": 0.17}, "function_type": "lambda", "function": ["4wIAAAAAAAAAAgAAAAMAAABTAAAAcxQAAAB8AABkAQAZfAAAZAIAGXwBABQXUykDTukAAAAA6QEA\nAACpACkC2gZpbnB1dHPaBXNjYWxlcgMAAAByAwAAAPpvQzpcVXNlcnNcSm9lXEFwcERhdGFcTG9j\nYWxcUHJvZ3JhbXNcUHl0aG9uXFB5dGhvbjM1XGxpYlxzaXRlLXBhY2thZ2VzXGtlcmFzXGFwcGxp\nY2F0aW9uc1xpbmNlcHRpb25fcmVzbmV0X3YyLnB52gg8bGFtYmRhPqgAAADzAAAAAA==\n", null, null], "name": "block35_10", "output_shape": [35, 35, 320]}}, {"inbound_nodes": [[["block35_10", 0, 0, {}]]], "class_name": "Activation", "name": "block35_10_ac", "config": {"trainable": false, "activation": "relu", "name": "block35_10_ac"}}, {"inbound_nodes": [[["block35_10_ac", 0, 0, {}]]], "class_name": "Conv2D", "name": "conv2d_74", "config": {"kernel_initializer": {"class_name": "VarianceScaling", "config": {"scale": 1.0, "mode": "fan_avg", "seed": null, "distribution": "uniform"}}, "trainable": false, "activation": "linear", "kernel_constraint": null, "kernel_size": [1, 1], "data_format": "channels_last", "strides": [1, 1], "padding": "same", "dilation_rate": [1, 1], "bias_initializer": {"class_name": "Zeros", "config": {}}, "activity_regularizer": null, "kernel_regularizer": null, "filters": 256, "use_bias": false, "bias_constraint": null, "name": "conv2d_74", "bias_regularizer": null}}, {"inbound_nodes": [[["conv2d_74", 0, 0, {}]]], "class_name": "BatchNormalization", "name": "batch_normalization_74", "config": {"epsilon": 0.001, "trainable": false, "gamma_regularizer": null, "beta_initializer": {"class_name": "Zeros", "config": {}}, "center": true, "moving_variance_initializer": {"class_name": "Ones", "config": {}}, "moving_mean_initializer": {"class_name": "Zeros", "config": {}}, "gamma_initializer": {"class_name": "Ones", "config": {}}, "scale": false, "beta_regularizer": null, "beta_constraint": null, "axis": 3, "momentum": 0.99, "gamma_constraint": null, "name": "batch_normalization_74"}}, {"inbound_nodes": [[["batch_normalization_74", 0, 0, {}]]], "class_name": "Activation", "name": "activation_74", "config": {"trainable": false, "activation": "relu", "name": "activation_74"}}, {"inbound_nodes": [[["activation_74", 0, 0, {}]]], "class_name": "Conv2D", "name": "conv2d_75", "config": {"kernel_initializer": {"class_name": "VarianceScaling", "config": {"scale": 1.0, "mode": "fan_avg", "seed": null, "distribution": "uniform"}}, "trainable": false, "activation": "linear", "kernel_constraint": null, "kernel_size": [3, 3], "data_format": "channels_last", "strides": [1, 1], "padding": "same", "dilation_rate": [1, 1], "bias_initializer": {"class_name": "Zeros", "config": {}}, "activity_regularizer": null, "kernel_regularizer": null, "filters": 256, "use_bias": false, "bias_constraint": null, "name": "conv2d_75", "bias_regularizer": null}}, {"inbound_nodes": [[["conv2d_75", 0, 0, {}]]], "class_name": "BatchNormalization", "name": "batch_normalization_75", "config": {"epsilon": 0.001, "trainable": false, "gamma_regularizer": null, "beta_initializer": {"class_name": "Zeros", "config": {}}, "center": true, "moving_variance_initializer": {"class_name": "Ones", "config": {}}, "moving_mean_initializer": {"class_name": "Zeros", "config": {}}, "gamma_initializer": {"class_name": "Ones", "config": {}}, "scale": false, "beta_regularizer": null, "beta_constraint": null, "axis": 3, "momentum": 0.99, "gamma_constraint": null, "name": "batch_normalization_75"}}, {"inbound_nodes": [[["batch_normalization_75", 0, 0, {}]]], "class_name": "Activation", "name": "activation_75", "config": {"trainable": false, "activation": "relu", "name": "activation_75"}}, {"inbound_nodes": [[["block35_10_ac", 0, 0, {}]]], "class_name": "Conv2D", "name": "conv2d_73", "config": {"kernel_initializer": {"class_name": "VarianceScaling", "config": {"scale": 1.0, "mode": "fan_avg", "seed": null, "distribution": "uniform"}}, "trainable": false, "activation": "linear", "kernel_constraint": null, "kernel_size": [3, 3], "data_format": "channels_last", "strides": [2, 2], "padding": "valid", "dilation_rate": [1, 1], "bias_initializer": {"class_name": "Zeros", "config": {}}, "activity_regularizer": null, "kernel_regularizer": null, "filters": 384, "use_bias": false, "bias_constraint": null, "name": "conv2d_73", "bias_regularizer": null}}, {"inbound_nodes": [[["activation_75", 0, 0, {}]]], "class_name": "Conv2D", "name": "conv2d_76", "config": {"kernel_initializer": {"class_name": "VarianceScaling", "config": {"scale": 1.0, "mode": "fan_avg", "seed": null, "distribution": "uniform"}}, "trainable": false, "activation": "linear", "kernel_constraint": null, "kernel_size": [3, 3], "data_format": "channels_last", "strides": [2, 2], "padding": "valid", "dilation_rate": [1, 1], "bias_initializer": {"class_name": "Zeros", "config": {}}, "activity_regularizer": null, "kernel_regularizer": null, "filters": 384, "use_bias": false, "bias_constraint": null, "name": "conv2d_76", "bias_regularizer": null}}, {"inbound_nodes": [[["conv2d_73", 0, 0, {}]]], "class_name": "BatchNormalization", "name": "batch_normalization_73", "config": {"epsilon": 0.001, "trainable": false, "gamma_regularizer": null, "beta_initializer": {"class_name": "Zeros", "config": {}}, "center": true, "moving_variance_initializer": {"class_name": "Ones", "config": {}}, "moving_mean_initializer": {"class_name": "Zeros", "config": {}}, "gamma_initializer": {"class_name": "Ones", "config": {}}, "scale": false, "beta_regularizer": null, "beta_constraint": null, "axis": 3, "momentum": 0.99, "gamma_constraint": null, "name": "batch_normalization_73"}}, {"inbound_nodes": [[["conv2d_76", 0, 0, {}]]], "class_name": "BatchNormalization", "name": "batch_normalization_76", "config": {"epsilon": 0.001, "trainable": false, "gamma_regularizer": null, "beta_initializer": {"class_name": "Zeros", "config": {}}, "center": true, "moving_variance_initializer": {"class_name": "Ones", "config": {}}, "moving_mean_initializer": {"class_name": "Zeros", "config": {}}, "gamma_initializer": {"class_name": "Ones", "config": {}}, "scale": false, "beta_regularizer": null, "beta_constraint": null, "axis": 3, "momentum": 0.99, "gamma_constraint": null, "name": "batch_normalization_76"}}, {"inbound_nodes": [[["batch_normalization_73", 0, 0, {}]]], "class_name": "Activation", "name": "activation_73", "config": {"trainable": false, "activation": "relu", "name": "activation_73"}}, {"inbound_nodes": [[["batch_normalization_76", 0, 0, {}]]], "class_name": "Activation", "name": "activation_76", "config": {"trainable": false, "activation": "relu", "name": "activation_76"}}, {"inbound_nodes": [[["block35_10_ac", 0, 0, {}]]], "class_name": "MaxPooling2D", "name": "max_pooling2d_3", "config": {"strides": [2, 2], "padding": "valid", "pool_size": [3, 3], "trainable": false, "data_format": "channels_last", "name": "max_pooling2d_3"}}, {"inbound_nodes": [[["activation_73", 0, 0, {}], ["activation_76", 0, 0, {}], ["max_pooling2d_3", 0, 0, {}]]], "class_name": "Concatenate", "name": "mixed_6a", "config": {"axis": 3, "trainable": false, "name": "mixed_6a"}}, {"inbound_nodes": [[["mixed_6a", 0, 0, {}]]], "class_name": "Conv2D", "name": "conv2d_78", "config": {"kernel_initializer": {"class_name": "VarianceScaling", "config": {"scale": 1.0, "mode": "fan_avg", "seed": null, "distribution": "uniform"}}, "trainable": false, "activation": "linear", "kernel_constraint": null, "kernel_size": [1, 1], "data_format": "channels_last", "strides": [1, 1], "padding": "same", "dilation_rate": [1, 1], "bias_initializer": {"class_name": "Zeros", "config": {}}, "activity_regularizer": null, "kernel_regularizer": null, "filters": 128, "use_bias": false, "bias_constraint": null, "name": "conv2d_78", "bias_regularizer": null}}, {"inbound_nodes": [[["conv2d_78", 0, 0, {}]]], "class_name": "BatchNormalization", "name": "batch_normalization_78", "config": {"epsilon": 0.001, "trainable": false, "gamma_regularizer": null, "beta_initializer": {"class_name": "Zeros", "config": {}}, "center": true, "moving_variance_initializer": {"class_name": "Ones", "config": {}}, "moving_mean_initializer": {"class_name": "Zeros", "config": {}}, "gamma_initializer": {"class_name": "Ones", "config": {}}, "scale": false, "beta_regularizer": null, "beta_constraint": null, "axis": 3, "momentum": 0.99, "gamma_constraint": null, "name": "batch_normalization_78"}}, {"inbound_nodes": [[["batch_normalization_78", 0, 0, {}]]], "class_name": "Activation", "name": "activation_78", "config": {"trainable": false, "activation": "relu", "name": "activation_78"}}, {"inbound_nodes": [[["activation_78", 0, 0, {}]]], "class_name": "Conv2D", "name": "conv2d_79", "config": {"kernel_initializer": {"class_name": "VarianceScaling", "config": {"scale": 1.0, "mode": "fan_avg", "seed": null, "distribution": "uniform"}}, "trainable": false, "activation": "linear", "kernel_constraint": null, "kernel_size": [1, 7], "data_format": "channels_last", "strides": [1, 1], "padding": "same", "dilation_rate": [1, 1], "bias_initializer": {"class_name": "Zeros", "config": {}}, "activity_regularizer": null, "kernel_regularizer": null, "filters": 160, "use_bias": false, "bias_constraint": null, "name": "conv2d_79", "bias_regularizer": null}}, {"inbound_nodes": [[["conv2d_79", 0, 0, {}]]], "class_name": "BatchNormalization", "name": "batch_normalization_79", "config": {"epsilon": 0.001, "trainable": false, "gamma_regularizer": null, "beta_initializer": {"class_name": "Zeros", "config": {}}, "center": true, "moving_variance_initializer": {"class_name": "Ones", "config": {}}, "moving_mean_initializer": {"class_name": "Zeros", "config": {}}, "gamma_initializer": {"class_name": "Ones", "config": {}}, "scale": false, "beta_regularizer": null, "beta_constraint": null, "axis": 3, "momentum": 0.99, "gamma_constraint": null, "name": "batch_normalization_79"}}, {"inbound_nodes": [[["batch_normalization_79", 0, 0, {}]]], "class_name": "Activation", "name": "activation_79", "config": {"trainable": false, "activation": "relu", "name": "activation_79"}}, {"inbound_nodes": [[["mixed_6a", 0, 0, {}]]], "class_name": "Conv2D", "name": "conv2d_77", "config": {"kernel_initializer": {"class_name": "VarianceScaling", "config": {"scale": 1.0, "mode": "fan_avg", "seed": null, "distribution": "uniform"}}, "trainable": false, "activation": "linear", "kernel_constraint": null, "kernel_size": [1, 1], "data_format": "channels_last", "strides": [1, 1], "padding": "same", "dilation_rate": [1, 1], "bias_initializer": {"class_name": "Zeros", "config": {}}, "activity_regularizer": null, "kernel_regularizer": null, "filters": 192, "use_bias": false, "bias_constraint": null, "name": "conv2d_77", "bias_regularizer": null}}, {"inbound_nodes": [[["activation_79", 0, 0, {}]]], "class_name": "Conv2D", "name": "conv2d_80", "config": {"kernel_initializer": {"class_name": "VarianceScaling", "config": {"scale": 1.0, "mode": "fan_avg", "seed": null, "distribution": "uniform"}}, "trainable": false, "activation": "linear", "kernel_constraint": null, "kernel_size": [7, 1], "data_format": "channels_last", "strides": [1, 1], "padding": "same", "dilation_rate": [1, 1], "bias_initializer": {"class_name": "Zeros", "config": {}}, "activity_regularizer": null, "kernel_regularizer": null, "filters": 192, "use_bias": false, "bias_constraint": null, "name": "conv2d_80", "bias_regularizer": null}}, {"inbound_nodes": [[["conv2d_77", 0, 0, {}]]], "class_name": "BatchNormalization", "name": "batch_normalization_77", "config": {"epsilon": 0.001, "trainable": false, "gamma_regularizer": null, "beta_initializer": {"class_name": "Zeros", "config": {}}, "center": true, "moving_variance_initializer": {"class_name": "Ones", "config": {}}, "moving_mean_initializer": {"class_name": "Zeros", "config": {}}, "gamma_initializer": {"class_name": "Ones", "config": {}}, "scale": false, "beta_regularizer": null, "beta_constraint": null, "axis": 3, "momentum": 0.99, "gamma_constraint": null, "name": "batch_normalization_77"}}, {"inbound_nodes": [[["conv2d_80", 0, 0, {}]]], "class_name": "BatchNormalization", "name": "batch_normalization_80", "config": {"epsilon": 0.001, "trainable": false, "gamma_regularizer": null, "beta_initializer": {"class_name": "Zeros", "config": {}}, "center": true, "moving_variance_initializer": {"class_name": "Ones", "config": {}}, "moving_mean_initializer": {"class_name": "Zeros", "config": {}}, "gamma_initializer": {"class_name": "Ones", "config": {}}, "scale": false, "beta_regularizer": null, "beta_constraint": null, "axis": 3, "momentum": 0.99, "gamma_constraint": null, "name": "batch_normalization_80"}}, {"inbound_nodes": [[["batch_normalization_77", 0, 0, {}]]], "class_name": "Activation", "name": "activation_77", "config": {"trainable": false, "activation": "relu", "name": "activation_77"}}, {"inbound_nodes": [[["batch_normalization_80", 0, 0, {}]]], "class_name": "Activation", "name": "activation_80", "config": {"trainable": false, "activation": "relu", "name": "activation_80"}}, {"inbound_nodes": [[["activation_77", 0, 0, {}], ["activation_80", 0, 0, {}]]], "class_name": "Concatenate", "name": "block17_1_mixed", "config": {"axis": 3, "trainable": false, "name": "block17_1_mixed"}}, {"inbound_nodes": [[["block17_1_mixed", 0, 0, {}]]], "class_name": "Conv2D", "name": "block17_1_conv", "config": {"kernel_initializer": {"class_name": "VarianceScaling", "config": {"scale": 1.0, "mode": "fan_avg", "seed": null, "distribution": "uniform"}}, "trainable": false, "activation": "linear", "kernel_constraint": null, "kernel_size": [1, 1], "data_format": "channels_last", "strides": [1, 1], "padding": "same", "dilation_rate": [1, 1], "bias_initializer": {"class_name": "Zeros", "config": {}}, "activity_regularizer": null, "kernel_regularizer": null, "filters": 1088, "use_bias": true, "bias_constraint": null, "name": "block17_1_conv", "bias_regularizer": null}}, {"inbound_nodes": [[["mixed_6a", 0, 0, {}], ["block17_1_conv", 0, 0, {}]]], "class_name": "Lambda", "name": "block17_1", "config": {"output_shape_type": "raw", "trainable": false, "arguments": {"scale": 0.1}, "function_type": "lambda", "function": ["4wIAAAAAAAAAAgAAAAMAAABTAAAAcxQAAAB8AABkAQAZfAAAZAIAGXwBABQXUykDTukAAAAA6QEA\nAACpACkC2gZpbnB1dHPaBXNjYWxlcgMAAAByAwAAAPpvQzpcVXNlcnNcSm9lXEFwcERhdGFcTG9j\nYWxcUHJvZ3JhbXNcUHl0aG9uXFB5dGhvbjM1XGxpYlxzaXRlLXBhY2thZ2VzXGtlcmFzXGFwcGxp\nY2F0aW9uc1xpbmNlcHRpb25fcmVzbmV0X3YyLnB52gg8bGFtYmRhPqgAAADzAAAAAA==\n", null, null], "name": "block17_1", "output_shape": [17, 17, 1088]}}, {"inbound_nodes": [[["block17_1", 0, 0, {}]]], "class_name": "Activation", "name": "block17_1_ac", "config": {"trainable": false, "activation": "relu", "name": "block17_1_ac"}}, {"inbound_nodes": [[["block17_1_ac", 0, 0, {}]]], "class_name": "Conv2D", "name": "conv2d_82", "config": {"kernel_initializer": {"class_name": "VarianceScaling", "config": {"scale": 1.0, "mode": "fan_avg", "seed": null, "distribution": "uniform"}}, "trainable": false, "activation": "linear", "kernel_constraint": null, "kernel_size": [1, 1], "data_format": "channels_last", "strides": [1, 1], "padding": "same", "dilation_rate": [1, 1], "bias_initializer": {"class_name": "Zeros", "config": {}}, "activity_regularizer": null, "kernel_regularizer": null, "filters": 128, "use_bias": false, "bias_constraint": null, "name": "conv2d_82", "bias_regularizer": null}}, {"inbound_nodes": [[["conv2d_82", 0, 0, {}]]], "class_name": "BatchNormalization", "name": "batch_normalization_82", "config": {"epsilon": 0.001, "trainable": false, "gamma_regularizer": null, "beta_initializer": {"class_name": "Zeros", "config": {}}, "center": true, "moving_variance_initializer": {"class_name": "Ones", "config": {}}, "moving_mean_initializer": {"class_name": "Zeros", "config": {}}, "gamma_initializer": {"class_name": "Ones", "config": {}}, "scale": false, "beta_regularizer": null, "beta_constraint": null, "axis": 3, "momentum": 0.99, "gamma_constraint": null, "name": "batch_normalization_82"}}, {"inbound_nodes": [[["batch_normalization_82", 0, 0, {}]]], "class_name": "Activation", "name": "activation_82", "config": {"trainable": false, "activation": "relu", "name": "activation_82"}}, {"inbound_nodes": [[["activation_82", 0, 0, {}]]], "class_name": "Conv2D", "name": "conv2d_83", "config": {"kernel_initializer": {"class_name": "VarianceScaling", "config": {"scale": 1.0, "mode": "fan_avg", "seed": null, "distribution": "uniform"}}, "trainable": false, "activation": "linear", "kernel_constraint": null, "kernel_size": [1, 7], "data_format": "channels_last", "strides": [1, 1], "padding": "same", "dilation_rate": [1, 1], "bias_initializer": {"class_name": "Zeros", "config": {}}, "activity_regularizer": null, "kernel_regularizer": null, "filters": 160, "use_bias": false, "bias_constraint": null, "name": "conv2d_83", "bias_regularizer": null}}, {"inbound_nodes": [[["conv2d_83", 0, 0, {}]]], "class_name": "BatchNormalization", "name": "batch_normalization_83", "config": {"epsilon": 0.001, "trainable": false, "gamma_regularizer": null, "beta_initializer": {"class_name": "Zeros", "config": {}}, "center": true, "moving_variance_initializer": {"class_name": "Ones", "config": {}}, "moving_mean_initializer": {"class_name": "Zeros", "config": {}}, "gamma_initializer": {"class_name": "Ones", "config": {}}, "scale": false, "beta_regularizer": null, "beta_constraint": null, "axis": 3, "momentum": 0.99, "gamma_constraint": null, "name": "batch_normalization_83"}}, {"inbound_nodes": [[["batch_normalization_83", 0, 0, {}]]], "class_name": "Activation", "name": "activation_83", "config": {"trainable": false, "activation": "relu", "name": "activation_83"}}, {"inbound_nodes": [[["block17_1_ac", 0, 0, {}]]], "class_name": "Conv2D", "name": "conv2d_81", "config": {"kernel_initializer": {"class_name": "VarianceScaling", "config": {"scale": 1.0, "mode": "fan_avg", "seed": null, "distribution": "uniform"}}, "trainable": false, "activation": "linear", "kernel_constraint": null, "kernel_size": [1, 1], "data_format": "channels_last", "strides": [1, 1], "padding": "same", "dilation_rate": [1, 1], "bias_initializer": {"class_name": "Zeros", "config": {}}, "activity_regularizer": null, "kernel_regularizer": null, "filters": 192, "use_bias": false, "bias_constraint": null, "name": "conv2d_81", "bias_regularizer": null}}, {"inbound_nodes": [[["activation_83", 0, 0, {}]]], "class_name": "Conv2D", "name": "conv2d_84", "config": {"kernel_initializer": {"class_name": "VarianceScaling", "config": {"scale": 1.0, "mode": "fan_avg", "seed": null, "distribution": "uniform"}}, "trainable": false, "activation": "linear", "kernel_constraint": null, "kernel_size": [7, 1], "data_format": "channels_last", "strides": [1, 1], "padding": "same", "dilation_rate": [1, 1], "bias_initializer": {"class_name": "Zeros", "config": {}}, "activity_regularizer": null, "kernel_regularizer": null, "filters": 192, "use_bias": false, "bias_constraint": null, "name": "conv2d_84", "bias_regularizer": null}}, {"inbound_nodes": [[["conv2d_81", 0, 0, {}]]], "class_name": "BatchNormalization", "name": "batch_normalization_81", "config": {"epsilon": 0.001, "trainable": false, "gamma_regularizer": null, "beta_initializer": {"class_name": "Zeros", "config": {}}, "center": true, "moving_variance_initializer": {"class_name": "Ones", "config": {}}, "moving_mean_initializer": {"class_name": "Zeros", "config": {}}, "gamma_initializer": {"class_name": "Ones", "config": {}}, "scale": false, "beta_regularizer": null, "beta_constraint": null, "axis": 3, "momentum": 0.99, "gamma_constraint": null, "name": "batch_normalization_81"}}, {"inbound_nodes": [[["conv2d_84", 0, 0, {}]]], "class_name": "BatchNormalization", "name": "batch_normalization_84", "config": {"epsilon": 0.001, "trainable": false, "gamma_regularizer": null, "beta_initializer": {"class_name": "Zeros", "config": {}}, "center": true, "moving_variance_initializer": {"class_name": "Ones", "config": {}}, "moving_mean_initializer": {"class_name": "Zeros", "config": {}}, "gamma_initializer": {"class_name": "Ones", "config": {}}, "scale": false, "beta_regularizer": null, "beta_constraint": null, "axis": 3, "momentum": 0.99, "gamma_constraint": null, "name": "batch_normalization_84"}}, {"inbound_nodes": [[["batch_normalization_81", 0, 0, {}]]], "class_name": "Activation", "name": "activation_81", "config": {"trainable": false, "activation": "relu", "name": "activation_81"}}, {"inbound_nodes": [[["batch_normalization_84", 0, 0, {}]]], "class_name": "Activation", "name": "activation_84", "config": {"trainable": false, "activation": "relu", "name": "activation_84"}}, {"inbound_nodes": [[["activation_81", 0, 0, {}], ["activation_84", 0, 0, {}]]], "class_name": "Concatenate", "name": "block17_2_mixed", "config": {"axis": 3, "trainable": false, "name": "block17_2_mixed"}}, {"inbound_nodes": [[["block17_2_mixed", 0, 0, {}]]], "class_name": "Conv2D", "name": "block17_2_conv", "config": {"kernel_initializer": {"class_name": "VarianceScaling", "config": {"scale": 1.0, "mode": "fan_avg", "seed": null, "distribution": "uniform"}}, "trainable": false, "activation": "linear", "kernel_constraint": null, "kernel_size": [1, 1], "data_format": "channels_last", "strides": [1, 1], "padding": "same", "dilation_rate": [1, 1], "bias_initializer": {"class_name": "Zeros", "config": {}}, "activity_regularizer": null, "kernel_regularizer": null, "filters": 1088, "use_bias": true, "bias_constraint": null, "name": "block17_2_conv", "bias_regularizer": null}}, {"inbound_nodes": [[["block17_1_ac", 0, 0, {}], ["block17_2_conv", 0, 0, {}]]], "class_name": "Lambda", "name": "block17_2", "config": {"output_shape_type": "raw", "trainable": false, "arguments": {"scale": 0.1}, "function_type": "lambda", "function": ["4wIAAAAAAAAAAgAAAAMAAABTAAAAcxQAAAB8AABkAQAZfAAAZAIAGXwBABQXUykDTukAAAAA6QEA\nAACpACkC2gZpbnB1dHPaBXNjYWxlcgMAAAByAwAAAPpvQzpcVXNlcnNcSm9lXEFwcERhdGFcTG9j\nYWxcUHJvZ3JhbXNcUHl0aG9uXFB5dGhvbjM1XGxpYlxzaXRlLXBhY2thZ2VzXGtlcmFzXGFwcGxp\nY2F0aW9uc1xpbmNlcHRpb25fcmVzbmV0X3YyLnB52gg8bGFtYmRhPqgAAADzAAAAAA==\n", null, null], "name": "block17_2", "output_shape": [17, 17, 1088]}}, {"inbound_nodes": [[["block17_2", 0, 0, {}]]], "class_name": "Activation", "name": "block17_2_ac", "config": {"trainable": false, "activation": "relu", "name": "block17_2_ac"}}, {"inbound_nodes": [[["block17_2_ac", 0, 0, {}]]], "class_name": "Conv2D", "name": "conv2d_86", "config": {"kernel_initializer": {"class_name": "VarianceScaling", "config": {"scale": 1.0, "mode": "fan_avg", "seed": null, "distribution": "uniform"}}, "trainable": false, "activation": "linear", "kernel_constraint": null, "kernel_size": [1, 1], "data_format": "channels_last", "strides": [1, 1], "padding": "same", "dilation_rate": [1, 1], "bias_initializer": {"class_name": "Zeros", "config": {}}, "activity_regularizer": null, "kernel_regularizer": null, "filters": 128, "use_bias": false, "bias_constraint": null, "name": "conv2d_86", "bias_regularizer": null}}, {"inbound_nodes": [[["conv2d_86", 0, 0, {}]]], "class_name": "BatchNormalization", "name": "batch_normalization_86", "config": {"epsilon": 0.001, "trainable": false, "gamma_regularizer": null, "beta_initializer": {"class_name": "Zeros", "config": {}}, "center": true, "moving_variance_initializer": {"class_name": "Ones", "config": {}}, "moving_mean_initializer": {"class_name": "Zeros", "config": {}}, "gamma_initializer": {"class_name": "Ones", "config": {}}, "scale": false, "beta_regularizer": null, "beta_constraint": null, "axis": 3, "momentum": 0.99, "gamma_constraint": null, "name": "batch_normalization_86"}}, {"inbound_nodes": [[["batch_normalization_86", 0, 0, {}]]], "class_name": "Activation", "name": "activation_86", "config": {"trainable": false, "activation": "relu", "name": "activation_86"}}, {"inbound_nodes": [[["activation_86", 0, 0, {}]]], "class_name": "Conv2D", "name": "conv2d_87", "config": {"kernel_initializer": {"class_name": "VarianceScaling", "config": {"scale": 1.0, "mode": "fan_avg", "seed": null, "distribution": "uniform"}}, "trainable": false, "activation": "linear", "kernel_constraint": null, "kernel_size": [1, 7], "data_format": "channels_last", "strides": [1, 1], "padding": "same", "dilation_rate": [1, 1], "bias_initializer": {"class_name": "Zeros", "config": {}}, "activity_regularizer": null, "kernel_regularizer": null, "filters": 160, "use_bias": false, "bias_constraint": null, "name": "conv2d_87", "bias_regularizer": null}}, {"inbound_nodes": [[["conv2d_87", 0, 0, {}]]], "class_name": "BatchNormalization", "name": "batch_normalization_87", "config": {"epsilon": 0.001, "trainable": false, "gamma_regularizer": null, "beta_initializer": {"class_name": "Zeros", "config": {}}, "center": true, "moving_variance_initializer": {"class_name": "Ones", "config": {}}, "moving_mean_initializer": {"class_name": "Zeros", "config": {}}, "gamma_initializer": {"class_name": "Ones", "config": {}}, "scale": false, "beta_regularizer": null, "beta_constraint": null, "axis": 3, "momentum": 0.99, "gamma_constraint": null, "name": "batch_normalization_87"}}, {"inbound_nodes": [[["batch_normalization_87", 0, 0, {}]]], "class_name": "Activation", "name": "activation_87", "config": {"trainable": false, "activation": "relu", "name": "activation_87"}}, {"inbound_nodes": [[["block17_2_ac", 0, 0, {}]]], "class_name": "Conv2D", "name": "conv2d_85", "config": {"kernel_initializer": {"class_name": "VarianceScaling", "config": {"scale": 1.0, "mode": "fan_avg", "seed": null, "distribution": "uniform"}}, "trainable": false, "activation": "linear", "kernel_constraint": null, "kernel_size": [1, 1], "data_format": "channels_last", "strides": [1, 1], "padding": "same", "dilation_rate": [1, 1], "bias_initializer": {"class_name": "Zeros", "config": {}}, "activity_regularizer": null, "kernel_regularizer": null, "filters": 192, "use_bias": false, "bias_constraint": null, "name": "conv2d…
{"class_name": "Ones", "config": {}}, "scale": false, "beta_regularizer": null, "beta_constraint": null, "axis": 3, "momentum": 0.99, "gamma_constraint": null, "name": "batch_normalization_179"}}, {"inbound_nodes": [[["batch_normalization_176", 0, 0, {}]]], "class_name": "Activation", "name": "activation_176", "config": {"trainable": false, "activation": "relu", "name": "activation_176"}}, {"inbound_nodes": [[["batch_normalization_179", 0, 0, {}]]], "class_name": "Activation", "name": "activation_179", "config": {"trainable": false, "activation": "relu", "name": "activation_179"}}, {"inbound_nodes": [[["activation_176", 0, 0, {}], ["activation_179", 0, 0, {}]]], "class_name": "Concatenate", "name": "block8_4_mixed", "config": {"axis": 3, "trainable": false, "name": "block8_4_mixed"}}, {"inbound_nodes": [[["block8_4_mixed", 0, 0, {}]]], "class_name": "Conv2D", "name": "block8_4_conv", "config": {"kernel_initializer": {"class_name": "VarianceScaling", "config": {"scale": 1.0, "mode": "fan_avg", "seed": null, "distribution": "uniform"}}, "trainable": false, "activation": "linear", "kernel_constraint": null, "kernel_size": [1, 1], "data_format": "channels_last", "strides": [1, 1], "padding": "same", "dilation_rate": [1, 1], "bias_initializer": {"class_name": "Zeros", "config": {}}, "activity_regularizer": null, "kernel_regularizer": null, "filters": 2080, "use_bias": true, "bias_constraint": null, "name": "block8_4_conv", "bias_regularizer": null}}, {"inbound_nodes": [[["block8_3_ac", 0, 0, {}], ["block8_4_conv", 0, 0, {}]]], "class_name": "Lambda", "name": "block8_4", "config": {"output_shape_type": "raw", "trainable": false, "arguments": {"scale": 0.2}, "function_type": "lambda", "function": ["4wIAAAAAAAAAAgAAAAMAAABTAAAAcxQAAAB8AABkAQAZfAAAZAIAGXwBABQXUykDTukAAAAA6QEA\nAACpACkC2gZpbnB1dHPaBXNjYWxlcgMAAAByAwAAAPpvQzpcVXNlcnNcSm9lXEFwcERhdGFcTG9j\nYWxcUHJvZ3JhbXNcUHl0aG9uXFB5dGhvbjM1XGxpYlxzaXRlLXBhY2thZ2VzXGtlcmFzXGFwcGxp\nY2F0aW9uc1xpbmNlcHRpb25fcmVzbmV0X3YyLnB52gg8bGFtYmRhPqgAAADzAAAAAA==\n", null, null], "name": "block8_4", "output_shape": [8, 8, 2080]}}, {"inbound_nodes": [[["block8_4", 0, 0, {}]]], "class_name": "Activation", "name": "block8_4_ac", "config": {"trainable": false, "activation": "relu", "name": "block8_4_ac"}}, {"inbound_nodes": [[["block8_4_ac", 0, 0, {}]]], "class_name": "Conv2D", "name": "conv2d_181", "config": {"kernel_initializer": {"class_name": "VarianceScaling", "config": {"scale": 1.0, "mode": "fan_avg", "seed": null, "distribution": "uniform"}}, "trainable": false, "activation": "linear", "kernel_constraint": null, "kernel_size": [1, 1], "data_format": "channels_last", "strides": [1, 1], "padding": "same", "dilation_rate": [1, 1], "bias_initializer": {"class_name": "Zeros", "config": {}}, "activity_regularizer": null, "kernel_regularizer": null, "filters": 192, "use_bias": false, "bias_constraint": null, "name": "conv2d_181", "bias_regularizer": null}}, {"inbound_nodes": [[["conv2d_181", 0, 0, {}]]], "class_name": "BatchNormalization", "name": "batch_normalization_181", "config": {"epsilon": 0.001, "trainable": false, "gamma_regularizer": null, "beta_initializer": {"class_name": "Zeros", "config": {}}, "center": true, "moving_variance_initializer": {"class_name": "Ones", "config": {}}, "moving_mean_initializer": {"class_name": "Zeros", "config": {}}, "gamma_initializer": {"class_name": "Ones", "config": {}}, "scale": false, "beta_regularizer": null, "beta_constraint": null, "axis": 3, "momentum": 0.99, "gamma_constraint": null, "name": "batch_normalization_181"}}, {"inbound_nodes": [[["batch_normalization_181", 0, 0, {}]]], "class_name": "Activation", "name": "activation_181", "config": {"trainable": false, "activation": "relu", "name": "activation_181"}}, {"inbound_nodes": [[["activation_181", 0, 0, {}]]], "class_name": "Conv2D", "name": "conv2d_182", "config": {"kernel_initializer": {"class_name": "VarianceScaling", "config": {"scale": 1.0, "mode": "fan_avg", "seed": null, "distribution": "uniform"}}, "trainable": false, "activation": "linear", "kernel_constraint": null, "kernel_size": [1, 3], "data_format": "channels_last", "strides": [1, 1], "padding": "same", "dilation_rate": [1, 1], "bias_initializer": {"class_name": "Zeros", "config": {}}, "activity_regularizer": null, "kernel_regularizer": null, "filters": 224, "use_bias": false, "bias_constraint": null, "name": "conv2d_182", "bias_regularizer": null}}, {"inbound_nodes": [[["conv2d_182", 0, 0, {}]]], "class_name": "BatchNormalization", "name": "batch_normalization_182", "config": {"epsilon": 0.001, "trainable": false, "gamma_regularizer": null, "beta_initializer": {"class_name": "Zeros", "config": {}}, "center": true, "moving_variance_initializer": {"class_name": "Ones", "config": {}}, "moving_mean_initializer": {"class_name": "Zeros", "config": {}}, "gamma_initializer": {"class_name": "Ones", "config": {}}, "scale": false, "beta_regularizer": null, "beta_constraint": null, "axis": 3, "momentum": 0.99, "gamma_constraint": null, "name": "batch_normalization_182"}}, {"inbound_nodes": [[["batch_normalization_182", 0, 0, {}]]], "class_name": "Activation", "name": "activation_182", "config": {"trainable": false, "activation": "relu", "name": "activation_182"}}, {"inbound_nodes": [[["block8_4_ac", 0, 0, {}]]], "class_name": "Conv2D", "name": "conv2d_180", "config": {"kernel_initializer": {"class_name": "VarianceScaling", "config": {"scale": 1.0, "mode": "fan_avg", "seed": null, "distribution": "uniform"}}, "trainable": false, "activation": "linear", "kernel_constraint": null, "kernel_size": [1, 1], "data_format": "channels_last", "strides": [1, 1], "padding": "same", "dilation_rate": [1, 1], "bias_initializer": {"class_name": "Zeros", "config": {}}, "activity_regularizer": null, "kernel_regularizer": null, "filters": 192, "use_bias": false, "bias_constraint": null, "name": "conv2d_180", "bias_regularizer": null}}, {"inbound_nodes": [[["activation_182", 0, 0, {}]]], "class_name": "Conv2D", "name": "conv2d_183", "config": {"kernel_initializer": {"class_name": "VarianceScaling", "config": {"scale": 1.0, "mode": "fan_avg", "seed": null, "distribution": "uniform"}}, "trainable": false, "activation": "linear", "kernel_constraint": null, "kernel_size": [3, 1], "data_format": "channels_last", "strides": [1, 1], "padding": "same", "dilation_rate": [1, 1], "bias_initializer": {"class_name": "Zeros", "config": {}}, "activity_regularizer": null, "kernel_regularizer": null, "filters": 256, "use_bias": false, "bias_constraint": null, "name": "conv2d_183", "bias_regularizer": null}}, {"inbound_nodes": [[["conv2d_180", 0, 0, {}]]], "class_name": "BatchNormalization", "name": "batch_normalization_180", "config": {"epsilon": 0.001, "trainable": false, "gamma_regularizer": null, "beta_initializer": {"class_name": "Zeros", "config": {}}, "center": true, "moving_variance_initializer": {"class_name": "Ones", "config": {}}, "moving_mean_initializer": {"class_name": "Zeros", "config": {}}, "gamma_initializer": {"class_name": "Ones", "config": {}}, "scale": false, "beta_regularizer": null, "beta_constraint": null, "axis": 3, "momentum": 0.99, "gamma_constraint": null, "name": "batch_normalization_180"}}, {"inbound_nodes": [[["conv2d_183", 0, 0, {}]]], "class_name": "BatchNormalization", "name": "batch_normalization_183", "config": {"epsilon": 0.001, "trainable": false, "gamma_regularizer": null, "beta_initializer": {"class_name": "Zeros", "config": {}}, "center": true, "moving_variance_initializer": {"class_name": "Ones", "config": {}}, "moving_mean_initializer": {"class_name": "Zeros", "config": {}}, "gamma_initializer": {"class_name": "Ones", "config": {}}, "scale": false, "beta_regularizer": null, "beta_constraint": null, "axis": 3, "momentum": 0.99, "gamma_constraint": null, "name": "batch_normalization_183"}}, {"inbound_nodes": [[["batch_normalization_180", 0, 0, {}]]], "class_name": "Activation", "name": "activation_180", "config": {"trainable": false, "activation": "relu", "name": "activation_180"}}, {"inbound_nodes": [[["batch_normalization_183", 0, 0, {}]]], "class_name": "Activation", "name": "activation_183", "config": {"trainable": false, "activation": "relu", "name": "activation_183"}}, {"inbound_nodes": [[["activation_180", 0, 0, {}], ["activation_183", 0, 0, {}]]], "class_name": "Concatenate", "name": "block8_5_mixed", "config": {"axis": 3, "trainable": false, "name": "block8_5_mixed"}}, {"inbound_nodes": [[["block8_5_mixed", 0, 0, {}]]], "class_name": "Conv2D", "name": "block8_5_conv", "config": {"kernel_initializer": {"class_name": "VarianceScaling", "config": {"scale": 1.0, "mode": "fan_avg", "seed": null, "distribution": "uniform"}}, "trainable": false, "activation": "linear", "kernel_constraint": null, "kernel_size": [1, 1], "data_format": "channels_last", "strides": [1, 1], "padding": "same", "dilation_rate": [1, 1], "bias_initializer": {"class_name": "Zeros", "config": {}}, "activity_regularizer": null, "kernel_regularizer": null, "filters": 2080, "use_bias": true, "bias_constraint": null, "name": "block8_5_conv", "bias_regularizer": null}}, {"inbound_nodes": [[["block8_4_ac", 0, 0, {}], ["block8_5_conv", 0, 0, {}]]], "class_name": "Lambda", "name": "block8_5", "config": {"output_shape_type": "raw", "trainable": false, "arguments": {"scale": 0.2}, "function_type": "lambda", "function": ["4wIAAAAAAAAAAgAAAAMAAABTAAAAcxQAAAB8AABkAQAZfAAAZAIAGXwBABQXUykDTukAAAAA6QEA\nAACpACkC2gZpbnB1dHPaBXNjYWxlcgMAAAByAwAAAPpvQzpcVXNlcnNcSm9lXEFwcERhdGFcTG9j\nYWxcUHJvZ3JhbXNcUHl0aG9uXFB5dGhvbjM1XGxpYlxzaXRlLXBhY2thZ2VzXGtlcmFzXGFwcGxp\nY2F0aW9uc1xpbmNlcHRpb25fcmVzbmV0X3YyLnB52gg8bGFtYmRhPqgAAADzAAAAAA==\n", null, null], "name": "block8_5", "output_shape": [8, 8, 2080]}}, {"inbound_nodes": [[["block8_5", 0, 0, {}]]], "class_name": "Activation", "name": "block8_5_ac", "config": {"trainable": false, "activation": "relu", "name": "block8_5_ac"}}, {"inbound_nodes": [[["block8_5_ac", 0, 0, {}]]], "class_name": "Conv2D", "name": "conv2d_185", "config": {"kernel_initializer": {"class_name": "VarianceScaling", "config": {"scale": 1.0, "mode": "fan_avg", "seed": null, "distribution": "uniform"}}, "trainable": false, "activation": "linear", "kernel_constraint": null, "kernel_size": [1, 1], "data_format": "channels_last", "strides": [1, 1], "padding": "same", "dilation_rate": [1, 1], "bias_initializer": {"class_name": "Zeros", "config": {}}, "activity_regularizer": null, "kernel_regularizer": null, "filters": 192, "use_bias": false, "bias_constraint": null, "name": "conv2d_185", "bias_regularizer": null}}, {"inbound_nodes": [[["conv2d_185", 0, 0, {}]]], "class_name": "BatchNormalization", "name": "batch_normalization_185", "config": {"epsilon": 0.001, "trainable": false, "gamma_regularizer": null, "beta_initializer": {"class_name": "Zeros", "config": {}}, "center": true, "moving_variance_initializer": {"class_name": "Ones", "config": {}}, "moving_mean_initializer": {"class_name": "Zeros", "config": {}}, "gamma_initializer": {"class_name": "Ones", "config": {}}, "scale": false, "beta_regularizer": null, "beta_constraint": null, "axis": 3, "momentum": 0.99, "gamma_constraint": null, "name": "batch_normalization_185"}}, {"inbound_nodes": [[["batch_normalization_185", 0, 0, {}]]], "class_name": "Activation", "name": "activation_185", "config": {"trainable": false, "activation": "relu", "name": "activation_185"}}, {"inbound_nodes": [[["activation_185", 0, 0, {}]]], "class_name": "Conv2D", "name": "conv2d_186", "config": {"kernel_initializer": {"class_name": "VarianceScaling", "config": {"scale": 1.0, "mode": "fan_avg", "seed": null, "distribution": "uniform"}}, "trainable": false, "activation": "linear", "kernel_constraint": null, "kernel_size": [1, 3], "data_format": "channels_last", "strides": [1, 1], "padding": "same", "dilation_rate": [1, 1], "bias_initializer": {"class_name": "Zeros", "config": {}}, "activity_regularizer": null, "kernel_regularizer": null, "filters": 224, "use_bias": false, "bias_constraint": null, "name": "conv2d_186", "bias_regularizer": null}}, {"inbound_nodes": [[["conv2d_186", 0, 0, {}]]], "class_name": "BatchNormalization", "name": "batch_normalization_186", "config": {"epsilon": 0.001, "trainable": false, "gamma_regularizer": null, "beta_initializer": {"class_name": "Zeros", "config": {}}, "center": true, "moving_variance_initializer": {"class_name": "Ones", "config": {}}, "moving_mean_initializer": {"class_name": "Zeros", "config": {}}, "gamma_initializer": {"class_name": "Ones", "config": {}}, "scale": false, "beta_regularizer": null, "beta_constraint": null, "axis": 3, "momentum": 0.99, "gamma_constraint": null, "name": "batch_normalization_186"}}, {"inbound_nodes": [[["batch_normalization_186", 0, 0, {}]]], "class_name": "Activation", "name": "activation_186", "config": {"trainable": false, "activation": "relu", "name": "activation_186"}}, {"inbound_nodes": [[["block8_5_ac", 0, 0, {}]]], "class_name": "Conv2D", "name": "conv2d_184", "config": {"kernel_initializer": {"class_name": "VarianceScaling", "config": {"scale": 1.0, "mode": "fan_avg", "seed": null, "distribution": "uniform"}}, "trainable": false, "activation": "linear", "kernel_constraint": null, "kernel_size": [1, 1], "data_format": "channels_last", "strides": [1, 1], "padding": "same", "dilation_rate": [1, 1], "bias_initializer": {"class_name": "Zeros", "config": {}}, "activity_regularizer": null, "kernel_regularizer": null, "filters": 192, "use_bias": false, "bias_constraint": null, "name": "conv2d_184", "bias_regularizer": null}}, {"inbound_nodes": [[["activation_186", 0, 0, {}]]], "class_name": "Conv2D", "name": "conv2d_187", "config": {"kernel_initializer": {"class_name": "VarianceScaling", "config": {"scale": 1.0, "mode": "fan_avg", "seed": null, "distribution": "uniform"}}, "trainable": false, "activation": "linear", "kernel_constraint": null, "kernel_size": [3, 1], "data_format": "channels_last", "strides": [1, 1], "padding": "same", "dilation_rate": [1, 1], "bias_initializer": {"class_name": "Zeros", "config": {}}, "activity_regularizer": null, "kernel_regularizer": null, "filters": 256, "use_bias": false, "bias_constraint": null, "name": "conv2d_187", "bias_regularizer": null}}, {"inbound_nodes": [[["conv2d_184", 0, 0, {}]]], "class_name": "BatchNormalization", "name": "batch_normalization_184", "config": {"epsilon": 0.001, "trainable": false, "gamma_regularizer": null, "beta_initializer": {"class_name": "Zeros", "config": {}}, "center": true, "moving_variance_initializer": {"class_name": "Ones", "config": {}}, "moving_mean_initializer": {"class_name": "Zeros", "config": {}}, "gamma_initializer": {"class_name": "Ones", "config": {}}, "scale": false, "beta_regularizer": null, "beta_constraint": null, "axis": 3, "momentum": 0.99, "gamma_constraint": null, "name": "batch_normalization_184"}}, {"inbound_nodes": [[["conv2d_187", 0, 0, {}]]], "class_name": "BatchNormalization", "name": "batch_normalization_187", "config": {"epsilon": 0.001, "trainable": false, "gamma_regularizer": null, "beta_initializer": {"class_name": "Zeros", "config": {}}, "center": true, "moving_variance_initializer": {"class_name": "Ones", "config": {}}, "moving_mean_initializer": {"class_name": "Zeros", "config": {}}, "gamma_initializer": {"class_name": "Ones", "config": {}}, "scale": false, "beta_regularizer": null, "beta_constraint": null, "axis": 3, "momentum": 0.99, "gamma_constraint": null, "name": "batch_normalization_187"}}, {"inbound_nodes": [[["batch_normalization_184", 0, 0, {}]]], "class_name": "Activation", "name": "activation_184", "config": {"trainable": false, "activation": "relu", "name": "activation_184"}}, {"inbound_nodes": [[["batch_normalization_187", 0, 0, {}]]], "class_name": "Activation", "name": "activation_187", "config": {"trainable": false, "activation": "relu", "name": "activation_187"}}, {"inbound_nodes": [[["activation_184", 0, 0, {}], ["activation_187", 0, 0, {}]]], "class_name": "Concatenate", "name": "block8_6_mixed", "config": {"axis": 3, "trainable": false, "name": "block8_6_mixed"}}, {"inbound_nodes": [[["block8_6_mixed", 0, 0, {}]]], "class_name": "Conv2D", "name": "block8_6_conv", "config": {"kernel_initializer": {"class_name": "VarianceScaling", "config": {"scale": 1.0, "mode": "fan_avg", "seed": null, "distribution": "uniform"}}, "trainable": false, "activation": "linear", "kernel_constraint": null, "kernel_size": [1, 1], "data_format": "channels_last", "strides": [1, 1], "padding": "same", "dilation_rate": [1, 1], "bias_initializer": {"class_name": "Zeros", "config": {}}, "activity_regularizer": null, "kernel_regularizer": null, "filters": 2080, "use_bias": true, "bias_constraint": null, "name": "block8_6_conv", "bias_regularizer": null}}, {"inbound_nodes": [[["block8_5_ac", 0, 0, {}], ["block8_6_conv", 0, 0, {}]]], "class_name": "Lambda", "name": "block8_6", "config": {"output_shape_type": "raw", "trainable": false, "arguments": {"scale": 0.2}, "function_type": "lambda", "function": ["4wIAAAAAAAAAAgAAAAMAAABTAAAAcxQAAAB8AABkAQAZfAAAZAIAGXwBABQXUykDTukAAAAA6QEA\nAACpACkC2gZpbnB1dHPaBXNjYWxlcgMAAAByAwAAAPpvQzpcVXNlcnNcSm9lXEFwcERhdGFcTG9j\nYWxcUHJvZ3JhbXNcUHl0aG9uXFB5dGhvbjM1XGxpYlxzaXRlLXBhY2thZ2VzXGtlcmFzXGFwcGxp\nY2F0aW9uc1xpbmNlcHRpb25fcmVzbmV0X3YyLnB52gg8bGFtYmRhPqgAAADzAAAAAA==\n", null, null], "name": "block8_6", "output_shape": [8, 8, 2080]}}, {"inbound_nodes": [[["block8_6", 0, 0, {}]]], "class_name": "Activation", "name": "block8_6_ac", "config": {"trainable": false, "activation": "relu", "name": "block8_6_ac"}}, {"inbound_nodes": [[["block8_6_ac", 0, 0, {}]]], "class_name": "Conv2D", "name": "conv2d_189", "config": {"kernel_initializer": {"class_name": "VarianceScaling", "config": {"scale": 1.0, "mode": "fan_avg", "seed": null, "distribution": "uniform"}}, "trainable": false, "activation": "linear", "kernel_constraint": null, "kernel_size": [1, 1], "data_format": "channels_last", "strides": [1, 1], "padding": "same", "dilation_rate": [1, 1], "bias_initializer": {"class_name": "Zeros", "config": {}}, "activity_regularizer": null, "kernel_regularizer": null, "filters": 192, "use_bias": false, "bias_constraint": null, "name": "conv2d_189", "bias_regularizer": null}}, {"inbound_nodes": [[["conv2d_189", 0, 0, {}]]], "class_name": "BatchNormalization", "name": "batch_normalization_189", "config": {"epsilon": 0.001, "trainable": false, "gamma_regularizer": null, "beta_initializer": {"class_name": "Zeros", "config": {}}, "center": true, "moving_variance_initializer": {"class_name": "Ones", "config": {}}, "moving_mean_initializer": {"class_name": "Zeros", "config": {}}, "gamma_initializer": {"class_name": "Ones", "config": {}}, "scale": false, "beta_regularizer": null, "beta_constraint": null, "axis": 3, "momentum": 0.99, "gamma_constraint": null, "name": "batch_normalization_189"}}, {"inbound_nodes": [[["batch_normalization_189", 0, 0, {}]]], "class_name": "Activation", "name": "activation_189", "config": {"trainable": false, "activation": "relu", "name": "activation_189"}}, {"inbound_nodes": [[["activation_189", 0, 0, {}]]], "class_name": "Conv2D", "name": "conv2d_190", "config": {"kernel_initializer": {"class_name": "VarianceScaling", "config": {"scale": 1.0, "mode": "fan_avg", "seed": null, "distribution": "uniform"}}, "trainable": false, "activation": "linear", "kernel_constraint": null, "kernel_size": [1, 3], "data_format": "channels_last", "strides": [1, 1], "padding": "same", "dilation_rate": [1, 1], "bias_initializer": {"class_name": "Zeros", "config": {}}, "activity_regularizer": null, "kernel_regularizer": null, "filters": 224, "use_bias": false, "bias_constraint": null, "name": "conv2d_190", "bias_regularizer": null}}, {"inbound_nodes": [[["conv2d_190", 0, 0, {}]]], "class_name": "BatchNormalization", "name": "batch_normalization_190", "config": {"epsilon": 0.001, "trainable": false, "gamma_regularizer": null, "beta_initializer": {"class_name": "Zeros", "config": {}}, "center": true, "moving_variance_initializer": {"class_name": "Ones", "config": {}}, "moving_mean_initializer": {"class_name": "Zeros", "config": {}}, "gamma_initializer": {"class_name": "Ones", "config": {}}, "scale": false, "beta_regularizer": null, "beta_constraint": null, "axis": 3, "momentum": 0.99, "gamma_constraint": null, "name": "batch_normalization_190"}}, {"inbound_nodes": [[["batch_normalization_190", 0, 0, {}]]], "class_name": "Activation", "name": "activation_190", "config": {"trainable": false, "activation": "relu", "name": "activation_190"}}, {"inbound_nodes": [[["block8_6_ac", 0, 0, {}]]], "class_name": "Conv2D", "name": "conv2d_188", "config": {"kernel_initializer": {"class_name": "VarianceScaling", "config": {"scale": 1.0, "mode": "fan_avg", "seed": null, "distribution": "uniform"}}, "trainable": false, "activation": "linear", "kernel_constraint": null, "kernel_size": [1, 1], "data_format": "channels_last", "strides": [1, 1], "padding": "same", "dilation_rate": [1, 1], "bias_initializer": {"class_name": "Zeros", "config": {}}, "activity_regularizer": null, "kernel_regularizer": null, "filters": 192, "use_bias": false, "bias_constraint": null, "name": "conv2d_188", "bias_regularizer": null}}, {"inbound_nodes": [[["activation_190", 0, 0, {}]]], "class_name": "Conv2D", "name": "conv2d_191", "config": {"kernel_initializer": {"class_name": "VarianceScaling", "config": {"scale": 1.0, "mode": "fan_avg", "seed": null, "distribution": "uniform"}}, "trainable": false, "activation": "linear", "kernel_constraint": null, "kernel_size": [3, 1], "data_format": "channels_last", "strides": [1, 1], "padding": "same", "dilation_rate": [1, 1], "bias_initializer": {"class_name": "Zeros", "config": {}}, "activity_regularizer": null, "kernel_regularizer": null, "filters": 256, "use_bias": false, "bias_constraint": null, "name": "conv2d_191", "bias_regularizer": null}}, {"inbound_nodes": [[["conv2d_188", 0, 0, {}]]], "class_name": "BatchNormalization", "name": "batch_normalization_188", "config": {"epsilon": 0.001, "trainable": false, "gamma_regularizer": null, "beta_initializer": {"class_name": "Zeros", "config": {}}, "center": true, "moving_variance_initializer": {"class_name": "Ones", "config": {}}, "moving_mean_initializer": {"class_name": "Zeros", "config": {}}, "gamma_initializer": {"class_name": "Ones", "config": {}}, "scale": false, "beta_regularizer": null, "beta_constraint": null, "axis": 3, "momentum": 0.99, "gamma_constraint": null, "name": "batch_normalization_188"}}, {"inbound_nodes": [[["conv2d_191", 0, 0, {}]]], "class_name": "BatchNormalization", "name": "batch_normalization_191", "config": {"epsilon": 0.001, "trainable": false, "gamma_regularizer": null, "beta_initializer": {"class_name": "Zeros", "config": {}}, "center": true, "moving_variance_initializer": {"class_name": "Ones", "config": {}}, "moving_mean_initializer": {"class_name": "Zeros", "config": {}}, "gamma_initializer": {"class_name": "Ones", "config": {}}, "scale": false, "beta_regularizer": null, "beta_constraint": null, "axis": 3, "momentum": 0.99, "gamma_constraint": null, "name": "batch_normalization_191"}}, {"inbound_nodes": [[["batch_normalization_188", 0, 0, {}]]], "class_name": "Activation", "name": "activation_188", "config": {"trainable": false, "activation": "relu", "name": "activation_188"}}, {"inbound_nodes": [[["batch_normalization_191", 0, 0, {}]]], "class_name": "Activation", "name": "activation_191", "config": {"trainable": false, "activation": "relu", "name": "activation_191"}}, {"inbound_nodes": [[["activation_188", 0, 0, {}], ["activation_191", 0, 0, {}]]], "class_name": "Concatenate", "name": "block8_7_mixed", "config": {"axis": 3, "trainable": false, "name": "block8_7_mixed"}}, {"inbound_nodes": [[["block8_7_mixed", 0, 0, {}]]], "class_name": "Conv2D", "name": "block8_7_conv", "config": {"kernel_initializer": {"class_name": "VarianceScaling", "config": {"scale": 1.0, "mode": "fan_avg", "seed": null, "distribution": "uniform"}}, "trainable": false, "activation": "linear", "kernel_constraint": null, "kernel_size": [1, 1], "data_format": "channels_last", "strides": [1, 1], "padding": "same", "dilation_rate": [1, 1], "bias_initializer": {"class_name": "Zeros", "config": {}}, "activity_regularizer": null, "kernel_regularizer": null, "filters": 2080, "use_bias": true, "bias_constraint": null, "name": "block8_7_conv", "bias_regularizer": null}}, {"inbound_nodes": [[["block8_6_ac", 0, 0, {}], ["block8_7_conv", 0, 0, {}]]], "class_name": "Lambda", "name": "block8_7", "config": {"output_shape_type": "raw", "trainable": false, "arguments": {"scale": 0.2}, "function_type": "lambda", "function": ["4wIAAAAAAAAAAgAAAAMAAABTAAAAcxQAAAB8AABkAQAZfAAAZAIAGXwBABQXUykDTukAAAAA6QEA\nAACpACkC2gZpbnB1dHPaBXNjYWxlcgMAAAByAwAAAPpvQzpcVXNlcnNcSm9lXEFwcERhdGFcTG9j\nYWxcUHJvZ3JhbXNcUHl0aG9uXFB5dGhvbjM1XGxpYlxzaXRlLXBhY2thZ2VzXGtlcmFzXGFwcGxp\nY2F0aW9uc1xpbmNlcHRpb25fcmVzbmV0X3YyLnB52gg8bGFtYmRhPqgAAADzAAAAAA==\n", null, null], "name": "block8_7", "output_shape": [8, 8, 2080]}}, {"inbound_nodes": [[["block8_7", 0, 0, {}]]], "class_name": "Activation", "name": "block8_7_ac", "config": {"trainable": false, "activation": "relu", "name": "block8_7_ac"}}, {"inbound_nodes": [[["block8_7_ac", 0, 0, {}]]], "class_name": "Conv2D", "name": "conv2d_193", "config": {"kernel_initializer": {"class_name": "VarianceScaling", "config": {"scale": 1.0, "mode": "fan_avg", "seed": null, "distribution": "uniform"}}, "trainable": false, "activation": "linear", "kernel_constraint": null, "kernel_size": [1, 1], "data_format": "channels_last", "strides": [1, 1], "padding": "same", "dilation_rate": [1, 1], "bias_initializer": {"class_name": "Zeros", "config": {}}, "activity_regularizer": null, "kernel_regularizer": null, "filters": 192, "use_bias": false, "bias_constraint": null, "name": "conv2d_193", "bias_regularizer": null}}, {"inbound_nodes": [[["conv2d_193", 0, 0, {}]]], "class_name": "BatchNormalization", "name": "batch_normalization_193", "config": {"epsilon": 0.001, "trainable": false, "gamma_regularizer": null, "beta_initializer": {"class_name": "Zeros", "config": {}}, "center": true, "moving_variance_initializer": {"class_name": "Ones", "config": {}}, "moving_mean_initializer": {"class_name": "Zeros", "config": {}}, "gamma_initializer": {"class_name": "Ones", "config": {}}, "scale": false, "beta_regularizer": null, "beta_constraint": null, "axis": 3, "momentum": 0.99, "gamma_constraint": null, "name": "batch_normalization_193"}}, {"inbound_nodes": [[["batch_normalization_193", 0, 0, {}]]], "class_name": "Activation", "name": "activation_193", "config": {"trainable": false, "activation": "relu", "name": "activation_193"}}, {"inbound_nodes": [[["activation_193", 0, 0, {}]]], "class_name": "Conv2D", "name": "conv2d_194", "config": {"kernel_initializer": {"class_name": "VarianceScaling", "config": {"scale": 1.0, "mode": "fan_avg", "seed": null, "distribution": "uniform"}}, "trainable": false, "activation": "linear", "kernel_constraint": null, "kernel_size": [1, 3], "data_format": "channels_last", "strides": [1, 1], "padding": "same", "dilation_rate": [1, 1], "bias_initializer": {"class_name": "Zeros", "config": {}}, "activity_regularizer": null, "kernel_regularizer": null, "filters": 224, "use_bias": false, "bias_constraint": null, "name": "conv2d_194", "bias_regularizer": null}}, {"inbound_nodes": [[["conv2d_194", 0, 0, {}]]], "class_name": "BatchNormalization", "name": "batch_normalization_194", "config": {"epsilon": 0.001, "trainable": false, "gamma_regularizer": null, "beta_initializer": {"class_name": "Zeros", "config": {}}, "center": true, "moving_variance_initializer": {"class_name": "Ones", "config": {}}, "moving_mean_initializer": {"class_name": "Zeros", "config": {}}, "gamma_initializer": {"class_name": "Ones", "config": {}}, "scale": false, "beta_regularizer": null, "beta_constraint": null, "axis": 3, "momentum": 0.99, "gamma_constraint": null, "name": "batch_normalization_194"}}, {"inbound_nodes": [[["batch_normalization_194", 0, 0, {}]]], "class_name": "Activation", "name": "activation_194", "config": {"trainable": false, "activation": "relu", "name": "activation_194"}}, {"inbound_nodes": [[["block8_7_ac", 0, 0, {}]]], "class_name": "Conv2D", "name": "conv2d_192", "config": {"kernel_initializer": {"class_name": "VarianceScaling", "config": {"scale": 1.0, "mode": "fan_avg", "seed": null, "distribution": "uniform"}}, "trainable": false, "activation": "linear", "kernel_constraint": null, "kernel_size": [1, 1], "data_format": "channels_last", "strides": [1, 1], "padding": "same", "dilation_rate": [1, 1], "bias_initializer": {"class_name": "Zeros", "config": {}}, "activity_regularizer": null, "kernel_regularizer": null, "filters": 192, "use_bias": false, "bias_constraint": null, "name": "conv2d_192", "bias_regularizer": null}}, {"inbound_nodes": [[["activation_194", 0, 0, {}]]], "class_name": "Conv2D", "name": "conv2d_195", "config": {"kernel_initializer": {"class_name": "VarianceScaling", "config": {"scale": 1.0, "mode": "fan_avg", "seed": null, "distribution": "uniform"}}, "trainable": false, "activation": "linear", "kernel_constraint": null, "kernel_size": [3, 1], "data_format": "channels_last", "strides": [1, 1], "padding": "same", "dilation_rate": [1, 1], "bias_initializer": {"class_name": "Zeros", "config": {}}, "activity_regularizer": null, "kernel_regularizer": null, "filters": 256, "use_bias": false, "bias_constraint": null, "name": "conv2d_195", "bias_regularizer": null}}, {"inbound_nodes": [[["conv2d_192", 0, 0, {}]]], "class_name": "BatchNormalization", "name": "batch_normalization_192", "config": {"epsilon": 0.001, "trainable": false, "gamma_regularizer": null, "beta_initializer": {"class_name": "Zeros", "config": {}}, "center": true, "moving_variance_initializer": {"class_name": "Ones", "config": {}}, "moving_mean_initializer": {"class_name": "Zeros", "config": {}}, "gamma_initializer": {"class_name": "Ones", "config": {}}, "scale": false, "beta_regularizer": null, "beta_constraint": null, "axis": 3, "momentum": 0.99, "gamma_constraint": null, "name": "batch_normalization_192"}}, {"inbound_nodes": [[["conv2d_195", 0, 0, {}]]], "class_name": "BatchNormalization", "name": "batch_normalization_195", "config": {"epsilon": 0.001, "trainable": false, "gamma_regularizer": null, "beta_initializer": {"class_name": "Zeros", "config": {}}, "center": true, "moving_variance_initializer": {"class_name": "Ones", "config": {}}, "moving_mean_initializer": {"class_name": "Zeros", "config": {}}, "gamma_initializer": {"class_name": "Ones", "config": {}}, "scale": false, "beta_regularizer": null, "beta_constraint": null, "axis": 3, "momentum": 0.99, "gamma_constraint": null, "name": "batch_normalization_195"}}, {"inbound_nodes": [[["batch_normalization_192", 0, 0, {}]]], "class_name": "Activation", "name": "activation_192", "config": {"trainable": false, "activation": "relu", "name": "activation_192"}}, {"inbound_nodes": [[["batch_normalization_195", 0, 0, {}]]], "class_name": "Activation", "name": "activation_195", "config": {"trainable": false, "activation": "relu", "name": "activation_195"}}, {"inbound_nodes": [[["activation_192", 0, 0, {}], ["activation_195", 0, 0, {}]]], "class_name": "Concatenate", "name": "block8_8_mixed", "config": {"axis": 3, "trainable": true, "name": "block8_8_mixed"}}, {"inbound_nodes": [[["block8_8_mixed", 0, 0, {}]]], "class_name": "Conv2D", "name": "block8_8_conv", "config": {"kernel_initializer": {"class_name": "VarianceScaling", "config": {"scale": 1.0, "mode": "fan_avg", "seed": null, "distribution": "uniform"}}, "trainable": true, "activation": "linear", "kernel_constraint": null, "kernel_size": [1, 1], "data_format": "channels_last", "strides": [1, 1], "padding": "same", "dilation_rate": [1, 1], "bias_initializer": {"class_name": "Zeros", "config": {}}, "activity_regularizer": null, "kernel_regularizer": null, "filters": 2080, "use_bias": true, "bias_constraint": null, "name": "block8_8_conv", "bias_regularizer": null}}, {"inbound_nodes": [[["block8_7_ac", 0, 0, {}], ["block8_8_conv", 0, 0, {}]]], "class_name": "Lambda", "name": "block8_8", "config": {"output_shape_type": "raw", "trainable": true, "arguments": {"scale": 0.2}, "function_type": "lambda", "function": ["4wIAAAAAAAAAAgAAAAMAAABTAAAAcxQAAAB8AABkAQAZfAAAZAIAGXwBABQXUykDTukAAAAA6QEA\nAACpACkC2gZpbnB1dHPaBXNjYWxlcgMAAAByAwAAAPpvQzpcVXNlcnNcSm9lXEFwcERhdGFcTG9j\nYWxcUHJvZ3JhbXNcUHl0aG9uXFB5dGhvbjM1XGxpYlxzaXRlLXBhY2thZ2VzXGtlcmFzXGFwcGxp\nY2F0aW9uc1xpbmNlcHRpb25fcmVzbmV0X3YyLnB52gg8bGFtYmRhPqgAAADzAAAAAA==\n", null, null], "name": "block8_8", "output_shape": [8, 8, 2080]}}, {"inbound_nodes": [[["block8_8", 0, 0, {}]]], "class_name": "Activation", "name": "block8_8_ac", "config": {"trainable": true, "activation": "relu", "name": "block8_8_ac"}}, {"inbound_nodes": [[["block8_8_ac", 0, 0, {}]]], "class_name": "Conv2D", "name": "conv2d_197", "config": {"kernel_initializer": {"class_name": "VarianceScaling", "config": {"scale": 1.0, "mode": "fan_avg", "seed": null, "distribution": "uniform"}}, "trainable": true, "activation": "linear", "kernel_constraint": null, "kernel_size": [1, 1], "data_format": "channels_last", "strides": [1, 1], "padding": "same", "dilation_rate": [1, 1], "bias_initializer": {"class_name": "Zeros", "config": {}}, "activity_regularizer": null, "kernel_regularizer": null, "filters": 192, "use_bias": false, "bias_constraint": null, "name": "conv2d_197", "bias_regularizer": null}}, {"inbound_nodes": [[["conv2d_197", 0, 0, {}]]], "class_name": "BatchNormalization", "name": "batch_normalization_197", "config": {"epsilon": 0.001, "trainable": true, "gamma_regularizer": null, "beta_initializer": {"class_name": "Zeros", "config": {}}, "center": true, "moving_variance_initializer": {"class_name": "Ones", "config": {}}, "moving_mean_initializer": {"class_name": "Zeros", "config": {}}, "gamma_initializer": {"class_name": "Ones", "config": {}}, "scale": false, "beta_regularizer": null, "beta_constraint": null, "axis": 3, "momentum": 0.99, "gamma_constraint": null, "name": "batch_normalization_197"}}, {"inbound_nodes": [[["batch_normalization_197", 0, 0, {}]]], "class_name": "Activation", "name": "activation_197", "config": {"trainable": true, "activation": "relu", "name": "activation_197"}}, {"inbound_nodes": [[["activation_197", 0, 0, {}]]], "class_name": "Conv2D", "name": "conv2d_198", "config": {"kernel_initializer": {"class_name": "VarianceScaling", "config": {"scale": 1.0, "mode": "fan_avg", "seed": null, "distribution": "uniform"}}, "trainable": true, "activation": "linear", "kernel_constraint": null, "kernel_size": [1, 3], "data_format": "channels_last", "strides": [1, 1], "padding": "same", "dilation_rate": [1, 1], "bias_initializer": {"class_name": "Zeros", "config": {}}, "activity_regularizer": null, "kernel_regularizer": null, "filters": 224, "use_bias": false, "bias_constraint": null, "name": "conv2d_198", "bias_regularizer": null}}, {"inbound_nodes": [[["conv2d_198", 0, 0, {}]]], "class_name": "BatchNormalization", "name": "batch_normalization_198", "config": {"epsilon": 0.001, "trainable": true, "gamma_regularizer": null, "beta_initializer": {"class_name": "Zeros", "config": {}}, "center": true, "moving_variance_initializer": {"class_name": "Ones", "config": {}}, "moving_mean_initializer": {"class_name": "Zeros", "config": {}}, "gamma_initializer": {"class_name": "Ones", "config": {}}, "scale": false, "beta_regularizer": null, "beta_constraint": null, "axis": 3, "momentum": 0.99, "gamma_constraint": null, "name": "batch_normalization_198"}}, {"inbound_nodes": [[["batch_normalization_198", 0, 0, {}]]], "class_name": "Activation", "name": "activation_198", "config": {"trainable": true, "activation": "relu", "name": "activation_198"}}, {"inbound_nodes": [[["block8_8_ac", 0, 0, {}]]], "class_name": "Conv2D", "name": "conv2d_196", "config": {"kernel_initializer": {"class_name": "VarianceScaling", "config": {"scale": 1.0, "mode": "fan_avg", "seed": null, "distribution": "uniform"}}, "trainable": true, "activation": "linear", "kernel_constraint": null, "kernel_size": [1, 1], "data_format": "channels_last", "strides": [1, 1], "padding": "same", "dilation_rate": [1, 1], "bias_initializer": {"class_name": "Zeros", "config": {}}, "activity_regularizer": null, "kernel_regularizer": null, "filters": 192, "use_bias": false, "bias_constraint": null, "name": "conv2d_196", "bias_regularizer": null}}, {"inbound_nodes": [[["activation_198", 0, 0, {}]]], "class_name": "Conv2D", "name": "conv2d_199", "config": {"kernel_initializer": {"class_name": "VarianceScaling", "config": {"scale": 1.0, "mode": "fan_avg", "seed": null, "distribution": "uniform"}}, "trainable": true, "activation": "linear", "kernel_constraint": null, "kernel_size": [3, 1], "data_format": "channels_last", "strides": [1, 1], "padding": "same", "dilation_rate": [1, 1], "bias_initializer": {"class_name": "Zeros", "config": {}}, "activity_regularizer": null, "kernel_regularizer": null, "filters": 256, "use_bias": false, "bias_constraint": null, "name": "conv2d_199", "bias_regularizer": null}}, {"inbound_nodes": [[["conv2d_196", 0, 0, {}]]], "class_name": "BatchNormalization", "name": "batch_normalization_196", "config": {"epsilon": 0.001, "trainable": true, "gamma_regularizer": null, "beta_initializer": {"class_name": "Zeros", "config": {}}, "center": true, "moving_variance_initializer": {"class_name": "Ones", "config": {}}, "moving_mean_initializer": {"class_name": "Zeros", "config": {}}, "gamma_initializer": {"class_name": "Ones", "config": {}}, "scale": false, "beta_regularizer": null, "beta_constraint": null, "axis": 3, "momentum": 0.99, "gamma_constraint": null, "name": "batch_normalization_196"}}, {"inbound_nodes": [[["conv2d_199", 0, 0, {}]]], "class_name": "BatchNormalization", "name": "batch_normalization_199", "config": {"epsilon": 0.001, "trainable": true, "gamma_regularizer": null, "beta_initializer": {"class_name": "Zeros", "config": {}}, "center": true, "moving_variance_initializer": {"class_name": "Ones", "config": {}}, "moving_mean_initializer": {"class_name": "Zeros", "config": {}}, "gamma_initializer": {"class_name": "Ones", "config": {}}, "scale": false, "beta_regularizer": null, "beta_constraint": null, "axis": 3, "momentum": 0.99, "gamma_constraint": null, "name": "batch_normalization_199"}}, {"inbound_nodes": [[["batch_normalization_196", 0, 0, {}]]], "class_name": "Activation", "name": "activation_196", "config": {"trainable": true, "activation": "relu", "name": "activation_196"}}, {"inbound_nodes": [[["batch_normalization_199", 0, 0, {}]]], "class_name": "Activation", "name": "activation_199", "config": {"trainable": true, "activation": "relu", "name": "activation_199"}}, {"inbound_nodes": [[["activation_196", 0, 0, {}], ["activation_199", 0, 0, {}]]], "class_name": "Concatenate", "name": "block8_9_mixed", "config": {"axis": 3, "trainable": true, "name": "block8_9_mixed"}}, {"inbound_nodes": [[["block8_9_mixed", 0, 0, {}]]], "class_name": "Conv2D", "name": "block8_9_conv", "config": {"kernel_initializer": {"class_name": "VarianceScaling", "config": {"scale": 1.0, "mode": "fan_avg", "seed": null, "distribution": "uniform"}}, "trainable": true, "activation": "linear", "kernel_constraint": null, "kernel_size": [1, 1], "data_format": "channels_last", "strides": [1, 1], "padding": "same", "dilation_rate": [1, 1], "bias_initializer": {"class_name": "Zeros", "config": {}}, "activity_regularizer": null, "kernel_regularizer": null, "filters": 2080, "use_bias": true, "bias_constraint": null, "name": "block8_9_conv", "bias_regularizer": null}}, {"inbound_nodes": [[["block8_8_ac", 0, 0, {}], ["block8_9_conv", 0, 0, {}]]], "class_name": "Lambda", "name": "block8_9", "config": {"output_shape_type": "raw", "trainable": true, "arguments": {"scale": 0.2}, "function_type": "lambda", "function": ["4wIAAAAAAAAAAgAAAAMAAABTAAAAcxQAAAB8AABkAQAZfAAAZAIAGXwBABQXUykDTukAAAAA6QEA\nAACpACkC2gZpbnB1dHPaBXNjYWxlcgMAAAByAwAAAPpvQzpcVXNlcnNcSm9lXEFwcERhdGFcTG9j\nYWxcUHJvZ3JhbXNcUHl0aG9uXFB5dGhvbjM1XGxpYlxzaXRlLXBhY2thZ2VzXGtlcmFzXGFwcGxp\nY2F0aW9uc1xpbmNlcHRpb25fcmVzbmV0X3YyLnB52gg8bGFtYmRhPqgAAADzAAAAAA==\n", null, null], "name": "block8_9", "output_shape": [8, 8, 2080]}}, {"inbound_nodes": [[["block8_9", 0, 0, {}]]], "class_name": "Activation", "name": "block8_9_ac", "config": {"trainable": true, "activation": "relu", "name": "block8_9_ac"}}, {"inbound_nodes": [[["block8_9_ac", 0, 0, {}]]], "class_name": "Conv2D", "name": "conv2d_201", "config": {"kernel_initializer": {"class_name": "VarianceScaling", "config": {"scale": 1.0, "mode": "fan_avg", "seed": null, "distribution": "uniform"}}, "trainable": true, "activation": "linear", "kernel_constraint": null, "kernel_size": [1, 1], "data_format": "channels_last", "strides": [1, 1], "padding": "same", "dilation_rate": [1, 1], "bias_initializer": {"class_name": "Zeros", "config": {}}, "activity_regularizer": null, "kernel_regularizer": null, "filters": 192, "use_bias": false, "bias_constraint": null, "name": "conv2d_201", "bias_regularizer": null}}, {"inbound_nodes": [[["conv2d_201", 0, 0, {}]]], "class_name": "BatchNormalization", "name": "batch_normalization_201", "config": {"epsilon": 0.001, "trainable": true, "gamma_regularizer": null, "beta_initializer": {"class_name": "Zeros", "config": {}}, "center": true, "moving_variance_initializer": {"class_name": "Ones", "config": {}}, "moving_mean_initializer": {"class_name": "Zeros", "config": {}}, "gamma_initializer": {"class_name": "Ones", "config": {}}, "scale": false, "beta_regularizer": null, "beta_constraint": null, "axis": 3, "momentum": 0.99, "gamma_constraint": null, "name": "batch_normalization_201"}}, {"inbound_nodes": [[["batch_normalization_201", 0, 0, {}]]], "class_name": "Activation", "name": "activation_201", "config": {"trainable": true, "activation": "relu", "name": "activation_201"}}, {"inbound_nodes": [[["activation_201", 0, 0, {}]]], "class_name": "Conv2D", "name": "conv2d_202", "config": {"kernel_initializer": {"class_name": "VarianceScaling", "config": {"scale": 1.0, "mode": "fan_avg", "seed": null, "distribution": "uniform"}}, "trainable": true, "activation": "linear", "kernel_constraint": null, "kernel_size": [1, 3], "data_format": "channels_last", "strides": [1, 1], "padding": "same", "dilation_rate": [1, 1], "bias_initializer": {"class_name": "Zeros", "config": {}}, "activity_regularizer": null, "kernel_regularizer": null, "filters": 224, "use_bias": false, "bias_constraint": null, "name": "conv2d_202", "bias_regularizer": null}}, {"inbound_nodes": [[["conv2d_202", 0, 0, {}]]], "class_name": "BatchNormalization", "name": "batch_normalization_202", "config": {"epsilon": 0.001, "trainable": true, "gamma_regularizer": null, "beta_initializer": {"class_name": "Zeros", "config": {}}, "center": true, "moving_variance_initializer": {"class_name": "Ones", "config": {}}, "moving_mean_initializer": {"class_name": "Zeros", "config": {}}, "gamma_initializer": {"class_name": "Ones", "config": {}}, "scale": false, "beta_regularizer": null, "beta_constraint": null, "axis": 3, "momentum": 0.99, "gamma_constraint": null, "name": "batch_normalization_202"}}, {"inbound_nodes": [[["batch_normalization_202", 0, 0, {}]]], "class_name": "Activation", "name": "activation_202", "config": {"trainable": true, "activation": "relu", "name": "activation_202"}}, {"inbound_nodes": [[["block8_9_ac", 0, 0, {}]]], "class_name": "Conv2D", "name": "conv2d_200", "config": {"kernel_initializer": {"class_name": "VarianceScaling", "config": {"scale": 1.0, "mode": "fan_avg", "seed": null, "distribution": "uniform"}}, "trainable": true, "activation": "linear", "kernel_constraint": null, "kernel_size": [1, 1], "data_format": "channels_last", "strides": [1, 1], "padding": "same", "dilation_rate": [1, 1], "bias_initializer": {"class_name": "Zeros", "config": {}}, "activity_regularizer": null, "kernel_regularizer": null, "filters": 192, "use_bias": false, "bias_constraint": null, "name": "conv2d_200", "bias_regularizer": null}}, {"inbound_nodes": [[["activation_202", 0, 0, {}]]], "class_name": "Conv2D", "name": "conv2d_203", "config": {"kernel_initializer": {"class_name": "VarianceScaling", "config": {"scale": 1.0, "mode": "fan_avg", "seed": null, "distribution": "uniform"}}, "trainable": true, "activation": "linear", "kernel_constraint": null, "kernel_size": [3, 1], "data_format": "channels_last", "strides": [1, 1], "padding": "same", "dilation_rate": [1, 1], "bias_initializer": {"class_name": "Zeros", "config": {}}, "activity_regularizer": null, "kernel_regularizer": null, "filters": 256, "use_bias": false, "bias_constraint": null, "name": "conv2d_203", "bias_regularizer": null}}, {"inbound_nodes": [[["conv2d_200", 0, 0, {}]]], "class_name": "BatchNormalization", "name": "batch_normalization_200", "config": {"epsilon": 0.001, "trainable": true, "gamma_regularizer": null, "beta_initializer": {"class_name": "Zeros", "config": {}}, "center": true, "moving_variance_initializer": {"class_name": "Ones", "config": {}}, "moving_mean_initializer": {"class_name": "Zeros", "config": {}}, "gamma_initializer": {"class_name": "Ones", "config": {}}, "scale": false, "beta_regularizer": null, "beta_constraint": null, "axis": 3, "momentum": 0.99, "gamma_constraint": null, "name": "batch_normalization_200"}}, {"inbound_nodes": [[["conv2d_203", 0, 0, {}]]], "class_name": "BatchNormalization", "name": "batch_normalization_203", "config": {"epsilon": 0.001, "trainable": true, "gamma_regularizer": null, "beta_initializer": {"class_name": "Zeros", "config": {}}, "center": true, "moving_variance_initializer": {"class_name": "Ones", "config": {}}, "moving_mean_initializer": {"class_name": "Zeros", "config": {}}, "gamma_initializer": {"class_name": "Ones", "config": {}}, "scale": false, "beta_regularizer": null, "beta_constraint": null, "axis": 3, "momentum": 0.99, "gamma_constraint": null, "name": "batch_normalization_203"}}, {"inbound_nodes": [[["batch_normalization_200", 0, 0, {}]]], "class_name": "Activation", "name": "activation_200", "config": {"trainable": true, "activation": "relu", "name": "activation_200"}}, {"inbound_nodes": [[["batch_normalization_203", 0, 0, {}]]], "class_name": "Activation", "name": "activation_203", "config": {"trainable": true, "activation": "relu", "name": "activation_203"}}, {"inbound_nodes": [[["activation_200", 0, 0, {}], ["activation_203", 0, 0, {}]]], "class_name": "Concatenate", "name": "block8_10_mixed", "config": {"axis": 3, "trainable": true, "name": "block8_10_mixed"}}, {"inbound_nodes": [[["block8_10_mixed", 0, 0, {}]]], "class_name": "Conv2D", "name": "block8_10_conv", "config": {"kernel_initializer": {"class_name": "VarianceScaling", "config": {"scale": 1.0, "mode": "fan_avg", "seed": null, "distribution": "uniform"}}, "trainable": true, "activation": "linear", "kernel_constraint": null, "kernel_size": [1, 1], "data_format": "channels_last", "strides": [1, 1], "padding": "same", "dilation_rate": [1, 1], "bias_initializer": {"class_name": "Zeros", "config": {}}, "activity_regularizer": null, "kernel_regularizer": null, "filters": 2080, "use_bias": true, "bias_constraint": null, "name": "block8_10_conv", "bias_regularizer": null}}, {"inbound_nodes": [[["block8_9_ac", 0, 0, {}], ["block8_10_conv", 0, 0, {}]]], "class_name": "Lambda", "name": "block8_10", "config": {"output_shape_type": "raw", "trainable": true, "arguments": {"scale": 1.0}, "function_type": "lambda", "function": ["4wIAAAAAAAAAAgAAAAMAAABTAAAAcxQAAAB8AABkAQAZfAAAZAIAGXwBABQXUykDTukAAAAA6QEA\nAACpACkC2gZpbnB1dHPaBXNjYWxlcgMAAAByAwAAAPpvQzpcVXNlcnNcSm9lXEFwcERhdGFcTG9j\nYWxcUHJvZ3JhbXNcUHl0aG9uXFB5dGhvbjM1XGxpYlxzaXRlLXBhY2thZ2VzXGtlcmFzXGFwcGxp\nY2F0aW9uc1xpbmNlcHRpb25fcmVzbmV0X3YyLnB52gg8bGFtYmRhPqgAAADzAAAAAA==\n", null, null], "name": "block8_10", "output_shape": [8, 8, 2080]}}, {"inbound_nodes": [[["block8_10", 0, 0, {}]]], "class_name": "Conv2D", "name": "conv_7b", "config": {"kernel_initializer": {"class_name": "VarianceScaling", "config": {"scale": 1.0, "mode": "fan_avg", "seed": null, "distribution": "uniform"}}, "trainable": true, "activation": "linear", "kernel_constraint": null, "kernel_size": [1, 1], "data_format": "channels_last", "strides": [1, 1], "padding": "same", "dilation_rate": [1, 1], "bias_initializer": {"class_name": "Zeros", "config": {}}, "activity_regularizer": null, "kernel_regularizer": null, "filters": 1536, "use_bias": false, "bias_constraint": null, "name": "conv_7b", "bias_regularizer": null}}, {"inbound_nodes": [[["conv_7b", 0, 0, {}]]], "class_name": "BatchNormalization", "name": "conv_7b_bn", "config": {"epsilon": 0.001, "trainable": true, "gamma_regularizer": null, "beta_initializer": {"class_name": "Zeros", "config": {}}, "center": true, "moving_variance_initializer": {"class_name": "Ones", "config": {}}, "moving_mean_initializer": {"class_name": "Zeros", "config": {}}, "gamma_initializer": {"class_name": "Ones", "config": {}}, "scale": false, "beta_regularizer": null, "beta_constraint": null, "axis": 3, "momentum": 0.99, "gamma_constraint": null, "name": "conv_7b_bn"}}, {"inbound_nodes": [[["conv_7b_bn", 0, 0, {}]]], "class_name": "Activation", "name": "conv_7b_ac", "config": {"trainable": true, "activation": "relu", "name": "conv_7b_ac"}}, {"inbound_nodes": [[["conv_7b_ac", 0, 0, {}]]], "class_name": "GlobalMaxPooling2D", "name": "global_max_pooling2d_1", "config": {"trainable": true, "data_format": "channels_last", "name": "global_max_pooling2d_1"}}, {"inbound_nodes": [[["global_max_pooling2d_1", 0, 0, {}]]], "class_name": "Dense", "name": "dense_1", "config": {"trainable": true, "activation": "softmax", "units": 128, "kernel_initializer": {"class_name": "VarianceScaling", "config": {"scale": 1.0, "mode": "fan_avg", "seed": null, "distribution": "uniform"}}, "kernel_constraint": null, "bias_initializer": {"class_name": "Zeros", "config": {}}, "activity_regularizer": null, "kernel_regularizer": null, "use_bias": true, "bias_constraint": null, "name": "dense_1", "bias_regularizer": null}}], "name": "model_1"}}