{"config": {"layers": [{"config": {"sparse": false, "dtype": "float32", "name": "input_1", "batch_input_shape": [null, 299, 299, 3]}, "class_name": "InputLayer", "name": "input_1", "inbound_nodes": []}, {"config": {"padding": "valid", "activation": "linear", "name": "conv2d_1", "bias_initializer": {"config": {}, "class_name": "Zeros"}, "dilation_rate": [1, 1], "strides": [2, 2], "data_format": "channels_last", "activity_regularizer": null, "filters": 32, "kernel_regularizer": null, "kernel_initializer": {"config": {"scale": 1.0, "seed": null, "mode": "fan_avg", "distribution": "uniform"}, "class_name": "VarianceScaling"}, "bias_regularizer": null, "use_bias": false, "kernel_constraint": null, "bias_constraint": null, "trainable": false, "kernel_size": [3, 3]}, "class_name": "Conv2D", "name": "conv2d_1", "inbound_nodes": [[["input_1", 0, 0, {}]]]}, {"config": {"center": true, "gamma_initializer": {"config": {}, "class_name": "Ones"}, "epsilon": 0.001, "axis": 3, "name": "batch_normalization_1", "beta_regularizer": null, "gamma_regularizer": null, "moving_variance_initializer": {"config": {}, "class_name": "Ones"}, "beta_initializer": {"config": {}, "class_name": "Zeros"}, "scale": false, "gamma_constraint": null, "moving_mean_initializer": {"config": {}, "class_name": "Zeros"}, "trainable": false, "beta_constraint": null, "momentum": 0.99}, "class_name": "BatchNormalization", "name": "batch_normalization_1", "inbound_nodes": [[["conv2d_1", 0, 0, {}]]]}, {"config": {"trainable": false, "activation": "relu", "name": "activation_1"}, "class_name": "Activation", "name": "activation_1", "inbound_nodes": [[["batch_normalization_1", 0, 0, {}]]]}, {"config": {"padding": "valid", "activation": "linear", "name": "conv2d_2", "bias_initializer": {"config": {}, "class_name": "Zeros"}, "dilation_rate": [1, 1], "strides": [1, 1], "data_format": "channels_last", "activity_regularizer": null, "filters": 32, "kernel_regularizer": null, "kernel_initializer": {"config": {"scale": 1.0, "seed": null, "mode": "fan_avg", "distribution": "uniform"}, "class_name": "VarianceScaling"}, "bias_regularizer": null, "use_bias": false, "kernel_constraint": null, "bias_constraint": null, "trainable": false, "kernel_size": [3, 3]}, "class_name": "Conv2D", "name": "conv2d_2", "inbound_nodes": [[["activation_1", 0, 0, {}]]]}, {"config": {"center": true, "gamma_initializer": {"config": {}, "class_name": "Ones"}, "epsilon": 0.001, "axis": 3, "name": "batch_normalization_2", "beta_regularizer": null, "gamma_regularizer": null, "moving_variance_initializer": {"config": {}, "class_name": "Ones"}, "beta_initializer": {"config": {}, "class_name": "Zeros"}, "scale": false, "gamma_constraint": null, "moving_mean_initializer": {"config": {}, "class_name": "Zeros"}, "trainable": false, "beta_constraint": null, "momentum": 0.99}, "class_name": "BatchNormalization", "name": "batch_normalization_2", "inbound_nodes": [[["conv2d_2", 0, 0, {}]]]}, {"config": {"trainable": false, "activation": "relu", "name": "activation_2"}, "class_name": "Activation", "name": "activation_2", "inbound_nodes": [[["batch_normalization_2", 0, 0, {}]]]}, {"config": {"padding": "same", "activation": "linear", "name": "conv2d_3", "bias_initializer": {"config": {}, "class_name": "Zeros"}, "dilation_rate": [1, 1], "strides": [1, 1], "data_format": "channels_last", "activity_regularizer": null, "filters": 64, "kernel_regularizer": null, "kernel_initializer": {"config": {"scale": 1.0, "seed": null, "mode": "fan_avg", "distribution": "uniform"}, "class_name": "VarianceScaling"}, "bias_regularizer": null, "use_bias": false, "kernel_constraint": null, "bias_constraint": null, "trainable": false, "kernel_size": [3, 3]}, "class_name": "Conv2D", "name": "conv2d_3", "inbound_nodes": [[["activation_2", 0, 0, {}]]]}, {"config": {"center": true, "gamma_initializer": {"config": {}, "class_name": "Ones"}, "epsilon": 0.001, "axis": 3, "name": "batch_normalization_3", "beta_regularizer": null, "gamma_regularizer": null, "moving_variance_initializer": {"config": {}, "class_name": "Ones"}, "beta_initializer": {"config": {}, "class_name": "Zeros"}, "scale": false, "gamma_constraint": null, "moving_mean_initializer": {"config": {}, "class_name": "Zeros"}, "trainable": false, "beta_constraint": null, "momentum": 0.99}, "class_name": "BatchNormalization", "name": "batch_normalization_3", "inbound_nodes": [[["conv2d_3", 0, 0, {}]]]}, {"config": {"trainable": false, "activation": "relu", "name": "activation_3"}, "class_name": "Activation", "name": "activation_3", "inbound_nodes": [[["batch_normalization_3", 0, 0, {}]]]}, {"config": {"padding": "valid", "pool_size": [3, 3], "name": "max_pooling2d_1", "trainable": false, "data_format": "channels_last", "strides": [2, 2]}, "class_name": "MaxPooling2D", "name": "max_pooling2d_1", "inbound_nodes": [[["activation_3", 0, 0, {}]]]}, {"config": {"padding": "valid", "activation": "linear", "name": "conv2d_4", "bias_initializer": {"config": {}, "class_name": "Zeros"}, "dilation_rate": [1, 1], "strides": [1, 1], "data_format": "channels_last", "activity_regularizer": null, "filters": 80, "kernel_regularizer": null, "kernel_initializer": {"config": {"scale": 1.0, "seed": null, "mode": "fan_avg", "distribution": "uniform"}, "class_name": "VarianceScaling"}, "bias_regularizer": null, "use_bias": false, "kernel_constraint": null, "bias_constraint": null, "trainable": false, "kernel_size": [1, 1]}, "class_name": "Conv2D", "name": "conv2d_4", "inbound_nodes": [[["max_pooling2d_1", 0, 0, {}]]]}, {"config": {"center": true, "gamma_initializer": {"config": {}, "class_name": "Ones"}, "epsilon": 0.001, "axis": 3, "name": "batch_normalization_4", "beta_regularizer": null, "gamma_regularizer": null, "moving_variance_initializer": {"config": {}, "class_name": "Ones"}, "beta_initializer": {"config": {}, "class_name": "Zeros"}, "scale": false, "gamma_constraint": null, "moving_mean_initializer": {"config": {}, "class_name": "Zeros"}, "trainable": false, "beta_constraint": null, "momentum": 0.99}, "class_name": "BatchNormalization", "name": "batch_normalization_4", "inbound_nodes": [[["conv2d_4", 0, 0, {}]]]}, {"config": {"trainable": false, "activation": "relu", "name": "activation_4"}, "class_name": "Activation", "name": "activation_4", "inbound_nodes": [[["batch_normalization_4", 0, 0, {}]]]}, {"config": {"padding": "valid", "activation": "linear", "name": "conv2d_5", "bias_initializer": {"config": {}, "class_name": "Zeros"}, "dilation_rate": [1, 1], "strides": [1, 1], "data_format": "channels_last", "activity_regularizer": null, "filters": 192, "kernel_regularizer": null, "kernel_initializer": {"config": {"scale": 1.0, "seed": null, "mode": "fan_avg", "distribution": "uniform"}, "class_name": "VarianceScaling"}, "bias_regularizer": null, "use_bias": false, "kernel_constraint": null, "bias_constraint": null, "trainable": false, "kernel_size": [3, 3]}, "class_name": "Conv2D", "name": "conv2d_5", "inbound_nodes": [[["activation_4", 0, 0, {}]]]}, {"config": {"center": true, "gamma_initializer": {"config": {}, "class_name": "Ones"}, "epsilon": 0.001, "axis": 3, "name": "batch_normalization_5", "beta_regularizer": null, "gamma_regularizer": null, "moving_variance_initializer": {"config": {}, "class_name": "Ones"}, "beta_initializer": {"config": {}, "class_name": "Zeros"}, "scale": false, "gamma_constraint": null, "moving_mean_initializer": {"config": {}, "class_name": "Zeros"}, "trainable": false, "beta_constraint": null, "momentum": 0.99}, "class_name": "BatchNormalization", "name": "batch_normalization_5", "inbound_nodes": [[["conv2d_5", 0, 0, {}]]]}, {"config": {"trainable": false, "activation": "relu", "name": "activation_5"}, "class_name": "Activation", "name": "activation_5", "inbound_nodes": [[["batch_normalization_5", 0, 0, {}]]]}, {"config": {"padding": "valid", "pool_size": [3, 3], "name": "max_pooling2d_2", "trainable": false, "data_format": "channels_last", "strides": [2, 2]}, "class_name": "MaxPooling2D", "name": "max_pooling2d_2", "inbound_nodes": [[["activation_5", 0, 0, {}]]]}, {"config": {"padding": "same", "activation": "linear", "name": "conv2d_9", "bias_initializer": {"config": {}, "class_name": "Zeros"}, "dilation_rate": [1, 1], "strides": [1, 1], "data_format": "channels_last", "activity_regularizer": null, "filters": 64, "kernel_regularizer": null, "kernel_initializer": {"config": {"scale": 1.0, "seed": null, "mode": "fan_avg", "distribution": "uniform"}, "class_name": "VarianceScaling"}, "bias_regularizer": null, "use_bias": false, "kernel_constraint": null, "bias_constraint": null, "trainable": false, "kernel_size": [1, 1]}, "class_name": "Conv2D", "name": "conv2d_9", "inbound_nodes": [[["max_pooling2d_2", 0, 0, {}]]]}, {"config": {"center": true, "gamma_initializer": {"config": {}, "class_name": "Ones"}, "epsilon": 0.001, "axis": 3, "name": "batch_normalization_9", "beta_regularizer": null, "gamma_regularizer": null, "moving_variance_initializer": {"config": {}, "class_name": "Ones"}, "beta_initializer": {"config": {}, "class_name": "Zeros"}, "scale": false, "gamma_constraint": null, "moving_mean_initializer": {"config": {}, "class_name": "Zeros"}, "trainable": false, "beta_constraint": null, "momentum": 0.99}, "class_name": "BatchNormalization", "name": "batch_normalization_9", "inbound_nodes": [[["conv2d_9", 0, 0, {}]]]}, {"config": {"trainable": false, "activation": "relu", "name": "activation_9"}, "class_name": "Activation", "name": "activation_9", "inbound_nodes": [[["batch_normalization_9", 0, 0, {}]]]}, {"config": {"padding": "same", "activation": "linear", "name": "conv2d_7", "bias_initializer": {"config": {}, "class_name": "Zeros"}, "dilation_rate": [1, 1], "strides": [1, 1], "data_format": "channels_last", "activity_regularizer": null, "filters": 48, "kernel_regularizer": null, "kernel_initializer": {"config": {"scale": 1.0, "seed": null, "mode": "fan_avg", "distribution": "uniform"}, "class_name": "VarianceScaling"}, "bias_regularizer": null, "use_bias": false, "kernel_constraint": null, "bias_constraint": null, "trainable": false, "kernel_size": [1, 1]}, "class_name": "Conv2D", "name": "conv2d_7", "inbound_nodes": [[["max_pooling2d_2", 0, 0, {}]]]}, {"config": {"padding": "same", "activation": "linear", "name": "conv2d_10", "bias_initializer": {"config": {}, "class_name": "Zeros"}, "dilation_rate": [1, 1], "strides": [1, 1], "data_format": "channels_last", "activity_regularizer": null, "filters": 96, "kernel_regularizer": null, "kernel_initializer": {"config": {"scale": 1.0, "seed": null, "mode": "fan_avg", "distribution": "uniform"}, "class_name": "VarianceScaling"}, "bias_regularizer": null, "use_bias": false, "kernel_constraint": null, "bias_constraint": null, "trainable": false, "kernel_size": [3, 3]}, "class_name": "Conv2D", "name": "conv2d_10", "inbound_nodes": [[["activation_9", 0, 0, {}]]]}, {"config": {"center": true, "gamma_initializer": {"config": {}, "class_name": "Ones"}, "epsilon": 0.001, "axis": 3, "name": "batch_normalization_7", "beta_regularizer": null, "gamma_regularizer": null, "moving_variance_initializer": {"config": {}, "class_name": "Ones"}, "beta_initializer": {"config": {}, "class_name": "Zeros"}, "scale": false, "gamma_constraint": null, "moving_mean_initializer": {"config": {}, "class_name": "Zeros"}, "trainable": false, "beta_constraint": null, "momentum": 0.99}, "class_name": "BatchNormalization", "name": "batch_normalization_7", "inbound_nodes": [[["conv2d_7", 0, 0, {}]]]}, {"config": {"center": true, "gamma_initializer": {"config": {}, "class_name": "Ones"}, "epsilon": 0.001, "axis": 3, "name": "batch_normalization_10", "beta_regularizer": null, "gamma_regularizer": null, "moving_variance_initializer": {"config": {}, "class_name": "Ones"}, "beta_initializer": {"config": {}, "class_name": "Zeros"}, "scale": false, "gamma_constraint": null, "moving_mean_initializer": {"config": {}, "class_name": "Zeros"}, "trainable": false, "beta_constraint": null, "momentum": 0.99}, "class_name": "BatchNormalization", "name": "batch_normalization_10", "inbound_nodes": [[["conv2d_10", 0, 0, {}]]]}, {"config": {"trainable": false, "activation": "relu", "name": "activation_7"}, "class_name": "Activation", "name": "activation_7", "inbound_nodes": [[["batch_normalization_7", 0, 0, {}]]]}, {"config": {"trainable": false, "activation": "relu", "name": "activation_10"}, "class_name": "Activation", "name": "activation_10", "inbound_nodes": [[["batch_normalization_10", 0, 0, {}]]]}, {"config": {"padding": "same", "pool_size": [3, 3], "name": "average_pooling2d_1", "trainable": false, "data_format": "channels_last", "strides": [1, 1]}, "class_name": "AveragePooling2D", "name": "average_pooling2d_1", "inbound_nodes": [[["max_pooling2d_2", 0, 0, {}]]]}, {"config": {"padding": "same", "activation": "linear", "name": "conv2d_6", "bias_initializer": {"config": {}, "class_name": "Zeros"}, "dilation_rate": [1, 1], "strides": [1, 1], "data_format": "channels_last", "activity_regularizer": null, "filters": 96, "kernel_regularizer": null, "kernel_initializer": {"config": {"scale": 1.0, "seed": null, "mode": "fan_avg", "distribution": "uniform"}, "class_name": "VarianceScaling"}, "bias_regularizer": null, "use_bias": false, "kernel_constraint": null, "bias_constraint": null, "trainable": false, "kernel_size": [1, 1]}, "class_name": "Conv2D", "name": "conv2d_6", "inbound_nodes": [[["max_pooling2d_2", 0, 0, {}]]]}, {"config": {"padding": "same", "activation": "linear", "name": "conv2d_8", "bias_initializer": {"config": {}, "class_name": "Zeros"}, "dilation_rate": [1, 1], "strides": [1, 1], "data_format": "channels_last", "activity_regularizer": null, "filters": 64, "kernel_regularizer": null, "kernel_initializer": {"config": {"scale": 1.0, "seed": null, "mode": "fan_avg", "distribution": "uniform"}, "class_name": "VarianceScaling"}, "bias_regularizer": null, "use_bias": false, "kernel_constraint": null, "bias_constraint": null, "trainable": false, "kernel_size": [5, 5]}, "class_name": "Conv2D", "name": "conv2d_8", "inbound_nodes": [[["activation_7", 0, 0, {}]]]}, {"config": {"padding": "same", "activation": "linear", "name": "conv2d_11", "bias_initializer": {"config": {}, "class_name": "Zeros"}, "dilation_rate": [1, 1], "strides": [1, 1], "data_format": "channels_last", "activity_regularizer": null, "filters": 96, "kernel_regularizer": null, "kernel_initializer": {"config": {"scale": 1.0, "seed": null, "mode": "fan_avg", "distribution": "uniform"}, "class_name": "VarianceScaling"}, "bias_regularizer": null, "use_bias": false, "kernel_constraint": null, "bias_constraint": null, "trainable": false, "kernel_size": [3, 3]}, "class_name": "Conv2D", "name": "conv2d_11", "inbound_nodes": [[["activation_10", 0, 0, {}]]]}, {"config": {"padding": "same", "activation": "linear", "name": "conv2d_12", "bias_initializer": {"config": {}, "class_name": "Zeros"}, "dilation_rate": [1, 1], "strides": [1, 1], "data_format": "channels_last", "activity_regularizer": null, "filters": 64, "kernel_regularizer": null, "kernel_initializer": {"config": {"scale": 1.0, "seed": null, "mode": "fan_avg", "distribution": "uniform"}, "class_name": "VarianceScaling"}, "bias_regularizer": null, "use_bias": false, "kernel_constraint": null, "bias_constraint": null, "trainable": false, "kernel_size": [1, 1]}, "class_name": "Conv2D", "name": "conv2d_12", "inbound_nodes": [[["average_pooling2d_1", 0, 0, {}]]]}, {"config": {"center": true, "gamma_initializer": {"config": {}, "class_name": "Ones"}, "epsilon": 0.001, "axis": 3, "name": "batch_normalization_6", "beta_regularizer": null, "gamma_regularizer": null, "moving_variance_initializer": {"config": {}, "class_name": "Ones"}, "beta_initializer": {"config": {}, "class_name": "Zeros"}, "scale": false, "gamma_constraint": null, "moving_mean_initializer": {"config": {}, "class_name": "Zeros"}, "trainable": false, "beta_constraint": null, "momentum": 0.99}, "class_name": "BatchNormalization", "name": "batch_normalization_6", "inbound_nodes": [[["conv2d_6", 0, 0, {}]]]}, {"config": {"center": true, "gamma_initializer": {"config": {}, "class_name": "Ones"}, "epsilon": 0.001, "axis": 3, "name": "batch_normalization_8", "beta_regularizer": null, "gamma_regularizer": null, "moving_variance_initializer": {"config": {}, "class_name": "Ones"}, "beta_initializer": {"config": {}, "class_name": "Zeros"}, "scale": false, "gamma_constraint": null, "moving_mean_initializer": {"config": {}, "class_name": "Zeros"}, "trainable": false, "beta_constraint": null, "momentum": 0.99}, "class_name": "BatchNormalization", "name": "batch_normalization_8", "inbound_nodes": [[["conv2d_8", 0, 0, {}]]]}, {"config": {"center": true, "gamma_initializer": {"config": {}, "class_name": "Ones"}, "epsilon": 0.001, "axis": 3, "name": "batch_normalization_11", "beta_regularizer": null, "gamma_regularizer": null, "moving_variance_initializer": {"config": {}, "class_name": "Ones"}, "beta_initializer": {"config": {}, "class_name": "Zeros"}, "scale": false, "gamma_constraint": null, "moving_mean_initializer": {"config": {}, "class_name": "Zeros"}, "trainable": false, "beta_constraint": null, "momentum": 0.99}, "class_name": "BatchNormalization", "name": "batch_normalization_11", "inbound_nodes": [[["conv2d_11", 0, 0, {}]]]}, {"config": {"center": true, "gamma_initializer": {"config": {}, "class_name": "Ones"}, "epsilon": 0.001, "axis": 3, "name": "batch_normalization_12", "beta_regularizer": null, "gamma_regularizer": null, "moving_variance_initializer": {"config": {}, "class_name": "Ones"}, "beta_initializer": {"config": {}, "class_name": "Zeros"}, "scale": false, "gamma_constraint": null, "moving_mean_initializer": {"config": {}, "class_name": "Zeros"}, "trainable": false, "beta_constraint": null, "momentum": 0.99}, "class_name": "BatchNormalization", "name": "batch_normalization_12", "inbound_nodes": [[["conv2d_12", 0, 0, {}]]]}, {"config": {"trainable": false, "activation": "relu", "name": "activation_6"}, "class_name": "Activation", "name": "activation_6", "inbound_nodes": [[["batch_normalization_6", 0, 0, {}]]]}, {"config": {"trainable": false, "activation": "relu", "name": "activation_8"}, "class_name": "Activation", "name": "activation_8", "inbound_nodes": [[["batch_normalization_8", 0, 0, {}]]]}, {"config": {"trainable": false, "activation": "relu", "name": "activation_11"}, "class_name": "Activation", "name": "activation_11", "inbound_nodes": [[["batch_normalization_11", 0, 0, {}]]]}, {"config": {"trainable": false, "activation": "relu", "name": "activation_12"}, "class_name": "Activation", "name": "activation_12", "inbound_nodes": [[["batch_normalization_12", 0, 0, {}]]]}, {"config": {"trainable": false, "axis": 3, "name": "mixed_5b"}, "class_name": "Concatenate", "name": "mixed_5b", "inbound_nodes": [[["activation_6", 0, 0, {}], ["activation_8", 0, 0, {}], ["activation_11", 0, 0, {}], ["activation_12", 0, 0, {}]]]}, {"config": {"padding": "same", "activation": "linear", "name": "conv2d_16", "bias_initializer": {"config": {}, "class_name": "Zeros"}, "dilation_rate": [1, 1], "strides": [1, 1], "data_format": "channels_last", "activity_regularizer": null, "filters": 32, "kernel_regularizer": null, "kernel_initializer": {"config": {"scale": 1.0, "seed": null, "mode": "fan_avg", "distribution": "uniform"}, "class_name": "VarianceScaling"}, "bias_regularizer": null, "use_bias": false, "kernel_constraint": null, "bias_constraint": null, "trainable": false, "kernel_size": [1, 1]}, "class_name": "Conv2D", "name": "conv2d_16", "inbound_nodes": [[["mixed_5b", 0, 0, {}]]]}, {"config": {"center": true, "gamma_initializer": {"config": {}, "class_name": "Ones"}, "epsilon": 0.001, "axis": 3, "name": "batch_normalization_16", "beta_regularizer": null, "gamma_regularizer": null, "moving_variance_initializer": {"config": {}, "class_name": "Ones"}, "beta_initializer": {"config": {}, "class_name": "Zeros"}, "scale": false, "gamma_constraint": null, "moving_mean_initializer": {"config": {}, "class_name": "Zeros"}, "trainable": false, "beta_constraint": null, "momentum": 0.99}, "class_name": "BatchNormalization", "name": "batch_normalization_16", "inbound_nodes": [[["conv2d_16", 0, 0, {}]]]}, {"config": {"trainable": false, "activation": "relu", "name": "activation_16"}, "class_name": "Activation", "name": "activation_16", "inbound_nodes": [[["batch_normalization_16", 0, 0, {}]]]}, {"config": {"padding": "same", "activation": "linear", "name": "conv2d_14", "bias_initializer": {"config": {}, "class_name": "Zeros"}, "dilation_rate": [1, 1], "strides": [1, 1], "data_format": "channels_last", "activity_regularizer": null, "filters": 32, "kernel_regularizer": null, "kernel_initializer": {"config": {"scale": 1.0, "seed": null, "mode": "fan_avg", "distribution": "uniform"}, "class_name": "VarianceScaling"}, "bias_regularizer": null, "use_bias": false, "kernel_constraint": null, "bias_constraint": null, "trainable": false, "kernel_size": [1, 1]}, "class_name": "Conv2D", "name": "conv2d_14", "inbound_nodes": [[["mixed_5b", 0, 0, {}]]]}, {"config": {"padding": "same", "activation": "linear", "name": "conv2d_17", "bias_initializer": {"config": {}, "class_name": "Zeros"}, "dilation_rate": [1, 1], "strides": [1, 1], "data_format": "channels_last", "activity_regularizer": null, "filters": 48, "kernel_regularizer": null, "kernel_initializer": {"config": {"scale": 1.0, "seed": null, "mode": "fan_avg", "distribution": "uniform"}, "class_name": "VarianceScaling"}, "bias_regularizer": null, "use_bias": false, "kernel_constraint": null, "bias_constraint": null, "trainable": false, "kernel_size": [3, 3]}, "class_name": "Conv2D", "name": "conv2d_17", "inbound_nodes": [[["activation_16", 0, 0, {}]]]}, {"config": {"center": true, "gamma_initializer": {"config": {}, "class_name": "Ones"}, "epsilon": 0.001, "axis": 3, "name": "batch_normalization_14", "beta_regularizer": null, "gamma_regularizer": null, "moving_variance_initializer": {"config": {}, "class_name": "Ones"}, "beta_initializer": {"config": {}, "class_name": "Zeros"}, "scale": false, "gamma_constraint": null, "moving_mean_initializer": {"config": {}, "class_name": "Zeros"}, "trainable": false, "beta_constraint": null, "momentum": 0.99}, "class_name": "BatchNormalization", "name": "batch_normalization_14", "inbound_nodes": [[["conv2d_14", 0, 0, {}]]]}, {"config": {"center": true, "gamma_initializer": {"config": {}, "class_name": "Ones"}, "epsilon": 0.001, "axis": 3, "name": "batch_normalization_17", "beta_regularizer": null, "gamma_regularizer": null, "moving_variance_initializer": {"config": {}, "class_name": "Ones"}, "beta_initializer": {"config": {}, "class_name": "Zeros"}, "scale": false, "gamma_constraint": null, "moving_mean_initializer": {"config": {}, "class_name": "Zeros"}, "trainable": false, "beta_constraint": null, "momentum": 0.99}, "class_name": "BatchNormalization", "name": "batch_normalization_17", "inbound_nodes": [[["conv2d_17", 0, 0, {}]]]}, {"config": {"trainable": false, "activation": "relu", "name": "activation_14"}, "class_name": "Activation", "name": "activation_14", "inbound_nodes": [[["batch_normalization_14", 0, 0, {}]]]}, {"config": {"trainable": false, "activation": "relu", "name": "activation_17"}, "class_name": "Activation", "name": "activation_17", "inbound_nodes": [[["batch_normalization_17", 0, 0, {}]]]}, {"config": {"padding": "same", "activation": "linear", "name": "conv2d_13", "bias_initializer": {"config": {}, "class_name": "Zeros"}, "dilation_rate": [1, 1], "strides": [1, 1], "data_format": "channels_last", "activity_regularizer": null, "filters": 32, "kernel_regularizer": null, "kernel_initializer": {"config": {"scale": 1.0, "seed": null, "mode": "fan_avg", "distribution": "uniform"}, "class_name": "VarianceScaling"}, "bias_regularizer": null, "use_bias": false, "kernel_constraint": null, "bias_constraint": null, "trainable": false, "kernel_size": [1, 1]}, "class_name": "Conv2D", "name": "conv2d_13", "inbound_nodes": [[["mixed_5b", 0, 0, {}]]]}, {"config": {"padding": "same", "activation": "linear", "name": "conv2d_15", "bias_initializer": {"config": {}, "class_name": "Zeros"}, "dilation_rate": [1, 1], "strides": [1, 1], "data_format": "channels_last", "activity_regularizer": null, "filters": 32, "kernel_regularizer": null, "kernel_initializer": {"config": {"scale": 1.0, "seed": null, "mode": "fan_avg", "distribution": "uniform"}, "class_name": "VarianceScaling"}, "bias_regularizer": null, "use_bias": false, "kernel_constraint": null, "bias_constraint": null, "trainable": false, "kernel_size": [3, 3]}, "class_name": "Conv2D", "name": "conv2d_15", "inbound_nodes": [[["activation_14", 0, 0, {}]]]}, {"config": {"padding": "same", "activation": "linear", "name": "conv2d_18", "bias_initializer": {"config": {}, "class_name": "Zeros"}, "dilation_rate": [1, 1], "strides": [1, 1], "data_format": "channels_last", "activity_regularizer": null, "filters": 64, "kernel_regularizer": null, "kernel_initializer": {"config": {"scale": 1.0, "seed": null, "mode": "fan_avg", "distribution": "uniform"}, "class_name": "VarianceScaling"}, "bias_regularizer": null, "use_bias": false, "kernel_constraint": null, "bias_constraint": null, "trainable": false, "kernel_size": [3, 3]}, "class_name": "Conv2D", "name": "conv2d_18", "inbound_nodes": [[["activation_17", 0, 0, {}]]]}, {"config": {"center": true, "gamma_initializer": {"config": {}, "class_name": "Ones"}, "epsilon": 0.001, "axis": 3, "name": "batch_normalization_13", "beta_regularizer": null, "gamma_regularizer": null, "moving_variance_initializer": {"config": {}, "class_name": "Ones"}, "beta_initializer": {"config": {}, "class_name": "Zeros"}, "scale": false, "gamma_constraint": null, "moving_mean_initializer": {"config": {}, "class_name": "Zeros"}, "trainable": false, "beta_constraint": null, "momentum": 0.99}, "class_name": "BatchNormalization", "name": "batch_normalization_13", "inbound_nodes": [[["conv2d_13", 0, 0, {}]]]}, {"config": {"center": true, "gamma_initializer": {"config": {}, "class_name": "Ones"}, "epsilon": 0.001, "axis": 3, "name": "batch_normalization_15", "beta_regularizer": null, "gamma_regularizer": null, "moving_variance_initializer": {"config": {}, "class_name": "Ones"}, "beta_initializer": {"config": {}, "class_name": "Zeros"}, "scale": false, "gamma_constraint": null, "moving_mean_initializer": {"config": {}, "class_name": "Zeros"}, "trainable": false, "beta_constraint": null, "momentum": 0.99}, "class_name": "BatchNormalization", "name": "batch_normalization_15", "inbound_nodes": [[["conv2d_15", 0, 0, {}]]]}, {"config": {"center": true, "gamma_initializer": {"config": {}, "class_name": "Ones"}, "epsilon": 0.001, "axis": 3, "name": "batch_normalization_18", "beta_regularizer": null, "gamma_regularizer": null, "moving_variance_initializer": {"config": {}, "class_name": "Ones"}, "beta_initializer": {"config": {}, "class_name": "Zeros"}, "scale": false, "gamma_constraint": null, "moving_mean_initializer": {"config": {}, "class_name": "Zeros"}, "trainable": false, "beta_constraint": null, "momentum": 0.99}, "class_name": "BatchNormalization", "name": "batch_normalization_18", "inbound_nodes": [[["conv2d_18", 0, 0, {}]]]}, {"config": {"trainable": false, "activation": "relu", "name": "activation_13"}, "class_name": "Activation", "name": "activation_13", "inbound_nodes": [[["batch_normalization_13", 0, 0, {}]]]}, {"config": {"trainable": false, "activation": "relu", "name": "activation_15"}, "class_name": "Activation", "name": "activation_15", "inbound_nodes": [[["batch_normalization_15", 0, 0, {}]]]}, {"config": {"trainable": false, "activation": "relu", "name": "activation_18"}, "class_name": "Activation", "name": "activation_18", "inbound_nodes": [[["batch_normalization_18", 0, 0, {}]]]}, {"config": {"trainable": false, "axis": 3, "name": "block35_1_mixed"}, "class_name": "Concatenate", "name": "block35_1_mixed", "inbound_nodes": [[["activation_13", 0, 0, {}], ["activation_15", 0, 0, {}], ["activation_18", 0, 0, {}]]]}, {"config": {"padding": "same", "activation": "linear", "name": "block35_1_conv", "bias_initializer": {"config": {}, "class_name": "Zeros"}, "dilation_rate": [1, 1], "strides": [1, 1], "data_format": "channels_last", "activity_regularizer": null, "filters": 320, "kernel_regularizer": null, "kernel_initializer": {"config": {"scale": 1.0, "seed": null, "mode": "fan_avg", "distribution": "uniform"}, "class_name": "VarianceScaling"}, "bias_regularizer": null, "use_bias": true, "kernel_constraint": null, "bias_constraint": null, "trainable": false, "kernel_size": [1, 1]}, "class_name": "Conv2D", "name": "block35_1_conv", "inbound_nodes": [[["block35_1_mixed", 0, 0, {}]]]}, {"config": {"function": ["4wIAAAAAAAAAAgAAAAMAAABTAAAAcxQAAAB8AABkAQAZfAAAZAIAGXwBABQXUykDTukAAAAA6QEA\nAACpACkC2gZpbnB1dHPaBXNjYWxlcgMAAAByAwAAAPpvQzpcVXNlcnNcSm9lXEFwcERhdGFcTG9j\nYWxcUHJvZ3JhbXNcUHl0aG9uXFB5dGhvbjM1XGxpYlxzaXRlLXBhY2thZ2VzXGtlcmFzXGFwcGxp\nY2F0aW9uc1xpbmNlcHRpb25fcmVzbmV0X3YyLnB52gg8bGFtYmRhPqgAAADzAAAAAA==\n", null, null], "arguments": {"scale": 0.17}, "name": "block35_1", "trainable": false, "output_shape_type": "raw", "output_shape": [35, 35, 320], "function_type": "lambda"}, "class_name": "Lambda", "name": "block35_1", "inbound_nodes": [[["mixed_5b", 0, 0, {}], ["block35_1_conv", 0, 0, {}]]]}, {"config": {"trainable": false, "activation": "relu", "name": "block35_1_ac"}, "class_name": "Activation", "name": "block35_1_ac", "inbound_nodes": [[["block35_1", 0, 0, {}]]]}, {"config": {"padding": "same", "activation": "linear", "name": "conv2d_22", "bias_initializer": {"config": {}, "class_name": "Zeros"}, "dilation_rate": [1, 1], "strides": [1, 1], "data_format": "channels_last", "activity_regularizer": null, "filters": 32, "kernel_regularizer": null, "kernel_initializer": {"config": {"scale": 1.0, "seed": null, "mode": "fan_avg", "distribution": "uniform"}, "class_name": "VarianceScaling"}, "bias_regularizer": null, "use_bias": false, "kernel_constraint": null, "bias_constraint": null, "trainable": false, "kernel_size": [1, 1]}, "class_name": "Conv2D", "name": "conv2d_22", "inbound_nodes": [[["block35_1_ac", 0, 0, {}]]]}, {"config": {"center": true, "gamma_initializer": {"config": {}, "class_name": "Ones"}, "epsilon": 0.001, "axis": 3, "name": "batch_normalization_22", "beta_regularizer": null, "gamma_regularizer": null, "moving_variance_initializer": {"config": {}, "class_name": "Ones"}, "beta_initializer": {"config": {}, "class_name": "Zeros"}, "scale": false, "gamma_constraint": null, "moving_mean_initializer": {"config": {}, "class_name": "Zeros"}, "trainable": false, "beta_constraint": null, "momentum": 0.99}, "class_name": "BatchNormalization", "name": "batch_normalization_22", "inbound_nodes": [[["conv2d_22", 0, 0, {}]]]}, {"config": {"trainable": false, "activation": "relu", "name": "activation_22"}, "class_name": "Activation", "name": "activation_22", "inbound_nodes": [[["batch_normalization_22", 0, 0, {}]]]}, {"config": {"padding": "same", "activation": "linear", "name": "conv2d_20", "bias_initializer": {"config": {}, "class_name": "Zeros"}, "dilation_rate": [1, 1], "strides": [1, 1], "data_format": "channels_last", "activity_regularizer": null, "filters": 32, "kernel_regularizer": null, "kernel_initializer": {"config": {"scale": 1.0, "seed": null, "mode": "fan_avg", "distribution": "uniform"}, "class_name": "VarianceScaling"}, "bias_regularizer": null, "use_bias": false, "kernel_constraint": null, "bias_constraint": null, "trainable": false, "kernel_size": [1, 1]}, "class_name": "Conv2D", "name": "conv2d_20", "inbound_nodes": [[["block35_1_ac", 0, 0, {}]]]}, {"config": {"padding": "same", "activation": "linear", "name": "conv2d_23", "bias_initializer": {"config": {}, "class_name": "Zeros"}, "dilation_rate": [1, 1], "strides": [1, 1], "data_format": "channels_last", "activity_regularizer": null, "filters": 48, "kernel_regularizer": null, "kernel_initializer": {"config": {"scale": 1.0, "seed": null, "mode": "fan_avg", "distribution": "uniform"}, "class_name": "VarianceScaling"}, "bias_regularizer": null, "use_bias": false, "kernel_constraint": null, "bias_constraint": null, "trainable": false, "kernel_size": [3, 3]}, "class_name": "Conv2D", "name": "conv2d_23", "inbound_nodes": [[["activation_22", 0, 0, {}]]]}, {"config": {"center": true, "gamma_initializer": {"config": {}, "class_name": "Ones"}, "epsilon": 0.001, "axis": 3, "name": "batch_normalization_20", "beta_regularizer": null, "gamma_regularizer": null, "moving_variance_initializer": {"config": {}, "class_name": "Ones"}, "beta_initializer": {"config": {}, "class_name": "Zeros"}, "scale": false, "gamma_constraint": null, "moving_mean_initializer": {"config": {}, "class_name": "Zeros"}, "trainable": false, "beta_constraint": null, "momentum": 0.99}, "class_name": "BatchNormalization", "name": "batch_normalization_20", "inbound_nodes": [[["conv2d_20", 0, 0, {}]]]}, {"config": {"center": true, "gamma_initializer": {"config": {}, "class_name": "Ones"}, "epsilon": 0.001, "axis": 3, "name": "batch_normalization_23", "beta_regularizer": null, "gamma_regularizer": null, "moving_variance_initializer": {"config": {}, "class_name": "Ones"}, "beta_initializer": {"config": {}, "class_name": "Zeros"}, "scale": false, "gamma_constraint": null, "moving_mean_initializer": {"config": {}, "class_name": "Zeros"}, "trainable": false, "beta_constraint": null, "momentum": 0.99}, "class_name": "BatchNormalization", "name": "batch_normalization_23", "inbound_nodes": [[["conv2d_23", 0, 0, {}]]]}, {"config": {"trainable": false, "activation": "relu", "name": "activation_20"}, "class_name": "Activation", "name": "activation_20", "inbound_nodes": [[["batch_normalization_20", 0, 0, {}]]]}, {"config": {"trainable": false, "activation": "relu", "name": "activation_23"}, "class_name": "Activation", "name": "activation_23", "inbound_nodes": [[["batch_normalization_23", 0, 0, {}]]]}, {"config": {"padding": "same", "activation": "linear", "name": "conv2d_19", "bias_initializer": {"config": {}, "class_name": "Zeros"}, "dilation_rate": [1, 1], "strides": [1, 1], "data_format": "channels_last", "activity_regularizer": null, "filters": 32, "kernel_regularizer": null, "kernel_initializer": {"config": {"scale": 1.0, "seed": null, "mode": "fan_avg", "distribution": "uniform"}, "class_name": "VarianceScaling"}, "bias_regularizer": null, "use_bias": false, "kernel_constraint": null, "bias_constraint": null, "trainable": false, "kernel_size": [1, 1]}, "class_name": "Conv2D", "name": "conv2d_19", "inbound_nodes": [[["block35_1_ac", 0, 0, {}]]]}, {"config": {"padding": "same", "activation": "linear", "name": "conv2d_21", "bias_initializer": {"config": {}, "class_name": "Zeros"}, "dilation_rate": [1, 1], "strides": [1, 1], "data_format": "channels_last", "activity_regularizer": null, "filters": 32, "kernel_regularizer": null, "kernel_initializer": {"config": {"scale": 1.0, "seed": null, "mode": "fan_avg", "distribution": "uniform"}, "class_name": "VarianceScaling"}, "bias_regularizer": null, "use_bias": false, "kernel_constraint": null, "bias_constraint": null, "trainable": false, "kernel_size": [3, 3]}, "class_name": "Conv2D", "name": "conv2d_21", "inbound_nodes": [[["activation_20", 0, 0, {}]]]}, {"config": {"padding": "same", "activation": "linear", "name": "conv2d_24", "bias_initializer": {"config": {}, "class_name": "Zeros"}, "dilation_rate": [1, 1], "strides": [1, 1], "data_format": "channels_last", "activity_regularizer": null, "filters": 64, "kernel_regularizer": null, "kernel_initializer": {"config": {"scale": 1.0, "seed": null, "mode": "fan_avg", "distribution": "uniform"}, "class_name": "VarianceScaling"}, "bias_regularizer": null, "use_bias": false, "kernel_constraint": null, "bias_constraint": null, "trainable": false, "kernel_size": [3, 3]}, "class_name": "Conv2D", "name": "conv2d_24", "inbound_nodes": [[["activation_23", 0, 0, {}]]]}, {"config": {"center": true, "gamma_initializer": {"config": {}, "class_name": "Ones"}, "epsilon": 0.001, "axis": 3, "name": "batch_normalization_19", "beta_regularizer": null, "gamma_regularizer": null, "moving_variance_initializer": {"config": {}, "class_name": "Ones"}, "beta_initializer": {"config": {}, "class_name": "Zeros"}, "scale": false, "gamma_constraint": null, "moving_mean_initializer": {"config": {}, "class_name": "Zeros"}, "trainable": false, "beta_constraint": null, "momentum": 0.99}, "class_name": "BatchNormalization", "name": "batch_normalization_19", "inbound_nodes": [[["conv2d_19", 0, 0, {}]]]}, {"config": {"center": true, "gamma_initializer": {"config": {}, "class_name": "Ones"}, "epsilon": 0.001, "axis": 3, "name": "batch_normalization_21", "beta_regularizer": null, "gamma_regularizer": null, "moving_variance_initializer": {"config": {}, "class_name": "Ones"}, "beta_initializer": {"config": {}, "class_name": "Zeros"}, "scale": false, "gamma_constraint": null, "moving_mean_initializer": {"config": {}, "class_name": "Zeros"}, "trainable": false, "beta_constraint": null, "momentum": 0.99}, "class_name": "BatchNormalization", "name": "batch_normalization_21", "inbound_nodes": [[["conv2d_21", 0, 0, {}]]]}, {"config": {"center": true, "gamma_initializer": {"config": {}, "class_name": "Ones"}, "epsilon": 0.001, "axis": 3, "name": "batch_normalization_24", "beta_regularizer": null, "gamma_regularizer": null, "moving_variance_initializer": {"config": {}, "class_name": "Ones"}, "beta_initializer": {"config": {}, "class_name": "Zeros"}, "scale": false, "gamma_constraint": null, "moving_mean_initializer": {"config": {}, "class_name": "Zeros"}, "trainable": false, "beta_constraint": null, "momentum": 0.99}, "class_name": "BatchNormalization", "name": "batch_normalization_24", "inbound_nodes": [[["conv2d_24", 0, 0, {}]]]}, {"config": {"trainable": false, "activation": "relu", "name": "activation_19"}, "class_name": "Activation", "name": "activation_19", "inbound_nodes": [[["batch_normalization_19", 0, 0, {}]]]}, {"config": {"trainable": false, "activation": "relu", "name": "activation_21"}, "class_name": "Activation", "name": "activation_21", "inbound_nodes": [[["batch_normalization_21", 0, 0, {}]]]}, {"config": {"trainable": false, "activation": "relu", "name": "activation_24"}, "class_name": "Activation", "name": "activation_24", "inbound_nodes": [[["batch_normalization_24", 0, 0, {}]]]}, {"config": {"trainable": false, "axis": 3, "name": "block35_2_mixed"}, "class_name": "Concatenate", "name": "block35_2_mixed", "inbound_nodes": [[["activation_19", 0, 0, {}], ["activation_21", 0, 0, {}], ["activation_24", 0, 0, {}]]]}, {"config": {"padding": "same", "activation": "linear", "name": "block35_2_conv", "bias_initializer": {"config": {}, "class_name": "Zeros"}, "dilation_rate": [1, 1], "strides": [1, 1], "data_format": "channels_last", "activity_regularizer": null, "filters": 320, "kernel_regularizer": null, "kernel_initializer": {"config": {"scale": 1.0, "seed": null, "mode": "fan_avg", "distribution": "uniform"}, "class_name": "VarianceScaling"}, "bias_regularizer": null, "use_bias": true, "kernel_constraint": null, "bias_constraint": null, "trainable": false, "kernel_size": [1, 1]}, "class_name": "Conv2D", "name": "block35_2_conv", "inbound_nodes": [[["block35_2_mixed", 0, 0, {}]]]}, {"config": {"function": ["4wIAAAAAAAAAAgAAAAMAAABTAAAAcxQAAAB8AABkAQAZfAAAZAIAGXwBABQXUykDTukAAAAA6QEA\nAACpACkC2gZpbnB1dHPaBXNjYWxlcgMAAAByAwAAAPpvQzpcVXNlcnNcSm9lXEFwcERhdGFcTG9j\nYWxcUHJvZ3JhbXNcUHl0aG9uXFB5dGhvbjM1XGxpYlxzaXRlLXBhY2thZ2VzXGtlcmFzXGFwcGxp\nY2F0aW9uc1xpbmNlcHRpb25fcmVzbmV0X3YyLnB52gg8bGFtYmRhPqgAAADzAAAAAA==\n", null, null], "arguments": {"scale": 0.17}, "name": "block35_2", "trainable": false, "output_shape_type": "raw", "output_shape": [35, 35, 320], "function_type": "lambda"}, "class_name": "Lambda", "name": "block35_2", "inbound_nodes": [[["block35_1_ac", 0, 0, {}], ["block35_2_conv", 0, 0, {}]]]}, {"config": {"trainable": false, "activation": "relu", "name": "block35_2_ac"}, "class_name": "Activation", "name": "block35_2_ac", "inbound_nodes": [[["block35_2", 0, 0, {}]]]}, {"config": {"padding": "same", "activation": "linear", "name": "conv2d_28", "bias_initializer": {"config": {}, "class_name": "Zeros"}, "dilation_rate": [1, 1], "strides": [1, 1], "data_format": "channels_last", "activity_regularizer": null, "filters": 32, "kernel_regularizer": null, "kernel_initializer": {"config": {"scale": 1.0, "seed": null, "mode": "fan_avg", "distribution": "uniform"}, "class_name": "VarianceScaling"}, "bias_regularizer": null, "use_bias": false, "kernel_constraint": null, "bias_constraint": null, "trainable": false, "kernel_size": [1, 1]}, "class_name": "Conv2D", "name": "conv2d_28", "inbound_nodes": [[["block35_2_ac", 0, 0, {}]]]}, {"config": {"center": true, "gamma_initializer": {"config": {}, "class_name": "Ones"}, "epsilon": 0.001, "axis": 3, "name": "batch_normalization_28", "beta_regularizer": null, "gamma_regularizer": null, "moving_variance_initializer": {"config": {}, "class_name": "Ones"}, "beta_initializer": {"config": {}, "class_name": "Zeros"}, "scale": false, "gamma_constraint": null, "moving_mean_initializer": {"config": {}, "class_name": "Zeros"}, "trainable": false, "beta_constraint": null, "momentum": 0.99}, "class_name": "BatchNormalization", "name": "batch_normalization_28", "inbound_nodes": [[["conv2d_28", 0, 0, {}]]]}, {"config": {"trainable": false, "activation": "relu", "name": "activation_28"}, "class_name": "Activation", "name": "activation_28", "inbound_nodes": [[["batch_normalization_28", 0, 0, {}]]]}, {"config": {"padding": "same", "activation": "linear", "name": "conv2d_26", "bias_initializer": {"config": {}, "class_name": "Zeros"}, "dilation_rate": [1, 1], "strides": [1, 1], "data_format": "channels_last", "activity_regularizer": null, "filters": 32, "kernel_regularizer": null, "kernel_initializer": {"config": {"scale": 1.0, "seed": null, "mode": "fan_avg", "distribution": "uniform"}, "class_name": "VarianceScaling"}, "bias_regularizer": null, "use_bias": false, "kernel_constraint": null, "bias_constraint": null, "trainable": false, "kernel_size": [1, 1]}, "class_name": "Conv2D", "name": "conv2d_26", "inbound_nodes": [[["block35_2_ac", 0, 0, {}]]]}, {"config": {"padding": "same", "activation": "linear", "name": "conv2d_29", "bias_initializer": {"config": {}, "class_name": "Zeros"}, "dilation_rate": [1, 1], "strides": [1, 1], "data_format": "channels_last", "activity_regularizer": null, "filters": 48, "kernel_regularizer": null, "kernel_initializer": {"config": {"scale": 1.0, "seed": null, "mode": "fan_avg", "distribution": "uniform"}, "class_name": "VarianceScaling"}, "bias_regularizer": null, "use_bias": false, "kernel_constraint": null, "bias_constraint": null, "trainable": false, "kernel_size": [3, 3]}, "class_name": "Conv2D", "name": "conv2d_29", "inbound_nodes": [[["activation_28", 0, 0, {}]]]}, {"config": {"center": true, "gamma_initializer": {"config": {}, "class_name": "Ones"}, "epsilon": 0.001, "axis": 3, "name": "batch_normalization_26", "beta_regularizer": null, "gamma_regularizer": null, "moving_variance_initializer": {"config": {}, "class_name": "Ones"}, "beta_initializer": {"config": {}, "class_name": "Zeros"}, "scale": false, "gamma_constraint": null, "moving_mean_initializer": {"config": {}, "class_name": "Zeros"}, "trainable": false, "beta_constraint": null, "momentum": 0.99}, "class_name": "BatchNormalization", "name": "batch_normalization_26", "inbound_nodes": [[["conv2d_26", 0, 0, {}]]]}, {"config": {"center": true, "gamma_initializer": {"config": {}, "class_name": "Ones"}, "epsilon": 0.001, "axis": 3, "name": "batch_normalization_29", "beta_regularizer": null, "gamma_regularizer": null, "moving_variance_initializer": {"config": {}, "class_name": "Ones"}, "beta_initializer": {"config": {}, "class_name": "Zeros"}, "scale": false, "gamma_constraint": null, "moving_mean_initializer": {"config": {}, "class_name": "Zeros"}, "trainable": false, "beta_constraint": null, "momentum": 0.99}, "class_name": "BatchNormalization", "name": "batch_normalization_29", "inbound_nodes": [[["conv2d_29", 0, 0, {}]]]}, {"config": {"trainable": false, "activation": "relu", "name": "activation_26"}, "class_name": "Activation", "name": "activation_26", "inbound_nodes": [[["batch_normalization_26", 0, 0, {}]]]}, {"config": {"trainable": false, "activation": "relu", "name": "activation_29"}, "class_name": "Activation", "name": "activation_29", "inbound_nodes": [[["batch_normalization_29", 0, 0, {}]]]}, {"config": {"padding": "same", "activation": "linear", "name": "conv2d_25", "bias_initializer": {"config": {}, "class_name": "Zeros"}, "dilation_rate": [1, 1], "strides": [1, 1], "data_format": "channels_last", "activity_regularizer": null, "filters": 32, "kernel_regularizer": null, "kernel_initializer": {"config": {"scale": 1.0, "seed": null, "mode": "fan_avg", "distribution": "uniform"}, "class_name": "VarianceScaling"}, "bias_regularizer": null, "use_bias": false, "kernel_constraint": null, "bias_constraint": null, "trainable": false, "kernel_size": [1, 1]}, "class_name": "Conv2D", "name": "conv2d_25", "inbound_nodes": [[["block35_2_ac", 0, 0, {}]]]}, {"config": {"padding": "same", "activation": "linear", "name": "conv2d_27", "bias_initializer": {"config": {}, "class_name": "Zeros"}, "dilation_rate": [1, 1], "strides": [1, 1], "data_format": "channels_last", "activity_regularizer": null, "filters": 32, "kernel_regularizer": null, "kernel_initializer": {"config": {"scale": 1.0, "seed": null, "mode": "fan_avg", "distribution": "uniform"}, "class_name": "VarianceScaling"}, "bias_regularizer": null, "use_bias": false, "kernel_constraint": null, "bias_constraint": null, "trainable": false, "kernel_size": [3, 3]}, "class_name": "Conv2D", "name": "conv2d_27", "inbound_nodes": [[["activation_26", 0, 0, {}]]]}, {"config": {"padding": "same", "activation": "linear", "name": "conv2d_30", "bias_initializer": {"config": {}, "class_name": "Zeros"}, "dilation_rate": [1, 1], "strides": [1, 1], "data_format": "channels_last", "activity_regularizer": null, "filters": 64, "kernel_regularizer": null, "kernel_initializer": {"config": {"scale": 1.0, "seed": null, "mode": "fan_avg", "distribution": "uniform"}, "class_name": "VarianceScaling"}, "bias_regularizer": null, "use_bias": false, "kernel_constraint": null, "bias_constraint": null, "trainable": false, "kernel_size": [3, 3]}, "class_name": "Conv2D", "name": "conv2d_30", "inbound_nodes": [[["activation_29", 0, 0, {}]]]}, {"config": {"center": true, "gamma_initializer": {"config": {}, "class_name": "Ones"}, "epsilon": 0.001, "axis": 3, "name": "batch_normalization_25", "beta_regularizer": null, "gamma_regularizer": null, "moving_variance_initializer": {"config": {}, "class_name": "Ones"}, "beta_initializer": {"config": {}, "class_name": "Zeros"}, "scale": false, "gamma_constraint": null, "moving_mean_initializer": {"config": {}, "class_name": "Zeros"}, "trainable": false, "beta_constraint": null, "momentum": 0.99}, "class_name": "BatchNormalization", "name": "batch_normalization_25", "inbound_nodes": [[["conv2d_25", 0, 0, {}]]]}, {"config": {"center": true, "gamma_initializer": {"config": {}, "class_name": "Ones"}, "epsilon": 0.001, "axis": 3, "name": "batch_normalization_27", "beta_regularizer": null, "gamma_regularizer": null, "moving_variance_initializer": {"config": {}, "class_name": "Ones"}, "beta_initializer": {"config": {}, "class_name": "Zeros"}, "scale": false, "gamma_constraint": null, "moving_mean_initializer": {"config": {}, "class_name": "Zeros"}, "trainable": false, "beta_constraint": null, "momentum": 0.99}, "class_name": "BatchNormalization", "name": "batch_normalization_27", "inbound_nodes": [[["conv2d_27", 0, 0, {}]]]}, {"config": {"center": true, "gamma_initializer": {"config": {}, "class_name": "Ones"}, "epsilon": 0.001, "axis": 3, "name": "batch_normalization_30", "beta_regularizer": null, "gamma_regularizer": null, "moving_variance_initializer": {"config": {}, "class_name": "Ones"}, "beta_initializer": {"config": {}, "class_name": "Zeros"}, "scale": false, "gamma_constraint": null, "moving_mean_initializer": {"config": {}, "class_name": "Zeros"}, "trainable": false, "beta_constraint": null, "momentum": 0.99}, "class_name": "BatchNormalization", "name": "batch_normalization_30", "inbound_nodes": [[["conv2d_30", 0, 0, {}]]]}, {"config": {"trainable": false, "activation": "relu", "name": "activation_25"}, "class_name": "Activation", "name": "activation_25", "inbound_nodes": [[["batch_normalization_25", 0, 0, {}]]]}, {"config": {"trainable": false, "activation": "relu", "name": "activation_27"}, "class_name": "Activation", "name": "activation_27", "inbound_nodes": [[["batch_normalization_27", 0, 0, {}]]]}, {"config": {"trainable": false, "activation": "relu", "name": "activation_30"}, "class_name": "Activation", "name": "activation_30", "inbound_nodes": [[["batch_normalization_30", 0, 0, {}]]]}, {"config": {"trainable": false, "axis": 3, "name": "block35_3_mixed"}, "class_name": "Concatenate", "name": "block35_3_mixed", "inbound_nodes": [[["activation_25", 0, 0, {}], ["activation_27", 0, 0, {}], ["activation_30", 0, 0, {}]]]}, {"config": {"padding": "same", "activation": "linear", "name": "block35_3_conv", "bias_initializer": {"config": {}, "class_name": "Zeros"}, "dilation_rate": [1, 1], "strides": [1, 1], "data_format": "channels_last", "activity_regularizer": null, "filters": 320, "kernel_regularizer": null, "kernel_initializer": {"config": {"scale": 1.0, "seed": null, "mode": "fan_avg", "distribution": "uniform"}, "class_name": "VarianceScaling"}, "bias_regularizer": null, "use_bias": true, "kernel_constraint": null, "bias_constraint": null, "trainable": false, "kernel_size": [1, 1]}, "class_name": "Conv2D", "name": "block35_3_conv", "inbound_nodes": [[["block35_3_mixed", 0, 0, {}]]]}, {"config": {"function": ["4wIAAAAAAAAAAgAAAAMAAABTAAAAcxQAAAB8AABkAQAZfAAAZAIAGXwBABQXUykDTukAAAAA6QEA\nAACpACkC2gZpbnB1dHPaBXNjYWxlcgMAAAByAwAAAPpvQzpcVXNlcnNcSm9lXEFwcERhdGFcTG9j\nYWxcUHJvZ3JhbXNcUHl0aG9uXFB5dGhvbjM1XGxpYlxzaXRlLXBhY2thZ2VzXGtlcmFzXGFwcGxp\nY2F0aW9uc1xpbmNlcHRpb25fcmVzbmV0X3YyLnB52gg8bGFtYmRhPqgAAADzAAAAAA==\n", null, null], "arguments": {"scale": 0.17}, "name": "block35_3", "trainable": false, "output_shape_type": "raw", "output_shape": [35, 35, 320], "function_type": "lambda"}, "class_name": "Lambda", "name": "block35_3", "inbound_nodes": [[["block35_2_ac", 0, 0, {}], ["block35_3_conv", 0, 0, {}]]]}, {"config": {"trainable": false, "activation": "relu", "name": "block35_3_ac"}, "class_name": "Activation", "name": "block35_3_ac", "inbound_nodes": [[["block35_3", 0, 0, {}]]]}, {"config": {"padding": "same", "activation": "linear", "name": "conv2d_34", "bias_initializer": {"config": {}, "class_name": "Zeros"}, "dilation_rate": [1, 1], "strides": [1, 1], "data_format": "channels_last", "activity_regularizer": null, "filters": 32, "kernel_regularizer": null, "kernel_initializer": {"config": {"scale": 1.0, "seed": null, "mode": "fan_avg", "distribution": "uniform"}, "class_name": "VarianceScaling"}, "bias_regularizer": null, "use_bias": false, "kernel_constraint": null, "bias_constraint": null, "trainable": false, "kernel_size": [1, 1]}, "class_name": "Conv2D", "name": "conv2d_34", "inbound_nodes": [[["block35_3_ac", 0, 0, {}]]]}, {"config": {"center": true, "gamma_initializer": {"config": {}, "class_name": "Ones"}, "epsilon": 0.001, "axis": 3, "name": "batch_normalization_34", "beta_regularizer": null, "gamma_regularizer": null, "moving_variance_initializer": {"config": {}, "class_name": "Ones"}, "beta_initializer": {"config": {}, "class_name": "Zeros"}, "scale": false, "gamma_constraint": null, "moving_mean_initializer": {"config": {}, "class_name": "Zeros"}, "trainable": false, "beta_constraint": null, "momentum": 0.99}, "class_name": "BatchNormalization", "name": "batch_normalization_34", "inbound_nodes": [[["conv2d_34", 0, 0, {}]]]}, {"config": {"trainable": false, "activation": "relu", "name": "activation_34"}, "class_name": "Activation", "name": "activation_34", "inbound_nodes": [[["batch_normalization_34", 0, 0, {}]]]}, {"config": {"padding": "same", "activation": "linear", "name": "conv2d_32", "bias_initializer": {"config": {}, "class_name": "Zeros"}, "dilation_rate": [1, 1], "strides": [1, 1], "data_format": "channels_last", "activity_regularizer": null, "filters": 32, "kernel_regularizer": null, "kernel_initializer": {"config": {"scale": 1.0, "seed": null, "mode": "fan_avg", "distribution": "uniform"}, "class_name": "VarianceScaling"}, "bias_regularizer": null, "use_bias": false, "kernel_constraint": null, "bias_constraint": null, "trainable": false, "kernel_size": [1, 1]}, "class_name": "Conv2D", "name": "conv2d_32", "inbound_nodes": [[["block35_3_ac", 0, 0, {}]]]}, {"config": {"padding": "same", "activation": "linear", "name": "conv2d_35", "bias_initializer": {"config": {}, "class_name": "Zeros"}, "dilation_rate": [1, 1], "strides": [1, 1], "data_format": "channels_last", "activity_regularizer": null, "filters": 48, "kernel_regularizer": null, "kernel_initializer": {"config": {"scale": 1.0, "seed": null, "mode": "fan_avg", "distribution": "uniform"}, "class_name": "VarianceScaling"}, "bias_regularizer": null, "use_bias": false, "kernel_constraint": null, "bias_constraint": null, "trainable": false, "kernel_size": [3, 3]}, "class_name": "Conv2D", "name": "conv2d_35", "inbound_nodes": [[["activation_34", 0, 0, {}]]]}, {"config": {"center": true, "gamma_initializer": {"config": {}, "class_name": "Ones"}, "epsilon": 0.001, "axis": 3, "name": "batch_normalization_32", "beta_regularizer": null, "gamma_regularizer": null, "moving_variance_initializer": {"config": {}, "class_name": "Ones"}, "beta_initializer": {"config": {}, "class_name": "Zeros"}, "scale": false, "gamma_constraint": null, "moving_mean_initializer": {"config": {}, "class_name": "Zeros"}, "trainable": false, "beta_constraint": null, "momentum": 0.99}, "class_name": "BatchNormalization", "name": "batch_normalization_32", "inbound_nodes": [[["conv2d_32", 0, 0, {}]]]}, {"config": {"center": true, "gamma_initializer": {"config": {}, "class_name": "Ones"}, "epsilon": 0.001, "axis": 3, "name": "batch_normalization_35", "beta_regularizer": null, "gamma_regularizer": null, "moving_variance_initializer": {"config": {}, "class_name": "Ones"}, "beta_initializer": {"config": {}, "class_name": "Zeros"}, "scale": false, "gamma_constraint": null, "moving_mean_initializer": {"config": {}, "class_name": "Zeros"}, "trainable": false, "beta_constraint": null, "momentum": 0.99}, "class_name": "BatchNormalization", "name": "batch_normalization_35", "inbound_nodes": [[["conv2d_35", 0, 0, {}]]]}, {"config": {"trainable": false, "activation": "relu", "name": "activation_32"}, "class_name": "Activation", "name": "activation_32", "inbound_nodes": [[["batch_normalization_32", 0, 0, {}]]]}, {"config": {"trainable": false, "activation": "relu", "name": "activation_35"}, "class_name": "Activation", "name": "activation_35", "inbound_nodes": [[["batch_normalization_35", 0, 0, {}]]]}, {"config": {"padding": "same", "activation": "linear", "name": "conv2d_31", "bias_initializer": {"config": {}, "class_name": "Zeros"}, "dilation_rate": [1, 1], "strides": [1, 1], "data_format": "channels_last", "activity_regularizer": null, "filters": 32, "kernel_regularizer": null, "kernel_initializer": {"config": {"scale": 1.0, "seed": null, "mode": "fan_avg", "distribution": "uniform"}, "class_name": "VarianceScaling"}, "bias_regularizer": null, "use_bias": false, "kernel_constraint": null, "bias_constraint": null, "trainable": false, "kernel_size": [1, 1]}, "class_name": "Conv2D", "name": "conv2d_31", "inbound_nodes": [[["block35_3_ac", 0, 0, {}]]]}, {"config": {"padding": "same", "activation": "linear", "name": "conv2d_33", "bias_initializer": {"config": {}, "class_name": "Zeros"}, "dilation_rate": [1, 1], "strides": [1, 1], "data_format": "channels_last", "activity_regularizer": null, "filters": 32, "kernel_regularizer": null, "kernel_initializer": {"config": {"scale": 1.0, "seed": null, "mode": "fan_avg", "distribution": "uniform"}, "class_name": "VarianceScaling"}, "bias_regularizer": null, "use_bias": false, "kernel_constraint": null, "bias_constraint": null, "trainable": false, "kernel_size": [3, 3]}, "class_name": "Conv2D", "name": "conv2d_33", "inbound_nodes": [[["activation_32", 0, 0, {}]]]}, {"config": {"padding": "same", "activation": "linear", "name": "conv2d_36", "bias_initializer": {"config": {}, "class_name": "Zeros"}, "dilation_rate": [1, 1], "strides": [1, 1], "data_format": "channels_last", "activity_regularizer": null, "filters": 64, "kernel_regularizer": null, "kernel_initializer": {"config": {"scale": 1.0, "seed": null, "mode": "fan_avg", "distribution": "uniform"}, "class_name": "VarianceScaling"}, "bias_regularizer": null, "use_bias": false, "kernel_constraint": null, "bias_constraint": null, "trainable": false, "kernel_size": [3, 3]}, "class_name": "Conv2D", "name": "conv2d_36", "inbound_nodes": [[["activation_35", 0, 0, {}]]]}, {"config": {"center": true, "gamma_initializer": {"config": {}, "class_name": "Ones"}, "epsilon": 0.001, "axis": 3, "name": "batch_normalization_31", "beta_regularizer": null, "gamma_regularizer": null, "moving_variance_initializer": {"config": {}, "class_name": "Ones"}, "beta_initializer": {"config": {}, "class_name": "Zeros"}, "scale": false, "gamma_constraint": null, "moving_mean_initializer": {"config": {}, "class_name": "Zeros"}, "trainable": false, "beta_constraint": null, "momentum": 0.99}, "class_name": "BatchNormalization", "name": "batch_normalization_31", "inbound_nodes": [[["conv2d_31", 0, 0, {}]]]}, {"config": {"center": true, "gamma_initializer": {"config": {}, "class_name": "Ones"}, "epsilon": 0.001, "axis": 3, "name": "batch_normalization_33", "beta_regularizer": null, "gamma_regularizer": null, "moving_variance_initializer": {"config": {}, "class_name": "Ones"}, "beta_initializer": {"config": {}, "class_name": "Zeros"}, "scale": false, "gamma_constraint": null, "moving_mean_initializer": {"config": {}, "class_name": "Zeros"}, "trainable": false, "beta_constraint": null, "momentum": 0.99}, "class_name": "BatchNormalization", "name": "batch_normalization_33", "inbound_nodes": [[["conv2d_33", 0, 0, {}]]]}, {"config": {"center": true, "gamma_initializer": {"config": {}, "class_name": "Ones"}, "epsilon": 0.001, "axis": 3, "name": "batch_normalization_36", "beta_regularizer": null, "gamma_regularizer": null, "moving_variance_initializer": {"config": {}, "class_name": "Ones"}, "beta_initializer": {"config": {}, "class_name": "Zeros"}, "scale": false, "gamma_constraint": null, "moving_mean_initializer": {"config": {}, "class_name": "Zeros"}, "trainable": false, "beta_constraint": null, "momentum": 0.99}, "class_name": "BatchNormalization", "name": "batch_normalization_36", "inbound_nodes": [[["conv2d_36", 0, 0, {}]]]}, {"config": {"trainable": false, "activation": "relu", "name": "activation_31"}, "class_name": "Activation", "name": "activation_31", "inbound_nodes": [[["batch_normalization_31", 0, 0, {}]]]}, {"config": {"trainable": false, "activation": "relu", "name": "activation_33"}, "class_name": "Activation", "name": "activation_33", "inbound_nodes": [[["batch_normalization_33", 0, 0, {}]]]}, {"config": {"trainable": false, "activation": "relu", "name": "activation_36"}, "class_name": "Activation", "name": "activation_36", "inbound_nodes": [[["batch_normalization_36", 0, 0, {}]]]}, {"config": {"trainable": false, "axis": 3, "name": "block35_4_mixed"}, "class_name": "Concatenate", "name": "block35_4_mixed", "inbound_nodes": [[["activation_31", 0, 0, {}], ["activation_33", 0, 0, {}], ["activation_36", 0, 0, {}]]]}, {"config": {"padding": "same", "activation": "linear", "name": "block35_4_conv", "bias_initializer": {"config": {}, "class_name": "Zeros"}, "dilation_rate": [1, 1], "strides": [1, 1], "data_format": "channels_last", "activity_regularizer": null, "filters": 320, "kernel_regularizer": null, "kernel_initializer": {"config": {"scale": 1.0, "seed": null, "mode": "fan_avg", "distribution": "uniform"}, "class_name": "VarianceScaling"}, "bias_regularizer": null, "use_bias": true, "kernel_constraint": null, "bias_constraint": null, "trainable": false, "kernel_size": [1, 1]}, "class_name": "Conv2D", "name": "block35_4_conv", "inbound_nodes": [[["block35_4_mixed", 0, 0, {}]]]}, {"config": {"function": ["4wIAAAAAAAAAAgAAAAMAAABTAAAAcxQAAAB8AABkAQAZfAAAZAIAGXwBABQXUykDTukAAAAA6QEA\nAACpACkC2gZpbnB1dHPaBXNjYWxlcgMAAAByAwAAAPpvQzpcVXNlcnNcSm9lXEFwcERhdGFcTG9j\nYWxcUHJvZ3JhbXNcUHl0aG9uXFB5dGhvbjM1XGxpYlxzaXRlLXBhY2thZ2VzXGtlcmFzXGFwcGxp\nY2F0aW9uc1xpbmNlcHRpb25fcmVzbmV0X3YyLnB52gg8bGFtYmRhPqgAAADzAAAAAA==\n", null, null], "arguments": {"scale": 0.17}, "name": "block35_4", "trainable": false, "output_shape_type": "raw", "output_shape": [35, 35, 320], "function_type": "lambda"}, "class_name": "Lambda", "name": "block35_4", "inbound_nodes": [[["block35_3_ac", 0, 0, {}], ["block35_4_conv", 0, 0, {}]]]}, {"config": {"trainable": false, "activation": "relu", "name": "block35_4_ac"}, "class_name": "Activation", "name": "block35_4_ac", "inbound_nodes": [[["block35_4", 0, 0, {}]]]}, {"config": {"padding": "same", "activation": "linear", "name": "conv2d_40", "bias_initializer": {"config": {}, "class_name": "Zeros"}, "dilation_rate": [1, 1], "strides": [1, 1], "data_format": "channels_last", "activity_regularizer": null, "filters": 32, "kernel_regularizer": null, "kernel_initializer": {"config": {"scale": 1.0, "seed": null, "mode": "fan_avg", "distribution": "uniform"}, "class_name": "VarianceScaling"}, "bias_regularizer": null, "use_bias": false, "kernel_constraint": null, "bias_constraint": null, "trainable": false, "kernel_size": [1, 1]}, "class_name": "Conv2D", "name": "conv2d_40", "inbound_nodes": [[["block35_4_ac", 0, 0, {}]]]}, {"config": {"center": true, "gamma_initializer": {"config": {}, "class_name": "Ones"}, "epsilon": 0.001, "axis": 3, "name": "batch_normalization_40", "beta_regularizer": null, "gamma_regularizer": null, "moving_variance_initializer": {"config": {}, "class_name": "Ones"}, "beta_initializer": {"config": {}, "class_name": "Zeros"}, "scale": false, "gamma_constraint": null, "moving_mean_initializer": {"config": {}, "class_name": "Zeros"}, "trainable": false, "beta_constraint": null, "momentum": 0.99}, "class_name": "BatchNormalization", "name": "batch_normalization_40", "inbound_nodes": [[["conv2d_40", 0, 0, {}]]]}, {"config": {"trainable": false, "activation": "relu", "name": "activation_40"}, "class_name": "Activation", "name": "activation_40", "inbound_nodes": [[["batch_normalization_40", 0, 0, {}]]]}, {"config": {"padding": "same", "activation": "linear", "name": "conv2d_38", "bias_initializer": {"config": {}, "class_name": "Zeros"}, "dilation_rate": [1, 1], "strides": [1, 1], "data_format": "channels_last", "activity_regularizer": null, "filters": 32, "kernel_regularizer": null, "kernel_initializer": {"config": {"scale": 1.0, "seed": null, "mode": "fan_avg", "distribution": "uniform"}, "class_name": "VarianceScaling"}, "bias_regularizer": null, "use_bias": false, "kernel_constraint": null, "bias_constraint": null, "trainable": false, "kernel_size": [1, 1]}, "class_name": "Conv2D", "name": "conv2d_38", "inbound_nodes": [[["block35_4_ac", 0, 0, {}]]]}, {"config": {"padding": "same", "activation": "linear", "name": "conv2d_41", "bias_initializer": {"config": {}, "class_name": "Zeros"}, "dilation_rate": [1, 1], "strides": [1, 1], "data_format": "channels_last", "activity_regularizer": null, "filters": 48, "kernel_regularizer": null, "kernel_initializer": {"config": {"scale": 1.0, "seed": null, "mode": "fan_avg", "distribution": "uniform"}, "class_name": "VarianceScaling"}, "bias_regularizer": null, "use_bias": false, "kernel_constraint": null, "bias_constraint": null, "trainable": false, "kernel_size": [3, 3]}, "class_name": "Conv2D", "name": "conv2d_41", "inbound_nodes": [[["activation_40", 0, 0, {}]]]}, {"config": {"center": true, "gamma_initializer": {"config": {}, "class_name": "Ones"}, "epsilon": 0.001, "axis": 3, "name": "batch_normalization_38", "beta_regularizer": null, "gamma_regularizer": null, "moving_variance_initializer": {"config": {}, "class_name": "Ones"}, "beta_initializer": {"config": {}, "class_name": "Zeros"}, "scale": false, "gamma_constraint": null, "moving_mean_initializer": {"config": {}, "class_name": "Zeros"}, "trainable": false, "beta_constraint": null, "momentum": 0.99}, "class_name": "BatchNormalization", "name": "batch_normalization_38", "inbound_nodes": [[["conv2d_38", 0, 0, {}]]]}, {"config": {"center": true, "gamma_initializer": {"config": {}, "class_name": "Ones"}, "epsilon": 0.001, "axis": 3, "name": "batch_normalization_41", "beta_regularizer": null, "gamma_regularizer": null, "moving_variance_initializer": {"config": {}, "class_name": "Ones"}, "beta_initializer": {"config": {}, "class_name": "Zeros"}, "scale": false, "gamma_constraint": null, "moving_mean_initializer": {"config": {}, "class_name": "Zeros"}, "trainable": false, "beta_constraint": null, "momentum": 0.99}, "class_name": "BatchNormalization", "name": "batch_normalization_41", "inbound_nodes": [[["conv2d_41", 0, 0, {}]]]}, {"config": {"trainable": false, "activation": "relu", "name": "activation_38"}, "class_name": "Activation", "name": "activation_38", "inbound_nodes": [[["batch_normalization_38", 0, 0, {}]]]}, {"config": {"trainable": false, "activation": "relu", "name": "activation_41"}, "class_name": "Activation", "name": "activation_41", "inbound_nodes": [[["batch_normalization_41", 0, 0, {}]]]}, {"config": {"padding": "same", "activation": "linear", "name": "conv2d_37", "bias_initializer": {"config": {}, "class_name": "Zeros"}, "dilation_rate": [1, 1], "strides": [1, 1], "data_format": "channels_last", "activity_regularizer": null, "filters": 32, "kernel_regularizer": null, "kernel_initializer": {"config": {"scale": 1.0, "seed": null, "mode": "fan_avg", "distribution": "uniform"}, "class_name": "VarianceScaling"}, "bias_regularizer": null, "use_bias": false, "kernel_constraint": null, "bias_constraint": null, "trainable": false, "kernel_size": [1, 1]}, "class_name": "Conv2D", "name": "conv2d_37", "inbound_nodes": [[["block35_4_ac", 0, 0, {}]]]}, {"config": {"padding": "same", "activation": "linear", "name": "conv2d_39", "bias_initializer": {"config": {}, "class_name": "Zeros"}, "dilation_rate": [1, 1], "strides": [1, 1], "data_format": "channels_last", "activity_regularizer": null, "filters": 32, "kernel_regularizer": null, "kernel_initializer": {"config": {"scale": 1.0, "seed": null, "mode": "fan_avg", "distribution": "uniform"}, "class_name": "VarianceScaling"}, "bias_regularizer": null, "use_bias": false, "kernel_constraint": null, "bias_constraint": null, "trainable": false, "kernel_size": [3, 3]}, "class_name": "Conv2D", "name": "conv2d_39", "inbound_nodes": [[["activation_38", 0, 0, {}]]]}, {"config": {"padding": "same", "activation": "linear", "name": "conv2d_42", "bias_initializer": {"config": {}, "class_name": "Zeros"}, "dilation_rate": [1, 1], "strides": [1, 1], "data_format": "channels_last", "activity_regularizer": null, "filters": 64, "kernel_regularizer": null, "kernel_initializer": {"config": {"scale": 1.0, "seed": null, "mode": "fan_avg", "distribution": "uniform"}, "class_name": "VarianceScaling"}, "bias_regularizer": null, "use_bias": false, "kernel_constraint": null, "bias_constraint": null, "trainable": false, "kernel_size": [3, 3]}, "class_name": "Conv2D", "name": "conv2d_42", "inbound_nodes": [[["activation_41", 0, 0, {}]]]}, {"config": {"center": true, "gamma_initializer": {"config": {}, "class_name": "Ones"}, "epsilon": 0.001, "axis": 3, "name": "batch_normalization_37", "beta_regularizer": null, "gamma_regularizer": null, "moving_variance_initializer": {"config": {}, "class_name": "Ones"}, "beta_initializer": {"config": {}, "class_name": "Zeros"}, "scale": false, "gamma_constraint": null, "moving_mean_initializer": {"config": {}, "class_name": "Zeros"}, "trainable": false, "beta_constraint": null, "momentum": 0.99}, "class_name": "BatchNormalization", "name": "batch_normalization_37", "inbound_nodes": [[["conv2d_37", 0, 0, {}]]]}, {"config": {"center": true, "gamma_initializer": {"config": {}, "class_name": "Ones"}, "epsilon": 0.001, "axis": 3, "name": "batch_normalization_39", "beta_regularizer": null, "gamma_regularizer": null, "moving_variance_initializer": {"config": {}, "class_name": "Ones"}, "beta_initializer": {"config": {}, "class_name": "Zeros"}, "scale": false, "gamma_constraint": null, "moving_mean_initializer": {"config": {}, "class_name": "Zeros"}, "trainable": false, "beta_constraint": null, "momentum": 0.99}, "class_name": "BatchNormalization", "name": "batch_normalization_39", "inbound_nodes": [[["conv2d_39", 0, 0, {}]]]}, {"config": {"center": true, "gamma_initializer": {"config": {}, "class_name": "Ones"}, "epsilon": 0.001, "axis": 3, "name": "batch_normalization_42", "beta_regularizer": null, "gamma_regularizer": null, "moving_variance_initializer": {"config": {}, "class_name": "Ones"}, "beta_initializer": {"config": {}, "class_name": "Zeros"}, "scale": false, "gamma_constraint": null, "moving_mean_initializer": {"config": {}, "class_name": "Zeros"}, "trainable": false, "beta_constraint": null, "momentum": 0.99}, "class_name": "BatchNormalization", "name": "batch_normalization_42", "inbound_nodes": [[["conv2d_42", 0, 0, {}]]]}, {"config": {"trainable": false, "activation": "relu", "name": "activation_37"}, "class_name": "Activation", "name": "activation_37", "inbound_nodes": [[["batch_normalization_37", 0, 0, {}]]]}, {"config": {"trainable": false, "activation": "relu", "name": "activation_39"}, "class_name": "Activation", "name": "activation_39", "inbound_nodes": [[["batch_normalization_39", 0, 0, {}]]]}, {"config": {"trainable": false, "activation": "relu", "name": "activation_42"}, "class_name": "Activation", "name": "activation_42", "inbound_nodes": [[["batch_normalization_42", 0, 0, {}]]]}, {"config": {"trainable": false, "axis": 3, "name": "block35_5_mixed"}, "class_name": "Concatenate", "name": "block35_5_mixed", "inbound_nodes": [[["activation_37", 0, 0, {}], ["activation_39", 0, 0, {}], ["activation_42", 0, 0, {}]]]}, {"config": {"padding": "same", "activation": "linear", "name": "block35_5_conv", "bias_initializer": {"config": {}, "class_name": "Zeros"}, "dilation_rate": [1, 1], "strides": [1, 1], "data_format": "channels_last", "activity_regularizer": null, "filters": 320, "kernel_regularizer": null, "kernel_initializer": {"config": {"scale": 1.0, "seed": null, "mode": "fan_avg", "distribution": "uniform"}, "class_name": "VarianceScaling"}, "bias_regularizer": null, "use_bias": true, "kernel_constraint": null, "bias_constraint": null, "trainable": false, "kernel_size": [1, 1]}, "class_name": "Conv2D", "name": "block35_5_conv", "inbound_nodes": [[["block35_5_mixed", 0, 0, {}]]]}, {"config": {"function": ["4wIAAAAAAAAAAgAAAAMAAABTAAAAcxQAAAB8AABkAQAZfAAAZAIAGXwBABQXUykDTukAAAAA6QEA\nAACpACkC2gZpbnB1dHPaBXNjYWxlcgMAAAByAwAAAPpvQzpcVXNlcnNcSm9lXEFwcERhdGFcTG9j\nYWxcUHJvZ3JhbXNcUHl0aG9uXFB5dGhvbjM1XGxpYlxzaXRlLXBhY2thZ2VzXGtlcmFzXGFwcGxp\nY2F0aW9uc1xpbmNlcHRpb25fcmVzbmV0X3YyLnB52gg8bGFtYmRhPqgAAADzAAAAAA==\n", null, null], "arguments": {"scale": 0.17}, "name": "block35_5", "trainable": false, "output_shape_type": "raw", "output_shape": [35, 35, 320], "function_type": "lambda"}, "class_name": "Lambda", "name": "block35_5", "inbound_nodes": [[["block35_4_ac", 0, 0, {}], ["block35_5_conv", 0, 0, {}]]]}, {"config": {"trainable": false, "activation": "relu", "name": "block35_5_ac"}, "class_name": "Activation", "name": "block35_5_ac", "inbound_nodes": [[["block35_5", 0, 0, {}]]]}, {"config": {"padding": "same", "activation": "linear", "name": "conv2d_46", "bias_initializer": {"config": {}, "class_name": "Zeros"}, "dilation_rate": [1, 1], "strides": [1, 1], "data_format": "channels_last", "activity_regularizer": null, "filters": 32, "kernel_regularizer": null, "kernel_initializer": {"config": {"scale": 1.0, "seed": null, "mode": "fan_avg", "distribution": "uniform"}, "class_name": "VarianceScaling"}, "bias_regularizer": null, "use_bias": false, "kernel_constraint": null, "bias_constraint": null, "trainable": false, "kernel_size": [1, 1]}, "class_name": "Conv2D", "name": "conv2d_46", "inbound_nodes": [[["block35_5_ac", 0, 0, {}]]]}, {"config": {"center": true, "gamma_initializer": {"config": {}, "class_name": "Ones"}, "epsilon": 0.001, "axis": 3, "name": "batch_normalization_46", "beta_regularizer": null, "gamma_regularizer": null, "moving_variance_initializer": {"config": {}, "class_name": "Ones"}, "beta_initializer": {"config": {}, "class_name": "Zeros"}, "scale": false, "gamma_constraint": null, "moving_mean_initializer": {"config": {}, "class_name": "Zeros"}, "trainable": false, "beta_constraint": null, "momentum": 0.99}, "class_name": "BatchNormalization", "name": "batch_normalization_46", "inbound_nodes": [[["conv2d_46", 0, 0, {}]]]}, {"config": {"trainable": false, "activation": "relu", "name": "activation_46"}, "class_name": "Activation", "name": "activation_46", "inbound_nodes": [[["batch_normalization_46", 0, 0, {}]]]}, {"config": {"padding": "same", "activation": "linear", "name": "conv2d_44", "bias_initializer": {"config": {}, "class_name": "Zeros"}, "dilation_rate": [1, 1], "strides": [1, 1], "data_format": "channels_last", "activity_regularizer": null, "filters": 32, "kernel_regularizer": null, "kernel_initializer": {"config": {"scale": 1.0, "seed": null, "mode": "fan_avg", "distribution": "uniform"}, "class_name": "VarianceScaling"}, "bias_regularizer": null, "use_bias": false, "kernel_constraint": null, "bias_constraint": null, "trainable": false, "kernel_size": [1, 1]}, "class_name": "Conv2D", "name": "conv2d_44", "inbound_nodes": [[["block35_5_ac", 0, 0, {}]]]}, {"config": {"padding": "same", "activation": "linear", "name": "conv2d_47", "bias_initializer": {"config": {}, "class_name": "Zeros"}, "dilation_rate": [1, 1], "strides": [1, 1], "data_format": "channels_last", "activity_regularizer": null, "filters": 48, "kernel_regularizer": null, "kernel_initializer": {"config": {"scale": 1.0, "seed": null, "mode": "fan_avg", "distribution": "uniform"}, "class_name": "VarianceScaling"}, "bias_regularizer": null, "use_bias": false, "kernel_constraint": null, "bias_constraint": null, "trainable": false, "kernel_size": [3, 3]}, "class_name": "Conv2D", "name": "conv2d_47", "inbound_nodes": [[["activation_46", 0, 0, {}]]]}, {"config": {"center": true, "gamma_initializer": {"config": {}, "class_name": "Ones"}, "epsilon": 0.001, "axis": 3, "name": "batch_normalization_44", "beta_regularizer": null, "gamma_regularizer": null, "moving_variance_initializer": {"config": {}, "class_name": "Ones"}, "beta_initializer": {"config": {}, "class_name": "Zeros"}, "scale": false, "gamma_constraint": null, "moving_mean_initializer": {"config": {}, "class_name": "Zeros"}, "trainable": false, "beta_constraint": null, "momentum": 0.99}, "class_name": "BatchNormalization", "name": "batch_normalization_44", "inbound_nodes": [[["conv2d_44", 0, 0, {}]]]}, {"config": {"center": true, "gamma_initializer": {"config": {}, "class_name": "Ones"}, "epsilon": 0.001, "axis": 3, "name": "batch_normalization_47", "beta_regularizer": null, "gamma_regularizer": null, "moving_variance_initializer": {"config": {}, "class_name": "Ones"}, "beta_initializer": {"config": {}, "class_name": "Zeros"}, "scale": false, "gamma_constraint": null, "moving_mean_initializer": {"config": {}, "class_name": "Zeros"}, "trainable": false, "beta_constraint": null, "momentum": 0.99}, "class_name": "BatchNormalization", "name": "batch_normalization_47", "inbound_nodes": [[["conv2d_47", 0, 0, {}]]]}, {"config": {"trainable": false, "activation": "relu", "name": "activation_44"}, "class_name": "Activation", "name": "activation_44", "inbound_nodes": [[["batch_normalization_44", 0, 0, {}]]]}, {"config": {"trainable": false, "activation": "relu", "name": "activation_47"}, "class_name": "Activation", "name": "activation_47", "inbound_nodes": [[["batch_normalization_47", 0, 0, {}]]]}, {"config": {"padding": "same", "activation": "linear", "name": "conv2d_43", "bias_initializer": {"config": {}, "class_name": "Zeros"}, "dilation_rate": [1, 1], "strides": [1, 1], "data_format": "channels_last", "activity_regularizer": null, "filters": 32, "kernel_regularizer": null, "kernel_initializer": {"config": {"scale": 1.0, "seed": null, "mode": "fan_avg", "distribution": "uniform"}, "class_name": "VarianceScaling"}, "bias_regularizer": null, "use_bias": false, "kernel_constraint": null, "bias_constraint": null, "trainable": false, "kernel_size": [1, 1]}, "class_name": "Conv2D", "name": "conv2d_43", "inbound_nodes": [[["block35_5_ac", 0, 0, {}]]]}, {"config": {"padding": "same", "activation": "linear", "name": "conv2d_45", "bias_initializer": {"config": {}, "class_name": "Zeros"}, "dilation_rate": [1, 1], "strides": [1, 1], "data_format": "channels_last", "activity_regularizer": null, "filters": 32, "kernel_regularizer": null, "kernel_initializer": {"config": {"scale": 1.0, "seed": null, "mode": "fan_avg", "distribution": "uniform"}, "class_name": "VarianceScaling"}, "bias_regularizer": null, "use_bias": false, "kernel_constraint": null, "bias_constraint": null, "trainable": false, "kernel_size": [3, 3]}, "class_name": "Conv2D", "name": "conv2d_45", "inbound_nodes": [[["activation_44", 0, 0, {}]]]}, {"config": {"padding": "same", "activation": "linear", "name": "conv2d_48", "bias_initializer": {"config": {}, "class_name": "Zeros"}, "dilation_rate": [1, 1], "strides": [1, 1], "data_format": "channels_last", "activity_regularizer": null, "filters": 64, "kernel_regularizer": null, "kernel_initializer": {"config": {"scale": 1.0, "seed": null, "mode": "fan_avg", "distribution": "uniform"}, "class_name": "VarianceScaling"}, "bias_regularizer": null, "use_bias": false, "kernel_constraint": null, "bias_constraint": null, "trainable": false, "kernel_size": [3, 3]}, "class_name": "Conv2D", "name": "conv2d_48", "inbound_nodes": [[["activation_47", 0, 0, {}]]]}, {"config": {"center": true, "gamma_initializer": {"config": {}, "class_name": "Ones"}, "epsilon": 0.001, "axis": 3, "name": "batch_normalization_43", "beta_regularizer": null, "gamma_regularizer": null, "moving_variance_initializer": {"config": {}, "class_name": "Ones"}, "beta_initializer": {"config": {}, "class_name": "Zeros"}, "scale": false, "gamma_constraint": null, "moving_mean_initializer": {"config": {}, "class_name": "Zeros"}, "trainable": false, "beta_constraint": null, "momentum": 0.99}, "class_name": "BatchNormalization", "name": "batch_normalization_43", "inbound_nodes": [[["conv2d_43", 0, 0, {}]]]}, {"config": {"center": true, "gamma_initializer": {"config": {}, "class_name": "Ones"}, "epsilon": 0.001, "axis": 3, "name": "batch_normalization_45", "beta_regularizer": null, "gamma_regularizer": null, "moving_variance_initializer": {"config": {}, "class_name": "Ones"}, "beta_initializer": {"config": {}, "class_name": "Zeros"}, "scale": false, "gamma_constraint": null, "moving_mean_initializer": {"config": {}, "class_name": "Zeros"}, "trainable": false, "beta_constraint": null, "momentum": 0.99}, "class_name": "BatchNormalization", "name": "batch_normalization_45", "inbound_nodes": [[["conv2d_45", 0, 0, {}]]]}, {"config": {"center": true, "gamma_initializer": {"config": {}, "class_name": "Ones"}, "epsilon": 0.001, "axis": 3, "name": "batch_normalization_48", "beta_regularizer": null, "gamma_regularizer": null, "moving_variance_initializer": {"config": {}, "class_name": "Ones"}, "beta_initializer": {"config": {}, "class_name": "Zeros"}, "scale": false, "gamma_constraint": null, "moving_mean_initializer": {"config": {}, "class_name": "Zeros"}, "trainable": false, "beta_constraint": null, "momentum": 0.99}, "class_name": "BatchNormalization", "name": "batch_normalization_48", "inbound_nodes": [[["conv2d_48", 0, 0, {}]]]}, {"config": {"trainable": false, "activation": "relu", "name": "activation_43"}, "class_name": "Activation", "name": "activation_43", "inbound_nodes": [[["batch_normalization_43", 0, 0, {}]]]}, {"config": {"trainable": false, "activation": "relu", "name": "activation_45"}, "class_name": "Activation", "name": "activation_45", "inbound_nodes": [[["batch_normalization_45", 0, 0, {}]]]}, {"config": {"trainable": false, "activation": "relu", "name": "activation_48"}, "class_name": "Activation", "name": "activation_48", "inbound_nodes": [[["batch_normalization_48", 0, 0, {}]]]}, {"config": {"trainable": false, "axis": 3, "name": "block35_6_mixed"}, "class_name": "Concatenate", "name": "block35_6_mixed", "inbound_nodes": [[["activation_43", 0, 0, {}], ["activation_45", 0, 0, {}], ["activation_48", 0, 0, {}]]]}, {"config": {"padding": "same", "activation": "linear", "name": "block35_6_conv", "bias_initializer": {"config": {}, "class_name": "Zeros"}, "dilation_rate": [1, 1], "strides": [1, 1], "data_format": "channels_last", "activity_regularizer": null, "filters": 320, "kernel_regularizer": null, "kernel_initializer": {"config": {"scale": 1.0, "seed": null, "mode": "fan_avg", "distribution": "uniform"}, "class_name": "VarianceScaling"}, "bias_regularizer": null, "use_bias": true, "kernel_constraint": null, "bias_constraint": null, "trainable": false, "kernel_size": [1, 1]}, "class_name": "Conv2D", "name": "block35_6_conv", "inbound_nodes": [[["block35_6_mixed", 0, 0, {}]]]}, {"config": {"function": ["4wIAAAAAAAAAAgAAAAMAAABTAAAAcxQAAAB8AABkAQAZfAAAZAIAGXwBABQXUykDTukAAAAA6QEA\nAACpACkC2gZpbnB1dHPaBXNjYWxlcgMAAAByAwAAAPpvQzpcVXNlcnNcSm9lXEFwcERhdGFcTG9j\nYWxcUHJvZ3JhbXNcUHl0aG9uXFB5dGhvbjM1XGxpYlxzaXRlLXBhY2thZ2VzXGtlcmFzXGFwcGxp\nY2F0aW9uc1xpbmNlcHRpb25fcmVzbmV0X3YyLnB52gg8bGFtYmRhPqgAAADzAAAAAA==\n", null, null], "arguments": {"scale": 0.17}, "name": "block35_6", "trainable": false, "output_shape_type": "raw", "output_shape": [35, 35, 320], "function_type": "lambda"}, "class_name": "Lambda", "name": "block35_6", "inbound_nodes": [[["block35_5_ac", 0, 0, {}], ["block35_6_conv", 0, 0, {}]]]}, {"config": {"trainable": false, "activation": "relu", "name": "block35_6_ac"}, "class_name": "Activation", "name": "block35_6_ac", "inbound_nodes": [[["block35_6", 0, 0, {}]]]}, {"config": {"padding": "same", "activation": "linear", "name": "conv2d_52", "bias_initializer": {"config": {}, "class_name": "Zeros"}, "dilation_rate": [1, 1], "strides": [1, 1], "data_format": "channels_last", "activity_regularizer": null, "filters": 32, "kernel_regularizer": null, "kernel_initializer": {"config": {"scale": 1.0, "seed": null, "mode": "fan_avg", "distribution": "uniform"}, "class_name": "VarianceScaling"}, "bias_regularizer": null, "use_bias": false, "kernel_constraint": null, "bias_constraint": null, "trainable": false, "kernel_size": [1, 1]}, "class_name": "Conv2D", "name": "conv2d_52", "inbound_nodes": [[["block35_6_ac", 0, 0, {}]]]}, {"config": {"center": true, "gamma_initializer": {"config": {}, "class_name": "Ones"}, "epsilon": 0.001, "axis": 3, "name": "batch_normalization_52", "beta_regularizer": null, "gamma_regularizer": null, "moving_variance_initializer": {"config": {}, "class_name": "Ones"}, "beta_initializer": {"config": {}, "class_name": "Zeros"}, "scale": false, "gamma_constraint": null, "moving_mean_initializer": {"config": {}, "class_name": "Zeros"}, "trainable": false, "beta_constraint": null, "momentum": 0.99}, "class_name": "BatchNormalization", "name": "batch_normalization_52", "inbound_nodes": [[["conv2d_52", 0, 0, {}]]]}, {"config": {"trainable": false, "activation": "relu", "name": "activation_52"}, "class_name": "Activation", "name": "activation_52", "inbound_nodes": [[["batch_normalization_52", 0, 0, {}]]]}, {"config": {"padding": "same", "activation": "linear", "name": "conv2d_50", "bias_initializer": {"config": {}, "class_name": "Zeros"}, "dilation_rate": [1, 1], "strides": [1, 1], "data_format": "channels_last", "activity_regularizer": null, "filters": 32, "kernel_regularizer": null, "kernel_initializer": {"config": {"scale": 1.0, "seed": null, "mode": "fan_avg", "distribution": "uniform"}, "class_name": "VarianceScaling"}, "bias_regularizer": null, "use_bias": false, "kernel_constraint": null, "bias_constraint": null, "trainable": false, "kernel_size": [1, 1]}, "class_name": "Conv2D", "name": "conv2d_50", "inbound_nodes": [[["block35_6_ac", 0, 0, {}]]]}, {"config": {"padding": "same", "activation": "linear", "name": "conv2d_53", "bias_initializer": {"config": {}, "class_name": "Zeros"}, "dilation_rate": [1, 1], "strides": [1, 1], "data_format": "channels_last", "activity_regularizer": null, "filters": 48, "kernel_regularizer": null, "kernel_initializer": {"config": {"scale": 1.0, "seed": null, "mode": "fan_avg", "distribution": "uniform"}, "class_name": "VarianceScaling"}, "bias_regularizer": null, "use_bias": false, "kernel_constraint": null, "bias_constraint": null, "trainable": false, "kernel_size": [3, 3]}, "class_name": "Conv2D", "name": "conv2d_53", "inbound_nodes": [[["activation_52", 0, 0, {}]]]}, {"config": {"center": true, "gamma_initializer": {"config": {}, "class_name": "Ones"}, "epsilon": 0.001, "axis": 3, "name": "batch_normalization_50", "beta_regularizer": null, "gamma_regularizer": null, "moving_variance_initializer": {"config": {}, "class_name": "Ones"}, "beta_initializer": {"config": {}, "class_name": "Zeros"}, "scale": false, "gamma_constraint": null, "moving_mean_initializer": {"config": {}, "class_name": "Zeros"}, "trainable": false, "beta_constraint": null, "momentum": 0.99}, "class_name": "BatchNormalization", "name": "batch_normalization_50", "inbound_nodes": [[["conv2d_50", 0, 0, {}]]]}, {"config": {"center": true, "gamma_initializer": {"config": {}, "class_name": "Ones"}, "epsilon": 0.001, "axis": 3, "name": "batch_normalization_53", "beta_regularizer": null, "gamma_regularizer": null, "moving_variance_initializer": {"config": {}, "class_name": "Ones"}, "beta_initializer": {"config": {}, "class_name": "Zeros"}, "scale": false, "gamma_constraint": null, "moving_mean_initializer": {"config": {}, "class_name": "Zeros"}, "trainable": false, "beta_constraint": null, "momentum": 0.99}, "class_name": "BatchNormalization", "name": "batch_normalization_53", "inbound_nodes": [[["conv2d_53", 0, 0, {}]]]}, {"config": {"trainable": false, "activation": "relu", "name": "activation_50"}, "class_name": "Activation", "name": "activation_50", "inbound_nodes": [[["batch_normalization_50", 0, 0, {}]]]}, {"config": {"trainable": false, "activation": "relu", "name": "activation_53"}, "class_name": "Activation", "name": "activation_53", "inbound_nodes": [[["batch_normalization_53", 0, 0, {}]]]}, {"config": {"padding": "same", "activation": "linear", "name": "conv2d_49", "bias_initializer": {"config": {}, "class_name": "Zeros"}, "dilation_rate": [1, 1], "strides": [1, 1], "data_format": "channels_last", "activity_regularizer": null, "filters": 32, "kernel_regularizer": null, "kernel_initializer": {"config": {"scale": 1.0, "seed": null, "mode": "fan_avg", "distribution": "uniform"}, "class_name": "VarianceScaling"}, "bias_regularizer": null, "use_bias": false, "kernel_constraint": null, "bias_constraint": null, "trainable": false, "kernel_size": [1, 1]}, "class_name": "Conv2D", "name": "conv2d_49", "inbound_nodes": [[["block35_6_ac", 0, 0, {}]]]}, {"config": {"padding": "same", "activation": "linear", "name": "conv2d_51", "bias_initializer": {"config": {}, "class_name": "Zeros"}, "dilation_rate": [1, 1], "strides": [1, 1], "data_format": "channels_last", "activity_regularizer": null, "filters": 32, "kernel_regularizer": null, "kernel_initializer": {"config": {"scale": 1.0, "seed": null, "mode": "fan_avg", "distribution": "uniform"}, "class_name": "VarianceScaling"}, "bias_regularizer": null, "use_bias": false, "kernel_constraint": null, "bias_constraint": null, "trainable": false, "kernel_size": [3, 3]}, "class_name": "Conv2D", "name": "conv2d_51", "inbound_nodes": [[["activation_50", 0, 0, {}]]]}, {"config": {"padding": "same", "activation": "linear", "name": "conv2d_54", "bias_initializer": {"config": {}, "class_name": "Zeros"}, "dilation_rate": [1, 1], "strides": [1, 1], "data_format": "channels_last", "activity_regularizer": null, "filters": 64, "kernel_regularizer": null, "kernel_initializer": {"config": {"scale": 1.0, "seed": null, "mode": "fan_avg", "distribution": "uniform"}, "class_name": "VarianceScaling"}, "bias_regularizer": null, "use_bias": false, "kernel_constraint": null, "bias_constraint": null, "trainable": false, "kernel_size": [3, 3]}, "class_name": "Conv2D", "name": "conv2d_54", "inbound_nodes": [[["activation_53", 0, 0, {}]]]}, {"config": {"center": true, "gamma_initializer": {"config": {}, "class_name": "Ones"}, "epsilon": 0.001, "axis": 3, "name": "batch_normalization_49", "beta_regularizer": null, "gamma_regularizer": null, "moving_variance_initializer": {"config": {}, "class_name": "Ones"}, "beta_initializer": {"config": {}, "class_name": "Zeros"}, "scale": false, "gamma_constraint": null, "moving_mean_initializer": {"config": {}, "class_name": "Zeros"}, "trainable": false, "beta_constraint": null, "momentum": 0.99}, "class_name": "BatchNormalization", "name": "batch_normalization_49", "inbound_nodes": [[["conv2d_49", 0, 0, {}]]]}, {"config": {"center": true, "gamma_initializer": {"config": {}, "class_name": "Ones"}, "epsilon": 0.001, "axis": 3, "name": "batch_normalization_51", "beta_regularizer": null, "gamma_regularizer": null, "moving_variance_initializer": {"config": {}, "class_name": "Ones"}, "beta_initializer": {"config": {}, "class_name": "Zeros"}, "scale": false, "gamma_constraint": null, "moving_mean_initializer": {"config": {}, "class_name": "Zeros"}, "trainable": false, "beta_constraint": null, "momentum": 0.99}, "class_name": "BatchNormalization", "name": "batch_normalization_51", "inbound_nodes": [[["conv2d_51", 0, 0, {}]]]}, {"config": {"center": true, "gamma_initializer": {"config": {}, "class_name": "Ones"}, "epsilon": 0.001, "axis": 3, "name": "batch_normalization_54", "beta_regularizer": null, "gamma_regularizer": null, "moving_variance_initializer": {"config": {}, "class_name": "Ones"}, "beta_initializer": {"config": {}, "class_name": "Zeros"}, "scale": false, "gamma_constraint": null, "moving_mean_initializer": {"config": {}, "class_name": "Zeros"}, "trainable": false, "beta_constraint": null, "momentum": 0.99}, "class_name": "BatchNormalization", "name": "batch_normalization_54", "inbound_nodes": [[["conv2d_54", 0, 0, {}]]]}, {"config": {"trainable": false, "activation": "relu", "name": "activation_49"}, "class_name": "Activation", "name": "activation_49", "inbound_nodes": [[["batch_normalization_49", 0, 0, {}]]]}, {"config": {"trainable": false, "activation": "relu", "name": "activation_51"}, "class_name": "Activation", "name": "activation_51", "inbound_nodes": [[["batch_normalization_51", 0, 0, {}]]]}, {"config": {"trainable": false, "activation": "relu", "name": "activation_54"}, "class_name": "Activation", "name": "activation_54", "inbound_nodes": [[["batch_normalization_54", 0, 0, {}]]]}, {"config": {"trainable": false, "axis": 3, "name": "block35_7_mixed"}, "class_name": "Concatenate", "name": "block35_7_mixed", "inbound_nodes": [[["activation_49", 0, 0, {}], ["activation_51", 0, 0, {}], ["activation_54", 0, 0, {}]]]}, {"config": {"padding": "same", "activation": "linear", "name": "block35_7_conv", "bias_initializer": {"config": {}, "class_name": "Zeros"}, "dilation_rate": [1, 1], "strides": [1, 1], "data_format": "channels_last", "activity_regularizer": null, "filters": 320, "kernel_regularizer": null, "kernel_initializer": {"config": {"scale": 1.0, "seed": null, "mode": "fan_avg", "distribution": "uniform"}, "class_name": "VarianceScaling"}, "bias_regularizer": null, "use_bias": true, "kernel_constraint": null, "bias_constraint": null, "trainable": false, "kernel_size": [1, 1]}, "class_name": "Conv2D", "name": "block35_7_conv", "inbound_nodes": [[["block35_7_mixed", 0, 0, {}]]]}, {"config": {"function": ["4wIAAAAAAAAAAgAAAAMAAABTAAAAcxQAAAB8AABkAQAZfAAAZAIAGXwBABQXUykDTukAAAAA6QEA\nAACpACkC2gZpbnB1dHPaBXNjYWxlcgMAAAByAwAAAPpvQzpcVXNlcnNcSm9lXEFwcERhdGFcTG9j\nYWxcUHJvZ3JhbXNcUHl0aG9uXFB5dGhvbjM1XGxpYlxzaXRlLXBhY2thZ2VzXGtlcmFzXGFwcGxp\nY2F0aW9uc1xpbmNlcHRpb25fcmVzbmV0X3YyLnB52gg8bGFtYmRhPqgAAADzAAAAAA==\n", null, null], "arguments": {"scale": 0.17}, "name": "block35_7", "trainable": false, "output_shape_type": "raw", "output_shape": [35, 35, 320], "function_type": "lambda"}, "class_name": "Lambda", "name": "block35_7", "inbound_nodes": [[["block35_6_ac", 0, 0, {}], ["block35_7_conv", 0, 0, {}]]]}, {"config": {"trainable": false, "activation": "relu", "name": "block35_7_ac"}, "class_name": "Activation", "name": "block35_7_ac", "inbound_nodes": [[["block35_7", 0, 0, {}]]]}, {"config": {"padding": "same", "activation": "linear", "name": "conv2d_58", "bias_initializer": {"config": {}, "class_name": "Zeros"}, "dilation_rate": [1, 1], "strides": [1, 1], "data_format": "channels_last", "activity_regularizer": null, "filters": 32, "kernel_regularizer": null, "kernel_initializer": {"config": {"scale": 1.0, "seed": null, "mode": "fan_avg", "distribution": "uniform"}, "class_name": "VarianceScaling"}, "bias_regularizer": null, "use_bias": false, "kernel_constraint": null, "bias_constraint": null, "trainable": false, "kernel_size": [1, 1]}, "class_name": "Conv2D", "name": "conv2d_58", "inbound_nodes": [[["block35_7_ac", 0, 0, {}]]]}, {"config": {"center": true, "gamma_initializer": {"config": {}, "class_name": "Ones"}, "epsilon": 0.001, "axis": 3, "name": "batch_normalization_58", "beta_regularizer": null, "gamma_regularizer": null, "moving_variance_initializer": {"config": {}, "class_name": "Ones"}, "beta_initializer": {"config": {}, "class_name": "Zeros"}, "scale": false, "gamma_constraint": null, "moving_mean_initializer": {"config": {}, "class_name": "Zeros"}, "trainable": false, "beta_constraint": null, "momentum": 0.99}, "class_name": "BatchNormalization", "name": "batch_normalization_58", "inbound_nodes": [[["conv2d_58", 0, 0, {}]]]}, {"config": {"trainable": false, "activation": "relu", "name": "activation_58"}, "class_name": "Activation", "name": "activation_58", "inbound_nodes": [[["batch_normalization_58", 0, 0, {}]]]}, {"config": {"padding": "same", "activation": "linear", "name": "conv2d_56", "bias_initializer": {"config": {}, "class_name": "Zeros"}, "dilation_rate": [1, 1], "strides": [1, 1], "data_format": "channels_last", "activity_regularizer": null, "filters": 32, "kernel_regularizer": null, "kernel_initializer": {"config": {"scale": 1.0, "seed": null, "mode": "fan_avg", "distribution": "uniform"}, "class_name": "VarianceScaling"}, "bias_regularizer": null, "use_bias": false, "kernel_constraint": null, "bias_constraint": null, "trainable": false, "kernel_size": [1, 1]}, "class_name": "Conv2D", "name": "conv2d_56", "inbound_nodes": [[["block35_7_ac", 0, 0, {}]]]}, {"config": {"padding": "same", "activation": "linear", "name": "conv2d_59", "bias_initializer": {"config": {}, "class_name": "Zeros"}, "dilation_rate": [1, 1], "strides": [1, 1], "data_format": "channels_last", "activity_regularizer": null, "filters": 48, "kernel_regularizer": null, "kernel_initializer": {"config": {"scale": 1.0, "seed": null, "mode": "fan_avg", "distribution": "uniform"}, "class_name": "VarianceScaling"}, "bias_regularizer": null, "use_bias": false, "kernel_constraint": null, "bias_constraint": null, "trainable": false, "kernel_size": [3, 3]}, "class_name": "Conv2D", "name": "conv2d_59", "inbound_nodes": [[["activation_58", 0, 0, {}]]]}, {"config": {"center": true, "gamma_initializer": {"config": {}, "class_name": "Ones"}, "epsilon": 0.001, "axis": 3, "name": "batch_normalization_56", "beta_regularizer": null, "gamma_regularizer": null, "moving_variance_initializer": {"config": {}, "class_name": "Ones"}, "beta_initializer": {"config": {}, "class_name": "Zeros"}, "scale": false, "gamma_constraint": null, "moving_mean_initializer": {"config": {}, "class_name": "Zeros"}, "trainable": false, "beta_constraint": null, "momentum": 0.99}, "class_name": "BatchNormalization", "name": "batch_normalization_56", "inbound_nodes": [[["conv2d_56", 0, 0, {}]]]}, {"config": {"center": true, "gamma_initializer": {"config": {}, "class_name": "Ones"}, "epsilon": 0.001, "axis": 3, "name": "batch_normalization_59", "beta_regularizer": null, "gamma_regularizer": null, "moving_variance_initializer": {"config": {}, "class_name": "Ones"}, "beta_initializer": {"config": {}, "class_name": "Zeros"}, "scale": false, "gamma_constraint": null, "moving_mean_initializer": {"config": {}, "class_name": "Zeros"}, "trainable": false, "beta_constraint": null, "momentum": 0.99}, "class_name": "BatchNormalization", "name": "batch_normalization_59", "inbound_nodes": [[["conv2d_59", 0, 0, {}]]]}, {"config": {"trainable": false, "activation": "relu", "name": "activation_56"}, "class_name": "Activation", "name": "activation_56", "inbound_nodes": [[["batch_normalization_56", 0, 0, {}]]]}, {"config": {"trainable": false, "activation": "relu", "name": "activation_59"}, "class_name": "Activation", "name": "activation_59", "inbound_nodes": [[["batch_normalization_59", 0, 0, {}]]]}, {"config": {"padding": "same", "activation": "linear", "name": "conv2d_55", "bias_initializer": {"config": {}, "class_name": "Zeros"}, "dilation_rate": [1, 1], "strides": [1, 1], "data_format": "channels_last", "activity_regularizer": null, "filters": 32, "kernel_regularizer": null, "kernel_initializer": {"config": {"scale": 1.0, "seed": null, "mode": "fan_avg", "distribution": "uniform"}, "class_name": "VarianceScaling"}, "bias_regularizer": null, "use_bias": false, "kernel_constraint": null, "bias_constraint": null, "trainable": false, "kernel_size": [1, 1]}, "class_name": "Conv2D", "name": "conv2d_55", "inbound_nodes": [[["block35_7_ac", 0, 0, {}]]]}, {"config": {"padding": "same", "activation": "linear", "name": "conv2d_57", "bias_initializer": {"config": {}, "class_name": "Zeros"}, "dilation_rate": [1, 1], "strides": [1, 1], "data_format": "channels_last", "activity_regularizer": null, "filters": 32, "kernel_regularizer": null, "kernel_initializer": {"config": {"scale": 1.0, "seed": null, "mode": "fan_avg", "distribution": "uniform"}, "class_name": "VarianceScaling"}, "bias_regularizer": null, "use_bias": false, "kernel_constraint": null, "bias_constraint": null, "trainable": false, "kernel_size": [3, 3]}, "class_name": "Conv2D", "name": "conv2d_57", "inbound_nodes": [[["activation_56", 0, 0, {}]]]}, {"config": {"padding": "same", "activation": "linear", "name": "conv2d_60", "bias_initializer": {"config": {}, "class_name": "Zeros"}, "dilation_rate": [1, 1], "strides": [1, 1], "data_format": "channels_last", "activity_regularizer": null, "filters": 64, "kernel_regularizer": null, "kernel_initializer": {"config": {"scale": 1.0, "seed": null, "mode": "fan_avg", "distribution": "uniform"}, "class_name": "VarianceScaling"}, "bias_regularizer": null, "use_bias": false, "kernel_constraint": null, "bias_constraint": null, "trainable": false, "kernel_size": [3, 3]}, "class_name": "Conv2D", "name": "conv2d_60", "inbound_nodes": [[["activation_59", 0, 0, {}]]]}, {"config": {"center": true, "gamma_initializer": {"config": {}, "class_name": "Ones"}, "epsilon": 0.001, "axis": 3, "name": "batch_normalization_55", "beta_regularizer": null, "gamma_regularizer": null, "moving_variance_initializer": {"config": {}, "class_name": "Ones"}, "beta_initializer": {"config": {}, "class_name": "Zeros"}, "scale": false, "gamma_constraint": null, "moving_mean_initializer": {"config": {}, "class_name": "Zeros"}, "trainable": false, "beta_constraint": null, "momentum": 0.99}, "class_name": "BatchNormalization", "name": "batch_normalization_55", "inbound_nodes": [[["conv2d_55", 0, 0, {}]]]}, {"config": {"center": true, "gamma_initializer": {"config": {}, "class_name": "Ones"}, "epsilon": 0.001, "axis": 3, "name": "batch_normalization_57", "beta_regularizer": null, "gamma_regularizer": null, "moving_variance_initializer": {"config": {}, "class_name": "Ones"}, "beta_initializer": {"config": {}, "class_name": "Zeros"}, "scale": false, "gamma_constraint": null, "moving_mean_initializer": {"config": {}, "class_name": "Zeros"}, "trainable": false, "beta_constraint": null, "momentum": 0.99}, "class_name": "BatchNormalization", "name": "batch_normalization_57", "inbound_nodes": [[["conv2d_57", 0, 0, {}]]]}, {"config": {"center": true, "gamma_initializer": {"config": {}, "class_name": "Ones"}, "epsilon": 0.001, "axis": 3, "name": "batch_normalization_60", "beta_regularizer": null, "gamma_regularizer": null, "moving_variance_initializer": {"config": {}, "class_name": "Ones"}, "beta_initializer": {"config": {}, "class_name": "Zeros"}, "scale": false, "gamma_constraint": null, "moving_mean_initializer": {"config": {}, "class_name": "Zeros"}, "trainable": false, "beta_constraint": null, "momentum": 0.99}, "class_name": "BatchNormalization", "name": "batch_normalization_60", "inbound_nodes": [[["conv2d_60", 0, 0, {}]]]}, {"config": {"trainable": false, "activation": "relu", "name": "activation_55"}, "class_name": "Activation", "name": "activation_55", "inbound_nodes": [[["batch_normalization_55", 0, 0, {}]]]}, {"config": {"trainable": false, "activation": "relu", "name": "activation_57"}, "class_name": "Activation", "name": "activation_57", "inbound_nodes": [[["batch_normalization_57", 0, 0, {}]]]}, {"config": {"trainable": false, "activation": "relu", "name": "activation_60"}, "class_name": "Activation", "name": "activation_60", "inbound_nodes": [[["batch_normalization_60", 0, 0, {}]]]}, {"config": {"trainable": false, "axis": 3, "name": "block35_8_mixed"}, "class_name": "Concatenate", "name": "block35_8_mixed", "inbound_nodes": [[["activation_55", 0, 0, {}], ["activation_57", 0, 0, {}], ["activation_60", 0, 0, {}]]]}, {"config": {"padding": "same", "activation": "linear", "name": "block35_8_conv", "bias_initializer": {"config": {}, "class_name": "Zeros"}, "dilation_rate": [1, 1], "strides": [1, 1], "data_format": "channels_last", "activity_regularizer": null, "filters": 320, "kernel_regularizer": null, "kernel_initializer": {"config": {"scale": 1.0, "seed": null, "mode": "fan_avg", "distribution": "uniform"}, "class_name": "VarianceScaling"}, "bias_regularizer": null, "use_bias": true, "kernel_constraint": null, "bias_constraint": null, "trainable": false, "kernel_size": [1, 1]}, "class_name": "Conv2D", "name": "block35_8_conv", "inbound_nodes": [[["block35_8_mixed", 0, 0, {}]]]}, {"config": {"function": ["4wIAAAAAAAAAAgAAAAMAAABTAAAAcxQAAAB8AABkAQAZfAAAZAIAGXwBABQXUykDTukAAAAA6QEA\nAACpACkC2gZpbnB1dHPaBXNjYWxlcgMAAAByAwAAAPpvQzpcVXNlcnNcSm9lXEFwcERhdGFcTG9j\nYWxcUHJvZ3JhbXNcUHl0aG9uXFB5dGhvbjM1XGxpYlxzaXRlLXBhY2thZ2VzXGtlcmFzXGFwcGxp\nY2F0aW9uc1xpbmNlcHRpb25fcmVzbmV0X3YyLnB52gg8bGFtYmRhPqgAAADzAAAAAA==\n", null, null], "arguments": {"scale": 0.17}, "name": "block35_8", "trainable": false, "output_shape_type": "raw", "output_shape": [35, 35, 320], "function_type": "lambda"}, "class_name": "Lambda", "name": "block35_8", "inbound_nodes": [[["block35_7_ac", 0, 0, {}], ["block35_8_conv", 0, 0, {}]]]}, {"config": {"trainable": false, "activation": "relu", "name": "block35_8_ac"}, "class_name": "Activation", "name": "block35_8_ac", "inbound_nodes": [[["block35_8", 0, 0, {}]]]}, {"config": {"padding": "same", "activation": "linear", "name": "conv2d_64", "bias_initializer": {"config": {}, "class_name": "Zeros"}, "dilation_rate": [1, 1], "strides": [1, 1], "data_format": "channels_last", "activity_regularizer": null, "filters": 32, "kernel_regularizer": null, "kernel_initializer": {"config": {"scale": 1.0, "seed": null, "mode": "fan_avg", "distribution": "uniform"}, "class_name": "VarianceScaling"}, "bias_regularizer": null, "use_bias": false, "kernel_constraint": null, "bias_constraint": null, "trainable": false, "kernel_size": [1, 1]}, "class_name": "Conv2D", "name": "conv2d_64", "inbound_nodes": [[["block35_8_ac", 0, 0, {}]]]}, {"config": {"center": true, "gamma_initializer": {"config": {}, "class_name": "Ones"}, "epsilon": 0.001, "axis": 3, "name": "batch_normalization_64", "beta_regularizer": null, "gamma_regularizer": null, "moving_variance_initializer": {"config": {}, "class_name": "Ones"}, "beta_initializer": {"config": {}, "class_name": "Zeros"}, "scale": false, "gamma_constraint": null, "moving_mean_initializer": {"config": {}, "class_name": "Zeros"}, "trainable": false, "beta_constraint": null, "momentum": 0.99}, "class_name": "BatchNormalization", "name": "batch_normalization_64", "inbound_nodes": [[["conv2d_64", 0, 0, {}]]]}, {"config": {"trainable": false, "activation": "relu", "name": "activation_64"}, "class_name": "Activation", "name": "activation_64", "inbound_nodes": [[["batch_normalization_64", 0, 0, {}]]]}, {"config": {"padding": "same", "activation": "linear", "name": "conv2d_62", "bias_initializer": {"config": {}, "class_name": "Zeros"}, "dilation_rate": [1, 1], "strides": [1, 1], "data_format": "channels_last", "activity_regularizer": null, "filters": 32, "kernel_regularizer": null, "kernel_initializer": {"config": {"scale": 1.0, "seed": null, "mode": "fan_avg", "distribution": "uniform"}, "class_name": "VarianceScaling"}, "bias_regularizer": null, "use_bias": false, "kernel_constraint": null, "bias_constraint": null, "trainable": false, "kernel_size": [1, 1]}, "class_name": "Conv2D", "name": "conv2d_62", "inbound_nodes": [[["block35_8_ac", 0, 0, {}]]]}, {"config": {"padding": "same", "activation": "linear", "name": "conv2d_65", "bias_initializer": {"config": {}, "class_name": "Zeros"}, "dilation_rate": [1, 1], "strides": [1, 1], "data_format": "channels_last", "activity_regularizer": null, "filters": 48, "kernel_regularizer": null, "kernel_initializer": {"config": {"scale": 1.0, "seed": null, "mode": "fan_avg", "distribution": "uniform"}, "class_name": "VarianceScaling"}, "bias_regularizer": null, "use_bias": false, "kernel_constraint": null, "bias_constraint": null, "trainable": false, "kernel_size": [3, 3]}, "class_name": "Conv2D", "name": "conv2d_65", "inbound_nodes": [[["activation_64", 0, 0, {}]]]}, {"config": {"center": true, "gamma_initializer": {"config": {}, "class_name": "Ones"}, "epsilon": 0.001, "axis": 3, "name": "batch_normalization_62", "beta_regularizer": null, "gamma_regularizer": null, "moving_variance_initializer": {"config": {}, "class_name": "Ones"}, "beta_initializer": {"config": {}, "class_name": "Zeros"}, "scale": false, "gamma_constraint": null, "moving_mean_initializer": {"config": {}, "class_name": "Zeros"}, "trainable": false, "beta_constraint": null, "momentum": 0.99}, "class_name": "BatchNormalization", "name": "batch_normalization_62", "inbound_nodes": [[["conv2d_62", 0, 0, {}]]]}, {"config": {"center": true, "gamma_initializer": {"config": {}, "class_name": "Ones"}, "epsilon": 0.001, "axis": 3, "name": "batch_normalization_65", "beta_regularizer": null, "gamma_regularizer": null, "moving_variance_initializer": {"config": {}, "class_name": "Ones"}, "beta_initializer": {"config": {}, "class_name": "Zeros"}, "scale": false, "gamma_constraint": null, "moving_mean_initializer": {"config": {}, "class_name": "Zeros"}, "trainable": false, "beta_constraint": null, "momentum": 0.99}, "class_name": "BatchNormalization", "name": "batch_normalization_65", "inbound_nodes": [[["conv2d_65", 0, 0, {}]]]}, {"config": {"trainable": false, "activation": "relu", "name": "activation_62"}, "class_name": "Activation", "name": "activation_62", "inbound_nodes": [[["batch_normalization_62", 0, 0, {}]]]}, {"config": {"trainable": false, "activation": "relu", "name": "activation_65"}, "class_name": "Activation", "name": "activation_65", "inbound_nodes": [[["batch_normalization_65", 0, 0, {}]]]}, {"config": {"padding": "same", "activation": "linear", "name": "conv2d_61", "bias_initializer": {"config": {}, "class_name": "Zeros"}, "dilation_rate": [1, 1], "strides": [1, 1], "data_format": "channels_last", "activity_regularizer": null, "filters": 32, "kernel_regularizer": null, "kernel_initializer": {"config": {"scale": 1.0, "seed": null, "mode": "fan_avg", "distribution": "uniform"}, "class_name": "VarianceScaling"}, "bias_regularizer": null, "use_bias": false, "kernel_constraint": null, "bias_constraint": null, "trainable": false, "kernel_size": [1, 1]}, "class_name": "Conv2D", "name": "conv2d_61", "inbound_nodes": [[["block35_8_ac", 0, 0, {}]]]}, {"config": {"padding": "same", "activation": "linear", "name": "conv2d_63", "bias_initializer": {"config": {}, "class_name": "Zeros"}, "dilation_rate": [1, 1], "strides": [1, 1], "data_format": "channels_last", "activity_regularizer": null, "filters": 32, "kernel_regularizer": null, "kernel_initializer": {"config": {"scale": 1.0, "seed": null, "mode": "fan_avg", "distribution": "uniform"}, "class_name": "VarianceScaling"}, "bias_regularizer": null, "use_bias": false, "kernel_constraint": null, "bias_constraint": null, "trainable": false, "kernel_size": [3, 3]}, "class_name": "Conv2D", "name": "conv2d_63", "inbound_nodes": [[["activation_62", 0, 0, {}]]]}, {"config": {"padding": "same", "activation": "linear", "name": "conv2d_66", "bias_initializer": {"config": {}, "class_name": "Zeros"}, "dilation_rate": [1, 1], "strides": [1, 1], "data_format": "channels_last", "activity_regularizer": null, "filters": 64, "kernel_regularizer": null, "kernel_initializer": {"config": {"scale": 1.0, "seed": null, "mode": "fan_avg", "distribution": "uniform"}, "class_name": "VarianceScaling"}, "bias_regularizer": null, "use_bias": false, "kernel_constraint": null, "bias_constraint": null, "trainable": false, "kernel_size": [3, 3]}, "class_name": "Conv2D", "name": "conv2d_66", "inbound_nodes": [[["activation_65", 0, 0, {}]]]}, {"config": {"center": true, "gamma_initializer": {"config": {}, "class_name": "Ones"}, "epsilon": 0.001, "axis": 3, "name": "batch_normalization_61", "beta_regularizer": null, "gamma_regularizer": null, "moving_variance_initializer": {"config": {}, "class_name": "Ones"}, "beta_initializer": {"config": {}, "class_name": "Zeros"}, "scale": false, "gamma_constraint": null, "moving_mean_initializer": {"config": {}, "class_name": "Zeros"}, "trainable": false, "beta_constraint": null, "momentum": 0.99}, "class_name": "BatchNormalization", "name": "batch_normalization_61", "inbound_nodes": [[["conv2d_61", 0, 0, {}]]]}, {"config": {"center": true, "gamma_initializer": {"config": {}, "class_name": "Ones"}, "epsilon": 0.001, "axis": 3, "name": "batch_normalization_63", "beta_regularizer": null, "gamma_regularizer": null, "moving_variance_initializer": {"config": {}, "class_name": "Ones"}, "beta_initializer": {"config": {}, "class_name": "Zeros"}, "scale": false, "gamma_constraint": null, "moving_mean_initializer": {"config": {}, "class_name": "Zeros"}, "trainable": false, "beta_constraint": null, "momentum": 0.99}, "class_name": "BatchNormalization", "name": "batch_normalization_63", "inbound_nodes": [[["conv2d_63", 0, 0, {}]]]}, {"config": {"center": true, "gamma_initializer": {"config": {}, "class_name": "Ones"}, "epsilon": 0.001, "axis": 3, "name": "batch_normalization_66", "beta_regularizer": null, "gamma_regularizer": null, "moving_variance_initializer": {"config": {}, "class_name": "Ones"}, "beta_initializer": {"config": {}, "class_name": "Zeros"}, "scale": false, "gamma_constraint": null, "moving_mean_initializer": {"config": {}, "class_name": "Zeros"}, "trainable": false, "beta_constraint": null, "momentum": 0.99}, "class_name": "BatchNormalization", "name": "batch_normalization_66", "inbound_nodes": [[["conv2d_66", 0, 0, {}]]]}, {"config": {"trainable": false, "activation": "relu", "name": "activation_61"}, "class_name": "Activation", "name": "activation_61", "inbound_nodes": [[["batch_normalization_61", 0, 0, {}]]]}, {"config": {"trainable": false, "activation": "relu", "name": "activation_63"}, "class_name": "Activation", "name": "activation_63", "inbound_nodes": [[["batch_normalization_63", 0, 0, {}]]]}, {"config": {"trainable": false, "activation": "relu", "name": "activation_66"}, "class_name": "Activation", "name": "activation_66", "inbound_nodes": [[["batch_normalization_66", 0, 0, {}]]]}, {"config": {"trainable": false, "axis": 3, "name": "block35_9_mixed"}, "class_name": "Concatenate", "name": "block35_9_mixed", "inbound_nodes": [[["activation_61", 0, 0, {}], ["activation_63", 0, 0, {}], ["activation_66", 0, 0, {}]]]}, {"config": {"padding": "same", "activation": "linear", "name": "block35_9_conv", "bias_initializer": {"config": {}, "class_name": "Zeros"}, "dilation_rate": [1, 1], "strides": [1, 1], "data_format": "channels_last", "activity_regularizer": null, "filters": 320, "kernel_regularizer": null, "kernel_initializer": {"config": {"scale": 1.0, "seed": null, "mode": "fan_avg", "distribution": "uniform"}, "class_name": "VarianceScaling"}, "bias_regularizer": null, "use_bias": true, "kernel_constraint": null, "bias_constraint": null, "trainable": false, "kernel_size": [1, 1]}, "class_name": "Conv2D", "name": "block35_9_conv", "inbound_nodes": [[["block35_9_mixed", 0, 0, {}]]]}, {"config": {"function": ["4wIAAAAAAAAAAgAAAAMAAABTAAAAcxQAAAB8AABkAQAZfAAAZAIAGXwBABQXUykDTukAAAAA6QEA\nAACpACkC2gZpbnB1dHPaBXNjYWxlcgMAAAByAwAAAPpvQzpcVXNlcnNcSm9lXEFwcERhdGFcTG9j\nYWxcUHJvZ3JhbXNcUHl0aG9uXFB5dGhvbjM1XGxpYlxzaXRlLXBhY2thZ2VzXGtlcmFzXGFwcGxp\nY2F0aW9uc1xpbmNlcHRpb25fcmVzbmV0X3YyLnB52gg8bGFtYmRhPqgAAADzAAAAAA==\n", null, null], "arguments": {"scale": 0.17}, "name": "block35_9", "trainable": false, "output_shape_type": "raw", "output_shape": [35, 35, 320], "function_type": "lambda"}, "class_name": "Lambda", "name": "block35_9", "inbound_nodes": [[["block35_8_ac", 0, 0, {}], ["block35_9_conv", 0, 0, {}]]]}, {"config": {"trainable": false, "activation": "relu", "name": "block35_9_ac"}, "class_name": "Activation", "name": "block35_9_ac", "inbound_nodes": [[["block35_9", 0, 0, {}]]]}, {"config": {"padding": "same", "activation": "linear", "name": "conv2d_70", "bias_initializer": {"config": {}, "class_name": "Zeros"}, "dilation_rate": [1, 1], "strides": [1, 1], "data_format": "channels_last", "activity_regularizer": null, "filters": 32, "kernel_regularizer": null, "kernel_initializer": {"config": {"scale": 1.0, "seed": null, "mode": "fan_avg", "distribution": "uniform"}, "class_name": "VarianceScaling"}, "bias_regularizer": null, "use_bias": false, "kernel_constraint": null, "bias_constraint": null, "trainable": false, "kernel_size": [1, 1]}, "class_name": "Conv2D", "name": "conv2d_70", "inbound_nodes": [[["block35_9_ac", 0, 0, {}]]]}, {"config": {"center": true, "gamma_initializer": {"config": {}, "class_name": "Ones"}, "epsilon": 0.001, "axis": 3, "name": "batch_normalization_70", "beta_regularizer": null, "gamma_regularizer": null, "moving_variance_initializer": {"config": {}, "class_name": "Ones"}, "beta_initializer": {"config": {}, "class_name": "Zeros"}, "scale": false, "gamma_constraint": null, "moving_mean_initializer": {"config": {}, "class_name": "Zeros"}, "trainable": false, "beta_constraint": null, "momentum": 0.99}, "class_name": "BatchNormalization", "name": "batch_normalization_70", "inbound_nodes": [[["conv2d_70", 0, 0, {}]]]}, {"config": {"trainable": false, "activation": "relu", "name": "activation_70"}, "class_name": "Activation", "name": "activation_70", "inbound_nodes": [[["batch_normalization_70", 0, 0, {}]]]}, {"config": {"padding": "same", "activation": "linear", "name": "conv2d_68", "bias_initializer": {"config": {}, "class_name": "Zeros"}, "dilation_rate": [1, 1], "strides": [1, 1], "data_format": "channels_last", "activity_regularizer": null, "filters": 32, "kernel_regularizer": null, "kernel_initializer": {"config": {"scale": 1.0, "seed": null, "mode": "fan_avg", "distribution": "uniform"}, "class_name": "VarianceScaling"}, "bias_regularizer": null, "use_bias": false, "kernel_constraint": null, "bias_constraint": null, "trainable": false, "kernel_size": [1, 1]}, "class_name": "Conv2D", "name": "conv2d_68", "inbound_nodes": [[["block35_9_ac", 0, 0, {}]]]}, {"config": {"padding": "same", "activation": "linear", "name": "conv2d_71", "bias_initializer": {"config": {}, "class_name": "Zeros"}, "dilation_rate": [1, 1], "strides": [1, 1], "data_format": "channels_last", "activity_regularizer": null, "filters": 48, "kernel_regularizer": null, "kernel_initializer": {"config": {"scale": 1.0, "seed": null, "mode": "fan_avg", "distribution": "uniform"}, "class_name": "VarianceScaling"}, "bias_regularizer": null, "use_bias": false, "kernel_constraint": null, "bias_constraint": null, "trainable": false, "kernel_size": [3, 3]}, "class_name": "Conv2D", "name": "conv2d_71", "inbound_nodes": [[["activation_70", 0, 0, {}]]]}, {"config": {"center": true, "gamma_initializer": {"config": {}, "class_name": "Ones"}, "epsilon": 0.001, "axis": 3, "name": "batch_normalization_68", "beta_regularizer": null, "gamma_regularizer": null, "moving_variance_initializer": {"config": {}, "class_name": "Ones"}, "beta_initializer": {"config": {}, "class_name": "Zeros"}, "scale": false, "gamma_constraint": null, "moving_mean_initializer": {"config": {}, "class_name": "Zeros"}, "trainable": false, "beta_constraint": null, "momentum": 0.99}, "class_name": "BatchNormalization", "name": "batch_normalization_68", "inbound_nodes": [[["conv2d_68", 0, 0, {}]]]}, {"config": {"center": true, "gamma_initializer": {"config": {}, "class_name": "Ones"}, "epsilon": 0.001, "axis": 3, "name": "batch_normalization_71", "beta_regularizer": null, "gamma_regularizer": null, "moving_variance_initializer": {"config": {}, "class_name": "Ones"}, "beta_initializer": {"config": {}, "class_name": "Zeros"}, "scale": false, "gamma_constraint": null, "moving_mean_initializer": {"config": {}, "class_name": "Zeros"}, "trainable": false, "beta_constraint": null, "momentum": 0.99}, "class_name": "BatchNormalization", "name": "batch_normalization_71", "inbound_nodes": [[["conv2d_71", 0, 0, {}]]]}, {"config": {"trainable": false, "activation": "relu", "name": "activation_68"}, "class_name": "Activation", "name": "activation_68", "inbound_nodes": [[["batch_normalization_68", 0, 0, {}]]]}, {"config": {"trainable": false, "activation": "relu", "name": "activation_71"}, "class_name": "Activation", "name": "activation_71", "inbound_nodes": [[["batch_normalization_71", 0, 0, {}]]]}, {"config": {"padding": "same", "activation": "linear", "name": "conv2d_67", "bias_initializer": {"config": {}, "class_name": "Zeros"}, "dilation_rate": [1, 1], "strides": [1, 1], "data_format": "channels_last", "activity_regularizer": null, "filters": 32, "kernel_regularizer": null, "kernel_initializer": {"config": {"scale": 1.0, "seed": null, "mode": "fan_avg", "distribution": "uniform"}, "class_name": "VarianceScaling"}, "bias_regularizer": null, "use_bias": false, "kernel_constraint": null, "bias_constraint": null, "trainable": false, "kernel_size": [1, 1]}, "class_name": "Conv2D", "name": "conv2d_67", "inbound_nodes": [[["block35_9_ac", 0, 0, {}]]]}, {"config": {"padding": "same", "activation": "linear", "name": "conv2d_69", "bias_initializer": {"config": {}, "class_name": "Zeros"}, "dilation_rate": [1, 1], "strides": [1, 1], "data_format": "channels_last", "activity_regularizer": null, "filters": 32, "kernel_regularizer": null, "kernel_initializer": {"config": {"scale": 1.0, "seed": null, "mode": "fan_avg", "distribution": "uniform"}, "class_name": "VarianceScaling"}, "bias_regularizer": null, "use_bias": false, "kernel_constraint": null, "bias_constraint": null, "trainable": false, "kernel_size": [3, 3]}, "class_name": "Conv2D", "name": "conv2d_69", "inbound_nodes": [[["activation_68", 0, 0, {}]]]}, {"config": {"padding": "same", "activation": "linear", "name": "conv2d_72", "bias_initializer": {"config": {}, "class_name": "Zeros"}, "dilation_rate": [1, 1], "strides": [1, 1], "data_format": "channels_last", "activity_regularizer": null, "filters": 64, "kernel_regularizer": null, "kernel_initializer": {"config": {"scale": 1.0, "seed": null, "mode": "fan_avg", "distribution": "uniform"}, "class_name": "VarianceScaling"}, "bias_regularizer": null, "use_bias": false, "kernel_constraint": null, "bias_constraint": null, "trainable": false, "kernel_size": [3, 3]}, "class_name": "Conv2D", "name": "conv2d_72", "inbound_nodes": [[["activation_71", 0, 0, {}]]]}, {"config": {"center": true, "gamma_initializer": {"config": {}, "class_name": "Ones"}, "epsilon": 0.001, "axis": 3, "name": "batch_normalization_67", "beta_regularizer": null, "gamma_regularizer": null, "moving_variance_initializer": {"config": {}, "class_name": "Ones"}, "beta_initializer": {"config": {}, "class_name": "Zeros"}, "scale": false, "gamma_constraint": null, "moving_mean_initializer": {"config": {}, "class_name": "Zeros"}, "trainable": false, "beta_constraint": null, "momentum": 0.99}, "class_name": "BatchNormalization", "name": "batch_normalization_67", "inbound_nodes": [[["conv2d_67", 0, 0, {}]]]}, {"config": {"center": true, "gamma_initializer": {"config": {}, "class_name": "Ones"}, "epsilon": 0.001, "axis": 3, "name": "batch_normalization_69", "beta_regularizer": null, "gamma_regularizer": null, "moving_variance_initializer": {"config": {}, "class_name": "Ones"}, "beta_initializer": {"config": {}, "class_name": "Zeros"}, "scale": false, "gamma_constraint": null, "moving_mean_initializer": {"config": {}, "class_name": "Zeros"}, "trainable": false, "beta_constraint": null, "momentum": 0.99}, "class_name": "BatchNormalization", "name": "batch_normalization_69", "inbound_nodes": [[["conv2d_69", 0, 0, {}]]]}, {"config": {"center": true, "gamma_initializer": {"config": {}, "class_name": "Ones"}, "epsilon": 0.001, "axis": 3, "name": "batch_normalization_72", "beta_regularizer": null, "gamma_regularizer": null, "moving_variance_initializer": {"config": {}, "class_name": "Ones"}, "beta_initializer": {"config": {}, "class_name": "Zeros"}, "scale": false, "gamma_constraint": null, "moving_mean_initializer": {"config": {}, "class_name": "Zeros"}, "trainable": false, "beta_constraint": null, "momentum": 0.99}, "class_name": "BatchNormalization", "name": "batch_normalization_72", "inbound_nodes": [[["conv2d_72", 0, 0, {}]]]}, {"config": {"trainable": false, "activation": "relu", "name": "activation_67"}, "class_name": "Activation", "name": "activation_67", "inbound_nodes": [[["batch_normalization_67", 0, 0, {}]]]}, {"config": {"trainable": false, "activation": "relu", "name": "activation_69"}, "class_name": "Activation", "name": "activation_69", "inbound_nodes": [[["batch_normalization_69", 0, 0, {}]]]}, {"config": {"trainable": false, "activation": "relu", "name": "activation_72"}, "class_name": "Activation", "name": "activation_72", "inbound_nodes": [[["batch_normalization_72", 0, 0, {}]]]}, {"config": {"trainable": false, "axis": 3, "name": "block35_10_mixed"}, "class_name": "Concatenate", "name": "block35_10_mixed", "inbound_nodes": [[["activation_67", 0, 0, {}], ["activation_69", 0, 0, {}], ["activation_72", 0, 0, {}]]]}, {"config": {"padding": "same", "activation": "linear", "name": "block35_10_conv", "bias_initializer": {"config": {}, "class_name": "Zeros"}, "dilation_rate": [1, 1], "strides": [1, 1], "data_format": "channels_last", "activity_regularizer": null, "filters": 320, "kernel_regularizer": null, "kernel_initializer": {"config": {"scale": 1.0, "seed": null, "mode": "fan_avg", "distribution": "uniform"}, "class_name": "VarianceScaling"}, "bias_regularizer": null, "use_bias": true, "kernel_constraint": null, "bias_constraint": null, "trainable": false, "kernel_size": [1, 1]}, "class_name": "Conv2D", "name": "block35_10_conv", "inbound_nodes": [[["block35_10_mixed", 0, 0, {}]]]}, {"config": {"function": ["4wIAAAAAAAAAAgAAAAMAAABTAAAAcxQAAAB8AABkAQAZfAAAZAIAGXwBABQXUykDTukAAAAA6QEA\nAACpACkC2gZpbnB1dHPaBXNjYWxlcgMAAAByAwAAAPpvQzpcVXNlcnNcSm9lXEFwcERhdGFcTG9j\nYWxcUHJvZ3JhbXNcUHl0aG9uXFB5dGhvbjM1XGxpYlxzaXRlLXBhY2thZ2VzXGtlcmFzXGFwcGxp\nY2F0aW9uc1xpbmNlcHRpb25fcmVzbmV0X3YyLnB52gg8bGFtYmRhPqgAAADzAAAAAA==\n", null, null], "arguments": {"scale": 0.17}, "name": "block35_10", "trainable": false, "output_shape_type": "raw", "output_shape": [35, 35, 320], "function_type": "lambda"}, "class_name": "Lambda", "name": "block35_10", "inbound_nodes": [[["block35_9_ac", 0, 0, {}], ["block35_10_conv", 0, 0, {}]]]}, {"config": {"trainable": false, "activation": "relu", "name": "block35_10_ac"}, "class_name": "Activation", "name": "block35_10_ac", "inbound_nodes": [[["block35_10", 0, 0, {}]]]}, {"config": {"padding": "same", "activation": "linear", "name": "conv2d_74", "bias_initializer": {"config": {}, "class_name": "Zeros"}, "dilation_rate": [1, 1], "strides": [1, 1], "data_format": "channels_last", "activity_regularizer": null, "filters": 256, "kernel_regularizer": null, "kernel_initializer": {"config": {"scale": 1.0, "seed": null, "mode": "fan_avg", "distribution": "uniform"}, "class_name": "VarianceScaling"}, "bias_regularizer": null, "use_bias": false, "kernel_constraint": null, "bias_constraint": null, "trainable": false, "kernel_size": [1, 1]}, "class_name": "Conv2D", "name": "conv2d_74", "inbound_nodes": [[["block35_10_ac", 0, 0, {}]]]}, {"config": {"center": true, "gamma_initializer": {"config": {}, "class_name": "Ones"}, "epsilon": 0.001, "axis": 3, "name": "batch_normalization_74", "beta_regularizer": null, "gamma_regularizer": null, "moving_variance_initializer": {"config": {}, "class_name": "Ones"}, "beta_initializer": {"config": {}, "class_name": "Zeros"}, "scale": false, "gamma_constraint": null, "moving_mean_initializer": {"config": {}, "class_name": "Zeros"}, "trainable": false, "beta_constraint": null, "momentum": 0.99}, "class_name": "BatchNormalization", "name": "batch_normalization_74", "inbound_nodes": [[["conv2d_74", 0, 0, {}]]]}, {"config": {"trainable": false, "activation": "relu", "name": "activation_74"}, "class_name": "Activation", "name": "activation_74", "inbound_nodes": [[["batch_normalization_74", 0, 0, {}]]]}, {"config": {"padding": "same", "activation": "linear", "name": "conv2d_75", "bias_initializer": {"config": {}, "class_name": "Zeros"}, "dilation_rate": [1, 1], "strides": [1, 1], "data_format": "channels_last", "activity_regularizer": null, "filters": 256, "kernel_regularizer": null, "kernel_initializer": {"config": {"scale": 1.0, "seed": null, "mode": "fan_avg", "distribution": "uniform"}, "class_name": "VarianceScaling"}, "bias_regularizer": null, "use_bias": false, "kernel_constraint": null, "bias_constraint": null, "trainable": false, "kernel_size": [3, 3]}, "class_name": "Conv2D", "name": "conv2d_75", "inbound_nodes": [[["activation_74", 0, 0, {}]]]}, {"config": {"center": true, "gamma_initializer": {"config": {}, "class_name": "Ones"}, "epsilon": 0.001, "axis": 3, "name": "batch_normalization_75", "beta_regularizer": null, "gamma_regularizer": null, "moving_variance_initializer": {"config": {}, "class_name": "Ones"}, "beta_initializer": {"config": {}, "class_name": "Zeros"}, "scale": false, "gamma_constraint": null, "moving_mean_initializer": {"config": {}, "class_name": "Zeros"}, "trainable": false, "beta_constraint": null, "momentum": 0.99}, "class_name": "BatchNormalization", "name": "batch_normalization_75", "inbound_nodes": [[["conv2d_75", 0, 0, {}]]]}, {"config": {"trainable": false, "activation": "relu", "name": "activation_75"}, "class_name": "Activation", "name": "activation_75", "inbound_nodes": [[["batch_normalization_75", 0, 0, {}]]]}, {"config": {"padding": "valid", "activation": "linear", "name": "conv2d_73", "bias_initializer": {"config": {}, "class_name": "Zeros"}, "dilation_rate": [1, 1], "strides": [2, 2], "data_format": "channels_last", "activity_regularizer": null, "filters": 384, "kernel_regularizer": null, "kernel_initializer": {"config": {"scale": 1.0, "seed": null, "mode": "fan_avg", "distribution": "uniform"}, "class_name": "VarianceScaling"}, "bias_regularizer": null, "use_bias": false, "kernel_constraint": null, "bias_constraint": null, "trainable": false, "kernel_size": [3, 3]}, "class_name": "Conv2D", "name": "conv2d_73", "inbound_nodes": [[["block35_10_ac", 0, 0, {}]]]}, {"config": {"padding": "valid", "activation": "linear", "name": "conv2d_76", "bias_initializer": {"config": {}, "class_name": "Zeros"}, "dilation_rate": [1, 1], "strides": [2, 2], "data_format": "channels_last", "activity_regularizer": null, "filters": 384, "kernel_regularizer": null, "kernel_initializer": {"config": {"scale": 1.0, "seed": null, "mode": "fan_avg", "distribution": "uniform"}, "class_name": "VarianceScaling"}, "bias_regularizer": null, "use_bias": false, "kernel_constraint": null, "bias_constraint": null, "trainable": false, "kernel_size": [3, 3]}, "class_name": "Conv2D", "name": "conv2d_76", "inbound_nodes": [[["activation_75", 0, 0, {}]]]}, {"config": {"center": true, "gamma_initializer": {"config": {}, "class_name": "Ones"}, "epsilon": 0.001, "axis": 3, "name": "batch_normalization_73", "beta_regularizer": null, "gamma_regularizer": null, "moving_variance_initializer": {"config": {}, "class_name": "Ones"}, "beta_initializer": {"config": {}, "class_name": "Zeros"}, "scale": false, "gamma_constraint": null, "moving_mean_initializer": {"config": {}, "class_name": "Zeros"}, "trainable": false, "beta_constraint": null, "momentum": 0.99}, "class_name": "BatchNormalization", "name": "batch_normalization_73", "inbound_nodes": [[["conv2d_73", 0, 0, {}]]]}, {"config": {"center": true, "gamma_initializer": {"config": {}, "class_name": "Ones"}, "epsilon": 0.001, "axis": 3, "name": "batch_normalization_76", "beta_regularizer": null, "gamma_regularizer": null, "moving_variance_initializer": {"config": {}, "class_name": "Ones"}, "beta_initializer": {"config": {}, "class_name": "Zeros"}, "scale": false, "gamma_constraint": null, "moving_mean_initializer": {"config": {}, "class_name": "Zeros"}, "trainable": false, "beta_constraint": null, "momentum": 0.99}, "class_name": "BatchNormalization", "name": "batch_normalization_76", "inbound_nodes": [[["conv2d_76", 0, 0, {}]]]}, {"config": {"trainable": false, "activation": "relu", "name": "activation_73"}, "class_name": "Activation", "name": "activation_73", "inbound_nodes": [[["batch_normalization_73", 0, 0, {}]]]}, {"config": {"trainable": false, "activation": "relu", "name": "activation_76"}, "class_name": "Activation", "name": "activation_76", "inbound_nodes": [[["batch_normalization_76", 0, 0, {}]]]}, {"config": {"padding": "valid", "pool_size": [3, 3], "name": "max_pooling2d_3", "trainable": false, "data_format": "channels_last", "strides": [2, 2]}, "class_name": "MaxPooling2D", "name": "max_pooling2d_3", "inbound_nodes": [[["block35_10_ac", 0, 0, {}]]]}, {"config": {"trainable": false, "axis": 3, "name": "mixed_6a"}, "class_name": "Concatenate", "name": "mixed_6a", "inbound_nodes": [[["activation_73", 0, 0, {}], ["activation_76", 0, 0, {}], ["max_pooling2d_3", 0, 0, {}]]]}, {"config": {"padding": "same", "activation": "linear", "name": "conv2d_78", "bias_initializer": {"config": {}, "class_name": "Zeros"}, "dilation_rate": [1, 1], "strides": [1, 1], "data_format": "channels_last", "activity_regularizer": null, "filters": 128, "kernel_regularizer": null, "kernel_initializer": {"config": {"scale": 1.0, "seed": null, "mode": "fan_avg", "distribution": "uniform"}, "class_name": "VarianceScaling"}, "bias_regularizer": null, "use_bias": false, "kernel_constraint": null, "bias_constraint": null, "trainable": false, "kernel_size": [1, 1]}, "class_name": "Conv2D", "name": "conv2d_78", "inbound_nodes": [[["mixed_6a", 0, 0, {}]]]}, {"config": {"center": true, "gamma_initializer": {"config": {}, "class_name": "Ones"}, "epsilon": 0.001, "axis": 3, "name": "batch_normalization_78", "beta_regularizer": null, "gamma_regularizer": null, "moving_variance_initializer": {"config": {}, "class_name": "Ones"}, "beta_initializer": {"config": {}, "class_name": "Zeros"}, "scale": false, "gamma_constraint": null, "moving_mean_initializer": {"config": {}, "class_name": "Zeros"}, "trainable": false, "beta_constraint": null, "momentum": 0.99}, "class_name": "BatchNormalization", "name": "batch_normalization_78", "inbound_nodes": [[["conv2d_78", 0, 0, {}]]]}, {"config": {"trainable": false, "activation": "relu", "name": "activation_78"}, "class_name": "Activation", "name": "activation_78", "inbound_nodes": [[["batch_normalization_78", 0, 0, {}]]]}, {"config": {"padding": "same", "activation": "linear", "name": "conv2d_79", "bias_initializer": {"config": {}, "class_name": "Zeros"}, "dilation_rate": [1, 1], "strides": [1, 1], "data_format": "channels_last", "activity_regularizer": null, "filters": 160, "kernel_regularizer": null, "kernel_initializer": {"config": {"scale": 1.0, "seed": null, "mode": "fan_avg", "distribution": "uniform"}, "class_name": "VarianceScaling"}, "bias_regularizer": null, "use_bias": false, "kernel_constraint": null, "bias_constraint": null, "trainable": false, "kernel_size": [1, 7]}, "class_name": "Conv2D", "name": "conv2d_79", "inbound_nodes": [[["activation_78", 0, 0, {}]]]}, {"config": {"center": true, "gamma_initializer": {"config": {}, "class_name": "Ones"}, "epsilon": 0.001, "axis": 3, "name": "batch_normalization_79", "beta_regularizer": null, "gamma_regularizer": null, "moving_variance_initializer": {"config": {}, "class_name": "Ones"}, "beta_initializer": {"config": {}, "class_name": "Zeros"}, "scale": false, "gamma_constraint": null, "moving_mean_initializer": {"config": {}, "class_name": "Zeros"}, "trainable": false, "beta_constraint": null, "momentum": 0.99}, "class_name": "BatchNormalization", "name": "batch_normalization_79", "inbound_nodes": [[["conv2d_79", 0, 0, {}]]]}, {"config": {"trainable": false, "activation": "relu", "name": "activation_79"}, "class_name": "Activation", "name": "activation_79", "inbound_nodes": [[["batch_normalization_79", 0, 0, {}]]]}, {"config": {"padding": "same", "activation": "linear", "name": "conv2d_77", "bias_initializer": {"config": {}, "class_name": "Zeros"}, "dilation_rate": [1, 1], "strides": [1, 1], "data_format": "channels_last", "activity_regularizer": null, "filters": 192, "kernel_regularizer": null, "kernel_initializer": {"config": {"scale": 1.0, "seed": null, "mode": "fan_avg", "distribution": "uniform"}, "class_name": "VarianceScaling"}, "bias_regularizer": null, "use_bias": false, "kernel_constraint": null, "bias_constraint": null, "trainable": false, "kernel_size": [1, 1]}, "class_name": "Conv2D", "name": "conv2d_77", "inbound_nodes": [[["mixed_6a", 0, 0, {}]]]}, {"config": {"padding": "same", "activation": "linear", "name": "conv2d_80", "bias_initializer": {"config": {}, "class_name": "Zeros"}, "dilation_rate": [1, 1], "strides": [1, 1], "data_format": "channels_last", "activity_regularizer": null, "filters": 192, "kernel_regularizer": null, "kernel_initializer": {"config": {"scale": 1.0, "seed": null, "mode": "fan_avg", "distribution": "uniform"}, "class_name": "VarianceScaling"}, "bias_regularizer": null, "use_bias": false, "kernel_constraint": null, "bias_constraint": null, "trainable": false, "kernel_size": [7, 1]}, "class_name": "Conv2D", "name": "conv2d_80", "inbound_nodes": [[["activation_79", 0, 0, {}]]]}, {"config": {"center": true, "gamma_initializer": {"config": {}, "class_name": "Ones"}, "epsilon": 0.001, "axis": 3, "name": "batch_normalization_77", "beta_regularizer": null, "gamma_regularizer": null, "moving_variance_initializer": {"config": {}, "class_name": "Ones"}, "beta_initializer": {"config": {}, "class_name": "Zeros"}, "scale": false, "gamma_constraint": null, "moving_mean_initializer": {"config": {}, "class_name": "Zeros"}, "trainable": false, "beta_constraint": null, "momentum": 0.99}, "class_name": "BatchNormalization", "name": "batch_normalization_77", "inbound_nodes": [[["conv2d_77", 0, 0, {}]]]}, {"config": {"center": true, "gamma_initializer": {"config": {}, "class_name": "Ones"}, "epsilon": 0.001, "axis": 3, "name": "batch_normalization_80", "beta_regularizer": null, "gamma_regularizer": null, "moving_variance_initializer": {"config": {}, "class_name": "Ones"}, "beta_initializer": {"config": {}, "class_name": "Zeros"}, "scale": false, "gamma_constraint": null, "moving_mean_initializer": {"config": {}, "class_name": "Zeros"}, "trainable": false, "beta_constraint": null, "momentum": 0.99}, "class_name": "BatchNormalization", "name": "batch_normalization_80", "inbound_nodes": [[["conv2d_80", 0, 0, {}]]]}, {"config": {"trainable": false, "activation": "relu", "name": "activation_77"}, "class_name": "Activation", "name": "activation_77", "inbound_nodes": [[["batch_normalization_77", 0, 0, {}]]]}, {"config": {"trainable": false, "activation": "relu", "name": "activation_80"}, "class_name": "Activation", "name": "activation_80", "inbound_nodes": [[["batch_normalization_80", 0, 0, {}]]]}, {"config": {"trainable": false, "axis": 3, "name": "block17_1_mixed"}, "class_name": "Concatenate", "name": "block17_1_mixed", "inbound_nodes": [[["activation_77", 0, 0, {}], ["activation_80", 0, 0, {}]]]}, {"config": {"padding": "same", "activation": "linear", "name": "block17_1_conv", "bias_initializer": {"config": {}, "class_name": "Zeros"}, "dilation_rate": [1, 1], "strides": [1, 1], "data_format": "channels_last", "activity_regularizer": null, "filters": 1088, "kernel_regularizer": null, "kernel_initializer": {"config": {"scale": 1.0, "seed": null, "mode": "fan_avg", "distribution": "uniform"}, "class_name": "VarianceScaling"}, "bias_regularizer": null, "use_bias": true, "kernel_constraint": null, "bias_constraint": null, "trainable": false, "kernel_size": [1, 1]}, "class_name": "Conv2D", "name": "block17_1_conv", "inbound_nodes": [[["block17_1_mixed", 0, 0, {}]]]}, {"config": {"function": ["4wIAAAAAAAAAAgAAAAMAAABTAAAAcxQAAAB8AABkAQAZfAAAZAIAGXwBABQXUykDTukAAAAA6QEA\nAACpACkC2gZpbnB1dHPaBXNjYWxlcgMAAAByAwAAAPpvQzpcVXNlcnNcSm9lXEFwcERhdGFcTG9j\nYWxcUHJvZ3JhbXNcUHl0aG9uXFB5dGhvbjM1XGxpYlxzaXRlLXBhY2thZ2VzXGtlcmFzXGFwcGxp\nY2F0aW9uc1xpbmNlcHRpb25fcmVzbmV0X3YyLnB52gg8bGFtYmRhPqgAAADzAAAAAA==\n", null, null], "arguments": {"scale": 0.1}, "name": "block17_1", "trainable": false, "output_shape_type": "raw", "output_shape": [17, 17, 1088], "function_type": "lambda"}, "class_name": "Lambda", "name": "block17_1", "inbound_nodes": [[["mixed_6a", 0, 0, {}], ["block17_1_conv", 0, 0, {}]]]}, {"config": {"trainable": false, "activation": "relu", "name": "block17_1_ac"}, "class_name": "Activation", "name": "block17_1_ac", "inbound_nodes": [[["block17_1", 0, 0, {}]]]}, {"config": {"padding": "same", "activation": "linear", "name": "conv2d_82", "bias_initializer": {"config": {}, "class_name": "Zeros"}, "dilation_rate": [1, 1], "strides": [1, 1], "data_format": "channels_last", "activity_regularizer": null, "filters": 128, "kernel_regularizer": null, "kernel_initializer": {"config": {"scale": 1.0, "seed": null, "mode": "fan_avg", "distribution": "uniform"}, "class_name": "VarianceScaling"}, "bias_regularizer": null, "use_bias": false, "kernel_constraint": null, "bias_constraint": null, "trainable": false, "kernel_size": [1, 1]}, "class_name": "Conv2D", "name": "conv2d_82", "inbound_nodes": [[["block17_1_ac", 0, 0, {}]]]}, {"config": {"center": true, "gamma_initializer": {"config": {}, "class_name": "Ones"}, "epsilon": 0.001, "axis": 3, "name": "batch_normalization_82", "beta_regularizer": null, "gamma_regularizer": null, "moving_variance_initializer": {"config": {}, "class_name": "Ones"}, "beta_initializer": {"config": {}, "class_name": "Zeros"}, "scale": false, "gamma_constraint": null, "moving_mean_initializer": {"config": {}, "class_name": "Zeros"}, "trainable": false, "beta_constraint": null, "momentum": 0.99}, "class_name": "BatchNormalization", "name": "batch_normalization_82", "inbound_nodes": [[["conv2d_82", 0, 0, {}]]]}, {"config": {"trainable": false, "activation": "relu", "name": "activation_82"}, "class_name": "Activation", "name": "activation_82", "inbound_nodes": [[["batch_normalization_82", 0, 0, {}]]]}, {"config": {"padding": "same", "activation": "linear", "name": "conv2d_83", "bias_initializer": {"config": {}, "class_name": "Zeros"}, "dilation_rate": [1, 1], "strides": [1, 1], "data_format": "channels_last", "activity_regularizer": null, "filters": 160, "kernel_regularizer": null, "kernel_initializer": {"config": {"scale": 1.0, "seed": null, "mode": "fan_avg", "distribution": "uniform"}, "class_name": "VarianceScaling"}, "bias_regularizer": null, "use_bias": false, "kernel_constraint": null, "bias_constraint": null, "trainable": false, "kernel_size": [1, 7]}, "class_name": "Conv2D", "name": "conv2d_83", "inbound_nodes": [[["activation_82", 0, 0, {}]]]}, {"config": {"center": true, "gamma_initializer": {"config": {}, "class_name": "Ones"}, "epsilon": 0.001, "axis": 3, "name": "batch_normalization_83", "beta_regularizer": null, "gamma_regularizer": null, "moving_variance_initializer": {"config": {}, "class_name": "Ones"}, "beta_initializer": {"config": {}, "class_name": "Zeros"}, "scale": false, "gamma_constraint": null, "moving_mean_initializer": {"config": {}, "class_name": "Zeros"}, "trainable": false, "beta_constraint": null, "momentum": 0.99}, "class_name": "BatchNormalization", "name": "batch_normalization_83", "inbound_nodes": [[["conv2d_83", 0, 0, {}]]]}, {"config": {"trainable": false, "activation": "relu", "name": "activation_83"}, "class_name": "Activation", "name": "activation_83", "inbound_nodes": [[["batch_normalization_83", 0, 0, {}]]]}, {"config": {"padding": "same", "activation": "linear", "name": "conv2d_81", "bias_initializer": {"config": {}, "class_name": "Zeros"}, "dilation_rate": [1, 1], "strides": [1, 1], "data_format": "channels_last", "activity_regularizer": null, "filters": 192, "kernel_regularizer": null, "kernel_initializer": {"config": {"scale": 1.0, "seed": null, "mode": "fan_avg", "distribution": "uniform"}, "class_name": "VarianceScaling"}, "bias_regularizer": null, "use_bias": false, "kernel_constraint": null, "bias_constraint": null, "trainable": false, "kernel_size": [1, 1]}, "class_name": "Conv2D", "name": "conv2d_81", "inbound_nodes": [[["block17_1_ac", 0, 0, {}]]]}, {"config": {"padding": "same", "activation": "linear", "name": "conv2d_84", "bias_initializer": {"config": {}, "class_name": "Zeros"}, "dilation_rate": [1, 1], "strides": [1, 1], "data_format": "channels_last", "activity_regularizer": null, "filters": 192, "kernel_regularizer": null, "kernel_initializer": {"config": {"scale": 1.0, "seed": null, "mode": "fan_avg", "distribution": "uniform"}, "class_name": "VarianceScaling"}, "bias_regularizer": null, "use_bias": false, "kernel_constraint": null, "bias_constraint": null, "trainable": false, "kernel_size": [7, 1]}, "class_name": "Conv2D", "name": "conv2d_84", "inbound_nodes": [[["activation_83", 0, 0, {}]]]}, {"config": {"center": true, "gamma_initializer": {"config": {}, "class_name": "Ones"}, "epsilon": 0.001, "axis": 3, "name": "batch_normalization_81", "beta_regularizer": null, "gamma_regularizer": null, "moving_variance_initializer": {"config": {}, "class_name": "Ones"}, "beta_initializer": {"config": {}, "class_name": "Zeros"}, "scale": false, "gamma_constraint": null, "moving_mean_initializer": {"config": {}, "class_name": "Zeros"}, "trainable": false, "beta_constraint": null, "momentum": 0.99}, "class_name": "BatchNormalization", "name": "batch_normalization_81", "inbound_nodes": [[["conv2d_81", 0, 0, {}]]]}, {"config": {"center": true, "gamma_initializer": {"config": {}, "class_name": "Ones"}, "epsilon": 0.001, "axis": 3, "name": "batch_normalization_84", "beta_regularizer": null, "gamma_regularizer": null, "moving_variance_initializer": {"config": {}, "class_name": "Ones"}, "beta_initializer": {"config": {}, "class_name": "Zeros"}, "scale": false, "gamma_constraint": null, "moving_mean_initializer": {"config": {}, "class_name": "Zeros"}, "trainable": false, "beta_constraint": null, "momentum": 0.99}, "class_name": "BatchNormalization", "name": "batch_normalization_84", "inbound_nodes": [[["conv2d_84", 0, 0, {}]]]}, {"config": {"trainable": false, "activation": "relu", "name": "activation_81"}, "class_name": "Activation", "name": "activation_81", "inbound_nodes": [[["batch_normalization_81", 0, 0, {}]]]}, {"config": {"trainable": false, "activation": "relu", "name": "activation_84"}, "class_name": "Activation", "name": "activation_84", "inbound_nodes": [[["batch_normalization_84", 0, 0, {}]]]}, {"config": {"trainable": false, "axis": 3, "name": "block17_2_mixed"}, "class_name": "Concatenate", "name": "block17_2_mixed", "inbound_nodes": [[["activation_81", 0, 0, {}], ["activation_84", 0, 0, {}]]]}, {"config": {"padding": "same", "activation": "linear", "name": "block17_2_conv", "bias_initializer": {"config": {}, "class_name": "Zeros"}, "dilation_rate": [1, 1], "strides": [1, 1], "data_format": "channels_last", "activity_regularizer": null, "filters": 1088, "kernel_regularizer": null, "kernel_initializer": {"config": {"scale": 1.0, "seed": null, "mode": "fan_avg", "distribution": "uniform"}, "class_name": "VarianceScaling"}, "bias_regularizer": null, "use_bias": true, "kernel_constraint": null, "bias_constraint": null, "trainable": false, "kernel_size": [1, 1]}, "class_name": "Conv2D", "name": "block17_2_conv", "inbound_nodes": [[["block17_2_mixed", 0, 0, {}]]]}, {"config": {"function": ["4wIAAAAAAAAAAgAAAAMAAABTAAAAcxQAAAB8AABkAQAZfAAAZAIAGXwBABQXUykDTukAAAAA6QEA\nAACpACkC2gZpbnB1dHPaBXNjYWxlcgMAAAByAwAAAPpvQzpcVXNlcnNcSm9lXEFwcERhdGFcTG9j\nYWxcUHJvZ3JhbXNcUHl0aG9uXFB5dGhvbjM1XGxpYlxzaXRlLXBhY2thZ2VzXGtlcmFzXGFwcGxp\nY2F0aW9uc1xpbmNlcHRpb25fcmVzbmV0X3YyLnB52gg8bGFtYmRhPqgAAADzAAAAAA==\n", null, null], "arguments": {"scale": 0.1}, "name": "block17_2", "trainable": false, "output_shape_type": "raw", "output_shape": [17, 17, 1088], "function_type": "lambda"}, "class_name": "Lambda", "name": "block17_2", "inbound_nodes": [[["block17_1_ac", 0, 0, {}], ["block17_2_conv", 0, 0, {}]]]}, {"config": {"trainable": false, "activation": "relu", "name": "block17_2_ac"}, "class_name": "Activation", "name": "block17_2_ac", "inbound_nodes": [[["block17_2", 0, 0, {}]]]}, {"config": {"padding": "same", "activation": "linear", "name": "conv2d_86", "bias_initializer": {"config": {}, "class_name": "Zeros"}, "dilation_rate": [1, 1], "strides": [1, 1], "data_format": "channels_last", "activity_regularizer": null, "filters": 128, "kernel_regularizer": null, "kernel_initializer": {"config": {"scale": 1.0, "seed": null, "mode": "fan_avg", "distribution": "uniform"}, "class_name": "VarianceScaling"}, "bias_regularizer": null, "use_bias": false, "kernel_constraint": null, "bias_constraint": null, "trainable": false, "kernel_size": [1, 1]}, "class_name": "Conv2D", "name": "conv2d_86", "inbound_nodes": [[["block17_2_ac", 0, 0, {}]]]}, {"config": {"center": true, "gamma_initializer": {"config": {}, "class_name": "Ones"}, "epsilon": 0.001, "axis": 3, "name": "batch_normalization_86", "beta_regularizer": null, "gamma_regularizer": null, "moving_variance_initializer": {"config": {}, "class_name": "Ones"}, "beta_initializer": {"config": {}, "class_name": "Zeros"}, "scale": false, "gamma_constraint": null, "moving_mean_initializer": {"config": {}, "class_name": "Zeros"}, "trainable": false, "beta_constraint": null, "momentum": 0.99}, "class_name": "BatchNormalization", "name": "batch_normalization_86", "inbound_nodes": [[["conv2d_86", 0, 0, {}]]]}, {"config": {"trainable": false, "activation": "relu", "name": "activation_86"}, "class_name": "Activation", "name": "activation_86", "inbound_nodes": [[["batch_normalization_86", 0, 0, {}]]]}, {"config": {"padding": "same", "activation": "linear", "name": "conv2d_87", "bias_initializer": {"config": {}, "class_name": "Zeros"}, "dilation_rate": [1, 1], "strides": [1, 1], "data_format": "channels_last", "activity_regularizer": null, "filters": 160, "kernel_regularizer": null, "kernel_initializer": {"config": {"scale": 1.0, "seed": null, "mode": "fan_avg", "distribution": "uniform"}, "class_name": "VarianceScaling"}, "bias_regularizer": null, "use_bias": false, "kernel_constraint": null, "bias_constraint": null, "trainable": false, "kernel_size": [1, 7]}, "class_name": "Conv2D", "name": "conv2d_87", "inbound_nodes": [[["activation_86", 0, 0, {}]]]}, {"config": {"center": true, "gamma_initializer": {"config": {}, "class_name": "Ones"}, "epsilon": 0.001, "axis": 3, "name": "batch_normalization_87", "beta_regularizer": null, "gamma_regularizer": null, "moving_variance_initializer": {"config": {}, "class_name": "Ones"}, "beta_initializer": {"config": {}, "class_name": "Zeros"}, "scale": false, "gamma_constraint": null, "moving_mean_initializer": {"config": {}, "class_name": "Zeros"}, "trainable": false, "beta_constraint": null, "momentum": 0.99}, "class_name": "BatchNormalization", "name": "batch_normalization_87", "inbound_nodes": [[["conv2d_87", 0, 0, {}]]]}, {"config": {"trainable": false, "activation": "relu", "name": "activation_87"}, "class_name": "Activation", "name": "activation_87", "inbound_nodes": [[["batch_normalization_87", 0, 0, {}]]]}, {"config": {"padding": "same", "activation": "linear", "name": "conv2d_85", "bias_initializer": {"config": {}, "class_name": "Zeros"}, "dilation_rate": [1, 1], "strides": [1, 1], "data_format": "channels_last", "activity_regularizer": null, "filters": 192, "kernel_regularizer": null, "kernel_initializer": {"config": {"scale": 1.0, "seed": null, "mode": "fan_avg", "distribution": "uniform"}, "class_name": "VarianceScaling"}, "bias_regularizer": null, "use_bias": false, "kernel_constraint": null, "bias_constraint": null, "trainable": false, "kernel_size": [1, 1]}, "class_name": "Conv2D", "name": "conv2d_85", "inbound_nodes": [[["block17_2_ac", 0, 0, {}]]]}, {"config": {"padding": "same", "activation": "linear", "name": "conv2d_88", "bias_initializer": {"config": {}, "cla…
s_name": "BatchNormalization", "name": "batch_normalization_179", "inbound_nodes": [[["conv2d_179", 0, 0, {}]]]}, {"config": {"trainable": true, "activation": "relu", "name": "activation_176"}, "class_name": "Activation", "name": "activation_176", "inbound_nodes": [[["batch_normalization_176", 0, 0, {}]]]}, {"config": {"trainable": true, "activation": "relu", "name": "activation_179"}, "class_name": "Activation", "name": "activation_179", "inbound_nodes": [[["batch_normalization_179", 0, 0, {}]]]}, {"config": {"trainable": true, "axis": 3, "name": "block8_4_mixed"}, "class_name": "Concatenate", "name": "block8_4_mixed", "inbound_nodes": [[["activation_176", 0, 0, {}], ["activation_179", 0, 0, {}]]]}, {"config": {"padding": "same", "activation": "linear", "name": "block8_4_conv", "bias_initializer": {"config": {}, "class_name": "Zeros"}, "dilation_rate": [1, 1], "strides": [1, 1], "data_format": "channels_last", "activity_regularizer": null, "filters": 2080, "kernel_regularizer": null, "kernel_initializer": {"config": {"scale": 1.0, "seed": null, "mode": "fan_avg", "distribution": "uniform"}, "class_name": "VarianceScaling"}, "bias_regularizer": null, "use_bias": true, "kernel_constraint": null, "bias_constraint": null, "trainable": true, "kernel_size": [1, 1]}, "class_name": "Conv2D", "name": "block8_4_conv", "inbound_nodes": [[["block8_4_mixed", 0, 0, {}]]]}, {"config": {"function": ["4wIAAAAAAAAAAgAAAAMAAABTAAAAcxQAAAB8AABkAQAZfAAAZAIAGXwBABQXUykDTukAAAAA6QEA\nAACpACkC2gZpbnB1dHPaBXNjYWxlcgMAAAByAwAAAPpvQzpcVXNlcnNcSm9lXEFwcERhdGFcTG9j\nYWxcUHJvZ3JhbXNcUHl0aG9uXFB5dGhvbjM1XGxpYlxzaXRlLXBhY2thZ2VzXGtlcmFzXGFwcGxp\nY2F0aW9uc1xpbmNlcHRpb25fcmVzbmV0X3YyLnB52gg8bGFtYmRhPqgAAADzAAAAAA==\n", null, null], "arguments": {"scale": 0.2}, "name": "block8_4", "trainable": true, "output_shape_type": "raw", "output_shape": [8, 8, 2080], "function_type": "lambda"}, "class_name": "Lambda", "name": "block8_4", "inbound_nodes": [[["block8_3_ac", 0, 0, {}], ["block8_4_conv", 0, 0, {}]]]}, {"config": {"trainable": true, "activation": "relu", "name": "block8_4_ac"}, "class_name": "Activation", "name": "block8_4_ac", "inbound_nodes": [[["block8_4", 0, 0, {}]]]}, {"config": {"padding": "same", "activation": "linear", "name": "conv2d_181", "bias_initializer": {"config": {}, "class_name": "Zeros"}, "dilation_rate": [1, 1], "strides": [1, 1], "data_format": "channels_last", "activity_regularizer": null, "filters": 192, "kernel_regularizer": null, "kernel_initializer": {"config": {"scale": 1.0, "seed": null, "mode": "fan_avg", "distribution": "uniform"}, "class_name": "VarianceScaling"}, "bias_regularizer": null, "use_bias": false, "kernel_constraint": null, "bias_constraint": null, "trainable": true, "kernel_size": [1, 1]}, "class_name": "Conv2D", "name": "conv2d_181", "inbound_nodes": [[["block8_4_ac", 0, 0, {}]]]}, {"config": {"center": true, "gamma_initializer": {"config": {}, "class_name": "Ones"}, "epsilon": 0.001, "axis": 3, "name": "batch_normalization_181", "beta_regularizer": null, "gamma_regularizer": null, "moving_variance_initializer": {"config": {}, "class_name": "Ones"}, "beta_initializer": {"config": {}, "class_name": "Zeros"}, "scale": false, "gamma_constraint": null, "moving_mean_initializer": {"config": {}, "class_name": "Zeros"}, "trainable": true, "beta_constraint": null, "momentum": 0.99}, "class_name": "BatchNormalization", "name": "batch_normalization_181", "inbound_nodes": [[["conv2d_181", 0, 0, {}]]]}, {"config": {"trainable": true, "activation": "relu", "name": "activation_181"}, "class_name": "Activation", "name": "activation_181", "inbound_nodes": [[["batch_normalization_181", 0, 0, {}]]]}, {"config": {"padding": "same", "activation": "linear", "name": "conv2d_182", "bias_initializer": {"config": {}, "class_name": "Zeros"}, "dilation_rate": [1, 1], "strides": [1, 1], "data_format": "channels_last", "activity_regularizer": null, "filters": 224, "kernel_regularizer": null, "kernel_initializer": {"config": {"scale": 1.0, "seed": null, "mode": "fan_avg", "distribution": "uniform"}, "class_name": "VarianceScaling"}, "bias_regularizer": null, "use_bias": false, "kernel_constraint": null, "bias_constraint": null, "trainable": true, "kernel_size": [1, 3]}, "class_name": "Conv2D", "name": "conv2d_182", "inbound_nodes": [[["activation_181", 0, 0, {}]]]}, {"config": {"center": true, "gamma_initializer": {"config": {}, "class_name": "Ones"}, "epsilon": 0.001, "axis": 3, "name": "batch_normalization_182", "beta_regularizer": null, "gamma_regularizer": null, "moving_variance_initializer": {"config": {}, "class_name": "Ones"}, "beta_initializer": {"config": {}, "class_name": "Zeros"}, "scale": false, "gamma_constraint": null, "moving_mean_initializer": {"config": {}, "class_name": "Zeros"}, "trainable": true, "beta_constraint": null, "momentum": 0.99}, "class_name": "BatchNormalization", "name": "batch_normalization_182", "inbound_nodes": [[["conv2d_182", 0, 0, {}]]]}, {"config": {"trainable": true, "activation": "relu", "name": "activation_182"}, "class_name": "Activation", "name": "activation_182", "inbound_nodes": [[["batch_normalization_182", 0, 0, {}]]]}, {"config": {"padding": "same", "activation": "linear", "name": "conv2d_180", "bias_initializer": {"config": {}, "class_name": "Zeros"}, "dilation_rate": [1, 1], "strides": [1, 1], "data_format": "channels_last", "activity_regularizer": null, "filters": 192, "kernel_regularizer": null, "kernel_initializer": {"config": {"scale": 1.0, "seed": null, "mode": "fan_avg", "distribution": "uniform"}, "class_name": "VarianceScaling"}, "bias_regularizer": null, "use_bias": false, "kernel_constraint": null, "bias_constraint": null, "trainable": true, "kernel_size": [1, 1]}, "class_name": "Conv2D", "name": "conv2d_180", "inbound_nodes": [[["block8_4_ac", 0, 0, {}]]]}, {"config": {"padding": "same", "activation": "linear", "name": "conv2d_183", "bias_initializer": {"config": {}, "class_name": "Zeros"}, "dilation_rate": [1, 1], "strides": [1, 1], "data_format": "channels_last", "activity_regularizer": null, "filters": 256, "kernel_regularizer": null, "kernel_initializer": {"config": {"scale": 1.0, "seed": null, "mode": "fan_avg", "distribution": "uniform"}, "class_name": "VarianceScaling"}, "bias_regularizer": null, "use_bias": false, "kernel_constraint": null, "bias_constraint": null, "trainable": true, "kernel_size": [3, 1]}, "class_name": "Conv2D", "name": "conv2d_183", "inbound_nodes": [[["activation_182", 0, 0, {}]]]}, {"config": {"center": true, "gamma_initializer": {"config": {}, "class_name": "Ones"}, "epsilon": 0.001, "axis": 3, "name": "batch_normalization_180", "beta_regularizer": null, "gamma_regularizer": null, "moving_variance_initializer": {"config": {}, "class_name": "Ones"}, "beta_initializer": {"config": {}, "class_name": "Zeros"}, "scale": false, "gamma_constraint": null, "moving_mean_initializer": {"config": {}, "class_name": "Zeros"}, "trainable": true, "beta_constraint": null, "momentum": 0.99}, "class_name": "BatchNormalization", "name": "batch_normalization_180", "inbound_nodes": [[["conv2d_180", 0, 0, {}]]]}, {"config": {"center": true, "gamma_initializer": {"config": {}, "class_name": "Ones"}, "epsilon": 0.001, "axis": 3, "name": "batch_normalization_183", "beta_regularizer": null, "gamma_regularizer": null, "moving_variance_initializer": {"config": {}, "class_name": "Ones"}, "beta_initializer": {"config": {}, "class_name": "Zeros"}, "scale": false, "gamma_constraint": null, "moving_mean_initializer": {"config": {}, "class_name": "Zeros"}, "trainable": true, "beta_constraint": null, "momentum": 0.99}, "class_name": "BatchNormalization", "name": "batch_normalization_183", "inbound_nodes": [[["conv2d_183", 0, 0, {}]]]}, {"config": {"trainable": true, "activation": "relu", "name": "activation_180"}, "class_name": "Activation", "name": "activation_180", "inbound_nodes": [[["batch_normalization_180", 0, 0, {}]]]}, {"config": {"trainable": true, "activation": "relu", "name": "activation_183"}, "class_name": "Activation", "name": "activation_183", "inbound_nodes": [[["batch_normalization_183", 0, 0, {}]]]}, {"config": {"trainable": true, "axis": 3, "name": "block8_5_mixed"}, "class_name": "Concatenate", "name": "block8_5_mixed", "inbound_nodes": [[["activation_180", 0, 0, {}], ["activation_183", 0, 0, {}]]]}, {"config": {"padding": "same", "activation": "linear", "name": "block8_5_conv", "bias_initializer": {"config": {}, "class_name": "Zeros"}, "dilation_rate": [1, 1], "strides": [1, 1], "data_format": "channels_last", "activity_regularizer": null, "filters": 2080, "kernel_regularizer": null, "kernel_initializer": {"config": {"scale": 1.0, "seed": null, "mode": "fan_avg", "distribution": "uniform"}, "class_name": "VarianceScaling"}, "bias_regularizer": null, "use_bias": true, "kernel_constraint": null, "bias_constraint": null, "trainable": true, "kernel_size": [1, 1]}, "class_name": "Conv2D", "name": "block8_5_conv", "inbound_nodes": [[["block8_5_mixed", 0, 0, {}]]]}, {"config": {"function": ["4wIAAAAAAAAAAgAAAAMAAABTAAAAcxQAAAB8AABkAQAZfAAAZAIAGXwBABQXUykDTukAAAAA6QEA\nAACpACkC2gZpbnB1dHPaBXNjYWxlcgMAAAByAwAAAPpvQzpcVXNlcnNcSm9lXEFwcERhdGFcTG9j\nYWxcUHJvZ3JhbXNcUHl0aG9uXFB5dGhvbjM1XGxpYlxzaXRlLXBhY2thZ2VzXGtlcmFzXGFwcGxp\nY2F0aW9uc1xpbmNlcHRpb25fcmVzbmV0X3YyLnB52gg8bGFtYmRhPqgAAADzAAAAAA==\n", null, null], "arguments": {"scale": 0.2}, "name": "block8_5", "trainable": true, "output_shape_type": "raw", "output_shape": [8, 8, 2080], "function_type": "lambda"}, "class_name": "Lambda", "name": "block8_5", "inbound_nodes": [[["block8_4_ac", 0, 0, {}], ["block8_5_conv", 0, 0, {}]]]}, {"config": {"trainable": true, "activation": "relu", "name": "block8_5_ac"}, "class_name": "Activation", "name": "block8_5_ac", "inbound_nodes": [[["block8_5", 0, 0, {}]]]}, {"config": {"padding": "same", "activation": "linear", "name": "conv2d_185", "bias_initializer": {"config": {}, "class_name": "Zeros"}, "dilation_rate": [1, 1], "strides": [1, 1], "data_format": "channels_last", "activity_regularizer": null, "filters": 192, "kernel_regularizer": null, "kernel_initializer": {"config": {"scale": 1.0, "seed": null, "mode": "fan_avg", "distribution": "uniform"}, "class_name": "VarianceScaling"}, "bias_regularizer": null, "use_bias": false, "kernel_constraint": null, "bias_constraint": null, "trainable": true, "kernel_size": [1, 1]}, "class_name": "Conv2D", "name": "conv2d_185", "inbound_nodes": [[["block8_5_ac", 0, 0, {}]]]}, {"config": {"center": true, "gamma_initializer": {"config": {}, "class_name": "Ones"}, "epsilon": 0.001, "axis": 3, "name": "batch_normalization_185", "beta_regularizer": null, "gamma_regularizer": null, "moving_variance_initializer": {"config": {}, "class_name": "Ones"}, "beta_initializer": {"config": {}, "class_name": "Zeros"}, "scale": false, "gamma_constraint": null, "moving_mean_initializer": {"config": {}, "class_name": "Zeros"}, "trainable": true, "beta_constraint": null, "momentum": 0.99}, "class_name": "BatchNormalization", "name": "batch_normalization_185", "inbound_nodes": [[["conv2d_185", 0, 0, {}]]]}, {"config": {"trainable": true, "activation": "relu", "name": "activation_185"}, "class_name": "Activation", "name": "activation_185", "inbound_nodes": [[["batch_normalization_185", 0, 0, {}]]]}, {"config": {"padding": "same", "activation": "linear", "name": "conv2d_186", "bias_initializer": {"config": {}, "class_name": "Zeros"}, "dilation_rate": [1, 1], "strides": [1, 1], "data_format": "channels_last", "activity_regularizer": null, "filters": 224, "kernel_regularizer": null, "kernel_initializer": {"config": {"scale": 1.0, "seed": null, "mode": "fan_avg", "distribution": "uniform"}, "class_name": "VarianceScaling"}, "bias_regularizer": null, "use_bias": false, "kernel_constraint": null, "bias_constraint": null, "trainable": true, "kernel_size": [1, 3]}, "class_name": "Conv2D", "name": "conv2d_186", "inbound_nodes": [[["activation_185", 0, 0, {}]]]}, {"config": {"center": true, "gamma_initializer": {"config": {}, "class_name": "Ones"}, "epsilon": 0.001, "axis": 3, "name": "batch_normalization_186", "beta_regularizer": null, "gamma_regularizer": null, "moving_variance_initializer": {"config": {}, "class_name": "Ones"}, "beta_initializer": {"config": {}, "class_name": "Zeros"}, "scale": false, "gamma_constraint": null, "moving_mean_initializer": {"config": {}, "class_name": "Zeros"}, "trainable": true, "beta_constraint": null, "momentum": 0.99}, "class_name": "BatchNormalization", "name": "batch_normalization_186", "inbound_nodes": [[["conv2d_186", 0, 0, {}]]]}, {"config": {"trainable": true, "activation": "relu", "name": "activation_186"}, "class_name": "Activation", "name": "activation_186", "inbound_nodes": [[["batch_normalization_186", 0, 0, {}]]]}, {"config": {"padding": "same", "activation": "linear", "name": "conv2d_184", "bias_initializer": {"config": {}, "class_name": "Zeros"}, "dilation_rate": [1, 1], "strides": [1, 1], "data_format": "channels_last", "activity_regularizer": null, "filters": 192, "kernel_regularizer": null, "kernel_initializer": {"config": {"scale": 1.0, "seed": null, "mode": "fan_avg", "distribution": "uniform"}, "class_name": "VarianceScaling"}, "bias_regularizer": null, "use_bias": false, "kernel_constraint": null, "bias_constraint": null, "trainable": true, "kernel_size": [1, 1]}, "class_name": "Conv2D", "name": "conv2d_184", "inbound_nodes": [[["block8_5_ac", 0, 0, {}]]]}, {"config": {"padding": "same", "activation": "linear", "name": "conv2d_187", "bias_initializer": {"config": {}, "class_name": "Zeros"}, "dilation_rate": [1, 1], "strides": [1, 1], "data_format": "channels_last", "activity_regularizer": null, "filters": 256, "kernel_regularizer": null, "kernel_initializer": {"config": {"scale": 1.0, "seed": null, "mode": "fan_avg", "distribution": "uniform"}, "class_name": "VarianceScaling"}, "bias_regularizer": null, "use_bias": false, "kernel_constraint": null, "bias_constraint": null, "trainable": true, "kernel_size": [3, 1]}, "class_name": "Conv2D", "name": "conv2d_187", "inbound_nodes": [[["activation_186", 0, 0, {}]]]}, {"config": {"center": true, "gamma_initializer": {"config": {}, "class_name": "Ones"}, "epsilon": 0.001, "axis": 3, "name": "batch_normalization_184", "beta_regularizer": null, "gamma_regularizer": null, "moving_variance_initializer": {"config": {}, "class_name": "Ones"}, "beta_initializer": {"config": {}, "class_name": "Zeros"}, "scale": false, "gamma_constraint": null, "moving_mean_initializer": {"config": {}, "class_name": "Zeros"}, "trainable": true, "beta_constraint": null, "momentum": 0.99}, "class_name": "BatchNormalization", "name": "batch_normalization_184", "inbound_nodes": [[["conv2d_184", 0, 0, {}]]]}, {"config": {"center": true, "gamma_initializer": {"config": {}, "class_name": "Ones"}, "epsilon": 0.001, "axis": 3, "name": "batch_normalization_187", "beta_regularizer": null, "gamma_regularizer": null, "moving_variance_initializer": {"config": {}, "class_name": "Ones"}, "beta_initializer": {"config": {}, "class_name": "Zeros"}, "scale": false, "gamma_constraint": null, "moving_mean_initializer": {"config": {}, "class_name": "Zeros"}, "trainable": true, "beta_constraint": null, "momentum": 0.99}, "class_name": "BatchNormalization", "name": "batch_normalization_187", "inbound_nodes": [[["conv2d_187", 0, 0, {}]]]}, {"config": {"trainable": true, "activation": "relu", "name": "activation_184"}, "class_name": "Activation", "name": "activation_184", "inbound_nodes": [[["batch_normalization_184", 0, 0, {}]]]}, {"config": {"trainable": true, "activation": "relu", "name": "activation_187"}, "class_name": "Activation", "name": "activation_187", "inbound_nodes": [[["batch_normalization_187", 0, 0, {}]]]}, {"config": {"trainable": true, "axis": 3, "name": "block8_6_mixed"}, "class_name": "Concatenate", "name": "block8_6_mixed", "inbound_nodes": [[["activation_184", 0, 0, {}], ["activation_187", 0, 0, {}]]]}, {"config": {"padding": "same", "activation": "linear", "name": "block8_6_conv", "bias_initializer": {"config": {}, "class_name": "Zeros"}, "dilation_rate": [1, 1], "strides": [1, 1], "data_format": "channels_last", "activity_regularizer": null, "filters": 2080, "kernel_regularizer": null, "kernel_initializer": {"config": {"scale": 1.0, "seed": null, "mode": "fan_avg", "distribution": "uniform"}, "class_name": "VarianceScaling"}, "bias_regularizer": null, "use_bias": true, "kernel_constraint": null, "bias_constraint": null, "trainable": true, "kernel_size": [1, 1]}, "class_name": "Conv2D", "name": "block8_6_conv", "inbound_nodes": [[["block8_6_mixed", 0, 0, {}]]]}, {"config": {"function": ["4wIAAAAAAAAAAgAAAAMAAABTAAAAcxQAAAB8AABkAQAZfAAAZAIAGXwBABQXUykDTukAAAAA6QEA\nAACpACkC2gZpbnB1dHPaBXNjYWxlcgMAAAByAwAAAPpvQzpcVXNlcnNcSm9lXEFwcERhdGFcTG9j\nYWxcUHJvZ3JhbXNcUHl0aG9uXFB5dGhvbjM1XGxpYlxzaXRlLXBhY2thZ2VzXGtlcmFzXGFwcGxp\nY2F0aW9uc1xpbmNlcHRpb25fcmVzbmV0X3YyLnB52gg8bGFtYmRhPqgAAADzAAAAAA==\n", null, null], "arguments": {"scale": 0.2}, "name": "block8_6", "trainable": true, "output_shape_type": "raw", "output_shape": [8, 8, 2080], "function_type": "lambda"}, "class_name": "Lambda", "name": "block8_6", "inbound_nodes": [[["block8_5_ac", 0, 0, {}], ["block8_6_conv", 0, 0, {}]]]}, {"config": {"trainable": true, "activation": "relu", "name": "block8_6_ac"}, "class_name": "Activation", "name": "block8_6_ac", "inbound_nodes": [[["block8_6", 0, 0, {}]]]}, {"config": {"padding": "same", "activation": "linear", "name": "conv2d_189", "bias_initializer": {"config": {}, "class_name": "Zeros"}, "dilation_rate": [1, 1], "strides": [1, 1], "data_format": "channels_last", "activity_regularizer": null, "filters": 192, "kernel_regularizer": null, "kernel_initializer": {"config": {"scale": 1.0, "seed": null, "mode": "fan_avg", "distribution": "uniform"}, "class_name": "VarianceScaling"}, "bias_regularizer": null, "use_bias": false, "kernel_constraint": null, "bias_constraint": null, "trainable": true, "kernel_size": [1, 1]}, "class_name": "Conv2D", "name": "conv2d_189", "inbound_nodes": [[["block8_6_ac", 0, 0, {}]]]}, {"config": {"center": true, "gamma_initializer": {"config": {}, "class_name": "Ones"}, "epsilon": 0.001, "axis": 3, "name": "batch_normalization_189", "beta_regularizer": null, "gamma_regularizer": null, "moving_variance_initializer": {"config": {}, "class_name": "Ones"}, "beta_initializer": {"config": {}, "class_name": "Zeros"}, "scale": false, "gamma_constraint": null, "moving_mean_initializer": {"config": {}, "class_name": "Zeros"}, "trainable": true, "beta_constraint": null, "momentum": 0.99}, "class_name": "BatchNormalization", "name": "batch_normalization_189", "inbound_nodes": [[["conv2d_189", 0, 0, {}]]]}, {"config": {"trainable": true, "activation": "relu", "name": "activation_189"}, "class_name": "Activation", "name": "activation_189", "inbound_nodes": [[["batch_normalization_189", 0, 0, {}]]]}, {"config": {"padding": "same", "activation": "linear", "name": "conv2d_190", "bias_initializer": {"config": {}, "class_name": "Zeros"}, "dilation_rate": [1, 1], "strides": [1, 1], "data_format": "channels_last", "activity_regularizer": null, "filters": 224, "kernel_regularizer": null, "kernel_initializer": {"config": {"scale": 1.0, "seed": null, "mode": "fan_avg", "distribution": "uniform"}, "class_name": "VarianceScaling"}, "bias_regularizer": null, "use_bias": false, "kernel_constraint": null, "bias_constraint": null, "trainable": true, "kernel_size": [1, 3]}, "class_name": "Conv2D", "name": "conv2d_190", "inbound_nodes": [[["activation_189", 0, 0, {}]]]}, {"config": {"center": true, "gamma_initializer": {"config": {}, "class_name": "Ones"}, "epsilon": 0.001, "axis": 3, "name": "batch_normalization_190", "beta_regularizer": null, "gamma_regularizer": null, "moving_variance_initializer": {"config": {}, "class_name": "Ones"}, "beta_initializer": {"config": {}, "class_name": "Zeros"}, "scale": false, "gamma_constraint": null, "moving_mean_initializer": {"config": {}, "class_name": "Zeros"}, "trainable": true, "beta_constraint": null, "momentum": 0.99}, "class_name": "BatchNormalization", "name": "batch_normalization_190", "inbound_nodes": [[["conv2d_190", 0, 0, {}]]]}, {"config": {"trainable": true, "activation": "relu", "name": "activation_190"}, "class_name": "Activation", "name": "activation_190", "inbound_nodes": [[["batch_normalization_190", 0, 0, {}]]]}, {"config": {"padding": "same", "activation": "linear", "name": "conv2d_188", "bias_initializer": {"config": {}, "class_name": "Zeros"}, "dilation_rate": [1, 1], "strides": [1, 1], "data_format": "channels_last", "activity_regularizer": null, "filters": 192, "kernel_regularizer": null, "kernel_initializer": {"config": {"scale": 1.0, "seed": null, "mode": "fan_avg", "distribution": "uniform"}, "class_name": "VarianceScaling"}, "bias_regularizer": null, "use_bias": false, "kernel_constraint": null, "bias_constraint": null, "trainable": true, "kernel_size": [1, 1]}, "class_name": "Conv2D", "name": "conv2d_188", "inbound_nodes": [[["block8_6_ac", 0, 0, {}]]]}, {"config": {"padding": "same", "activation": "linear", "name": "conv2d_191", "bias_initializer": {"config": {}, "class_name": "Zeros"}, "dilation_rate": [1, 1], "strides": [1, 1], "data_format": "channels_last", "activity_regularizer": null, "filters": 256, "kernel_regularizer": null, "kernel_initializer": {"config": {"scale": 1.0, "seed": null, "mode": "fan_avg", "distribution": "uniform"}, "class_name": "VarianceScaling"}, "bias_regularizer": null, "use_bias": false, "kernel_constraint": null, "bias_constraint": null, "trainable": true, "kernel_size": [3, 1]}, "class_name": "Conv2D", "name": "conv2d_191", "inbound_nodes": [[["activation_190", 0, 0, {}]]]}, {"config": {"center": true, "gamma_initializer": {"config": {}, "class_name": "Ones"}, "epsilon": 0.001, "axis": 3, "name": "batch_normalization_188", "beta_regularizer": null, "gamma_regularizer": null, "moving_variance_initializer": {"config": {}, "class_name": "Ones"}, "beta_initializer": {"config": {}, "class_name": "Zeros"}, "scale": false, "gamma_constraint": null, "moving_mean_initializer": {"config": {}, "class_name": "Zeros"}, "trainable": true, "beta_constraint": null, "momentum": 0.99}, "class_name": "BatchNormalization", "name": "batch_normalization_188", "inbound_nodes": [[["conv2d_188", 0, 0, {}]]]}, {"config": {"center": true, "gamma_initializer": {"config": {}, "class_name": "Ones"}, "epsilon": 0.001, "axis": 3, "name": "batch_normalization_191", "beta_regularizer": null, "gamma_regularizer": null, "moving_variance_initializer": {"config": {}, "class_name": "Ones"}, "beta_initializer": {"config": {}, "class_name": "Zeros"}, "scale": false, "gamma_constraint": null, "moving_mean_initializer": {"config": {}, "class_name": "Zeros"}, "trainable": true, "beta_constraint": null, "momentum": 0.99}, "class_name": "BatchNormalization", "name": "batch_normalization_191", "inbound_nodes": [[["conv2d_191", 0, 0, {}]]]}, {"config": {"trainable": true, "activation": "relu", "name": "activation_188"}, "class_name": "Activation", "name": "activation_188", "inbound_nodes": [[["batch_normalization_188", 0, 0, {}]]]}, {"config": {"trainable": true, "activation": "relu", "name": "activation_191"}, "class_name": "Activation", "name": "activation_191", "inbound_nodes": [[["batch_normalization_191", 0, 0, {}]]]}, {"config": {"trainable": true, "axis": 3, "name": "block8_7_mixed"}, "class_name": "Concatenate", "name": "block8_7_mixed", "inbound_nodes": [[["activation_188", 0, 0, {}], ["activation_191", 0, 0, {}]]]}, {"config": {"padding": "same", "activation": "linear", "name": "block8_7_conv", "bias_initializer": {"config": {}, "class_name": "Zeros"}, "dilation_rate": [1, 1], "strides": [1, 1], "data_format": "channels_last", "activity_regularizer": null, "filters": 2080, "kernel_regularizer": null, "kernel_initializer": {"config": {"scale": 1.0, "seed": null, "mode": "fan_avg", "distribution": "uniform"}, "class_name": "VarianceScaling"}, "bias_regularizer": null, "use_bias": true, "kernel_constraint": null, "bias_constraint": null, "trainable": true, "kernel_size": [1, 1]}, "class_name": "Conv2D", "name": "block8_7_conv", "inbound_nodes": [[["block8_7_mixed", 0, 0, {}]]]}, {"config": {"function": ["4wIAAAAAAAAAAgAAAAMAAABTAAAAcxQAAAB8AABkAQAZfAAAZAIAGXwBABQXUykDTukAAAAA6QEA\nAACpACkC2gZpbnB1dHPaBXNjYWxlcgMAAAByAwAAAPpvQzpcVXNlcnNcSm9lXEFwcERhdGFcTG9j\nYWxcUHJvZ3JhbXNcUHl0aG9uXFB5dGhvbjM1XGxpYlxzaXRlLXBhY2thZ2VzXGtlcmFzXGFwcGxp\nY2F0aW9uc1xpbmNlcHRpb25fcmVzbmV0X3YyLnB52gg8bGFtYmRhPqgAAADzAAAAAA==\n", null, null], "arguments": {"scale": 0.2}, "name": "block8_7", "trainable": true, "output_shape_type": "raw", "output_shape": [8, 8, 2080], "function_type": "lambda"}, "class_name": "Lambda", "name": "block8_7", "inbound_nodes": [[["block8_6_ac", 0, 0, {}], ["block8_7_conv", 0, 0, {}]]]}, {"config": {"trainable": true, "activation": "relu", "name": "block8_7_ac"}, "class_name": "Activation", "name": "block8_7_ac", "inbound_nodes": [[["block8_7", 0, 0, {}]]]}, {"config": {"padding": "same", "activation": "linear", "name": "conv2d_193", "bias_initializer": {"config": {}, "class_name": "Zeros"}, "dilation_rate": [1, 1], "strides": [1, 1], "data_format": "channels_last", "activity_regularizer": null, "filters": 192, "kernel_regularizer": null, "kernel_initializer": {"config": {"scale": 1.0, "seed": null, "mode": "fan_avg", "distribution": "uniform"}, "class_name": "VarianceScaling"}, "bias_regularizer": null, "use_bias": false, "kernel_constraint": null, "bias_constraint": null, "trainable": true, "kernel_size": [1, 1]}, "class_name": "Conv2D", "name": "conv2d_193", "inbound_nodes": [[["block8_7_ac", 0, 0, {}]]]}, {"config": {"center": true, "gamma_initializer": {"config": {}, "class_name": "Ones"}, "epsilon": 0.001, "axis": 3, "name": "batch_normalization_193", "beta_regularizer": null, "gamma_regularizer": null, "moving_variance_initializer": {"config": {}, "class_name": "Ones"}, "beta_initializer": {"config": {}, "class_name": "Zeros"}, "scale": false, "gamma_constraint": null, "moving_mean_initializer": {"config": {}, "class_name": "Zeros"}, "trainable": true, "beta_constraint": null, "momentum": 0.99}, "class_name": "BatchNormalization", "name": "batch_normalization_193", "inbound_nodes": [[["conv2d_193", 0, 0, {}]]]}, {"config": {"trainable": true, "activation": "relu", "name": "activation_193"}, "class_name": "Activation", "name": "activation_193", "inbound_nodes": [[["batch_normalization_193", 0, 0, {}]]]}, {"config": {"padding": "same", "activation": "linear", "name": "conv2d_194", "bias_initializer": {"config": {}, "class_name": "Zeros"}, "dilation_rate": [1, 1], "strides": [1, 1], "data_format": "channels_last", "activity_regularizer": null, "filters": 224, "kernel_regularizer": null, "kernel_initializer": {"config": {"scale": 1.0, "seed": null, "mode": "fan_avg", "distribution": "uniform"}, "class_name": "VarianceScaling"}, "bias_regularizer": null, "use_bias": false, "kernel_constraint": null, "bias_constraint": null, "trainable": true, "kernel_size": [1, 3]}, "class_name": "Conv2D", "name": "conv2d_194", "inbound_nodes": [[["activation_193", 0, 0, {}]]]}, {"config": {"center": true, "gamma_initializer": {"config": {}, "class_name": "Ones"}, "epsilon": 0.001, "axis": 3, "name": "batch_normalization_194", "beta_regularizer": null, "gamma_regularizer": null, "moving_variance_initializer": {"config": {}, "class_name": "Ones"}, "beta_initializer": {"config": {}, "class_name": "Zeros"}, "scale": false, "gamma_constraint": null, "moving_mean_initializer": {"config": {}, "class_name": "Zeros"}, "trainable": true, "beta_constraint": null, "momentum": 0.99}, "class_name": "BatchNormalization", "name": "batch_normalization_194", "inbound_nodes": [[["conv2d_194", 0, 0, {}]]]}, {"config": {"trainable": true, "activation": "relu", "name": "activation_194"}, "class_name": "Activation", "name": "activation_194", "inbound_nodes": [[["batch_normalization_194", 0, 0, {}]]]}, {"config": {"padding": "same", "activation": "linear", "name": "conv2d_192", "bias_initializer": {"config": {}, "class_name": "Zeros"}, "dilation_rate": [1, 1], "strides": [1, 1], "data_format": "channels_last", "activity_regularizer": null, "filters": 192, "kernel_regularizer": null, "kernel_initializer": {"config": {"scale": 1.0, "seed": null, "mode": "fan_avg", "distribution": "uniform"}, "class_name": "VarianceScaling"}, "bias_regularizer": null, "use_bias": false, "kernel_constraint": null, "bias_constraint": null, "trainable": true, "kernel_size": [1, 1]}, "class_name": "Conv2D", "name": "conv2d_192", "inbound_nodes": [[["block8_7_ac", 0, 0, {}]]]}, {"config": {"padding": "same", "activation": "linear", "name": "conv2d_195", "bias_initializer": {"config": {}, "class_name": "Zeros"}, "dilation_rate": [1, 1], "strides": [1, 1], "data_format": "channels_last", "activity_regularizer": null, "filters": 256, "kernel_regularizer": null, "kernel_initializer": {"config": {"scale": 1.0, "seed": null, "mode": "fan_avg", "distribution": "uniform"}, "class_name": "VarianceScaling"}, "bias_regularizer": null, "use_bias": false, "kernel_constraint": null, "bias_constraint": null, "trainable": true, "kernel_size": [3, 1]}, "class_name": "Conv2D", "name": "conv2d_195", "inbound_nodes": [[["activation_194", 0, 0, {}]]]}, {"config": {"center": true, "gamma_initializer": {"config": {}, "class_name": "Ones"}, "epsilon": 0.001, "axis": 3, "name": "batch_normalization_192", "beta_regularizer": null, "gamma_regularizer": null, "moving_variance_initializer": {"config": {}, "class_name": "Ones"}, "beta_initializer": {"config": {}, "class_name": "Zeros"}, "scale": false, "gamma_constraint": null, "moving_mean_initializer": {"config": {}, "class_name": "Zeros"}, "trainable": true, "beta_constraint": null, "momentum": 0.99}, "class_name": "BatchNormalization", "name": "batch_normalization_192", "inbound_nodes": [[["conv2d_192", 0, 0, {}]]]}, {"config": {"center": true, "gamma_initializer": {"config": {}, "class_name": "Ones"}, "epsilon": 0.001, "axis": 3, "name": "batch_normalization_195", "beta_regularizer": null, "gamma_regularizer": null, "moving_variance_initializer": {"config": {}, "class_name": "Ones"}, "beta_initializer": {"config": {}, "class_name": "Zeros"}, "scale": false, "gamma_constraint": null, "moving_mean_initializer": {"config": {}, "class_name": "Zeros"}, "trainable": true, "beta_constraint": null, "momentum": 0.99}, "class_name": "BatchNormalization", "name": "batch_normalization_195", "inbound_nodes": [[["conv2d_195", 0, 0, {}]]]}, {"config": {"trainable": true, "activation": "relu", "name": "activation_192"}, "class_name": "Activation", "name": "activation_192", "inbound_nodes": [[["batch_normalization_192", 0, 0, {}]]]}, {"config": {"trainable": true, "activation": "relu", "name": "activation_195"}, "class_name": "Activation", "name": "activation_195", "inbound_nodes": [[["batch_normalization_195", 0, 0, {}]]]}, {"config": {"trainable": true, "axis": 3, "name": "block8_8_mixed"}, "class_name": "Concatenate", "name": "block8_8_mixed", "inbound_nodes": [[["activation_192", 0, 0, {}], ["activation_195", 0, 0, {}]]]}, {"config": {"padding": "same", "activation": "linear", "name": "block8_8_conv", "bias_initializer": {"config": {}, "class_name": "Zeros"}, "dilation_rate": [1, 1], "strides": [1, 1], "data_format": "channels_last", "activity_regularizer": null, "filters": 2080, "kernel_regularizer": null, "kernel_initializer": {"config": {"scale": 1.0, "seed": null, "mode": "fan_avg", "distribution": "uniform"}, "class_name": "VarianceScaling"}, "bias_regularizer": null, "use_bias": true, "kernel_constraint": null, "bias_constraint": null, "trainable": true, "kernel_size": [1, 1]}, "class_name": "Conv2D", "name": "block8_8_conv", "inbound_nodes": [[["block8_8_mixed", 0, 0, {}]]]}, {"config": {"function": ["4wIAAAAAAAAAAgAAAAMAAABTAAAAcxQAAAB8AABkAQAZfAAAZAIAGXwBABQXUykDTukAAAAA6QEA\nAACpACkC2gZpbnB1dHPaBXNjYWxlcgMAAAByAwAAAPpvQzpcVXNlcnNcSm9lXEFwcERhdGFcTG9j\nYWxcUHJvZ3JhbXNcUHl0aG9uXFB5dGhvbjM1XGxpYlxzaXRlLXBhY2thZ2VzXGtlcmFzXGFwcGxp\nY2F0aW9uc1xpbmNlcHRpb25fcmVzbmV0X3YyLnB52gg8bGFtYmRhPqgAAADzAAAAAA==\n", null, null], "arguments": {"scale": 0.2}, "name": "block8_8", "trainable": true, "output_shape_type": "raw", "output_shape": [8, 8, 2080], "function_type": "lambda"}, "class_name": "Lambda", "name": "block8_8", "inbound_nodes": [[["block8_7_ac", 0, 0, {}], ["block8_8_conv", 0, 0, {}]]]}, {"config": {"trainable": true, "activation": "relu", "name": "block8_8_ac"}, "class_name": "Activation", "name": "block8_8_ac", "inbound_nodes": [[["block8_8", 0, 0, {}]]]}, {"config": {"padding": "same", "activation": "linear", "name": "conv2d_197", "bias_initializer": {"config": {}, "class_name": "Zeros"}, "dilation_rate": [1, 1], "strides": [1, 1], "data_format": "channels_last", "activity_regularizer": null, "filters": 192, "kernel_regularizer": null, "kernel_initializer": {"config": {"scale": 1.0, "seed": null, "mode": "fan_avg", "distribution": "uniform"}, "class_name": "VarianceScaling"}, "bias_regularizer": null, "use_bias": false, "kernel_constraint": null, "bias_constraint": null, "trainable": true, "kernel_size": [1, 1]}, "class_name": "Conv2D", "name": "conv2d_197", "inbound_nodes": [[["block8_8_ac", 0, 0, {}]]]}, {"config": {"center": true, "gamma_initializer": {"config": {}, "class_name": "Ones"}, "epsilon": 0.001, "axis": 3, "name": "batch_normalization_197", "beta_regularizer": null, "gamma_regularizer": null, "moving_variance_initializer": {"config": {}, "class_name": "Ones"}, "beta_initializer": {"config": {}, "class_name": "Zeros"}, "scale": false, "gamma_constraint": null, "moving_mean_initializer": {"config": {}, "class_name": "Zeros"}, "trainable": true, "beta_constraint": null, "momentum": 0.99}, "class_name": "BatchNormalization", "name": "batch_normalization_197", "inbound_nodes": [[["conv2d_197", 0, 0, {}]]]}, {"config": {"trainable": true, "activation": "relu", "name": "activation_197"}, "class_name": "Activation", "name": "activation_197", "inbound_nodes": [[["batch_normalization_197", 0, 0, {}]]]}, {"config": {"padding": "same", "activation": "linear", "name": "conv2d_198", "bias_initializer": {"config": {}, "class_name": "Zeros"}, "dilation_rate": [1, 1], "strides": [1, 1], "data_format": "channels_last", "activity_regularizer": null, "filters": 224, "kernel_regularizer": null, "kernel_initializer": {"config": {"scale": 1.0, "seed": null, "mode": "fan_avg", "distribution": "uniform"}, "class_name": "VarianceScaling"}, "bias_regularizer": null, "use_bias": false, "kernel_constraint": null, "bias_constraint": null, "trainable": true, "kernel_size": [1, 3]}, "class_name": "Conv2D", "name": "conv2d_198", "inbound_nodes": [[["activation_197", 0, 0, {}]]]}, {"config": {"center": true, "gamma_initializer": {"config": {}, "class_name": "Ones"}, "epsilon": 0.001, "axis": 3, "name": "batch_normalization_198", "beta_regularizer": null, "gamma_regularizer": null, "moving_variance_initializer": {"config": {}, "class_name": "Ones"}, "beta_initializer": {"config": {}, "class_name": "Zeros"}, "scale": false, "gamma_constraint": null, "moving_mean_initializer": {"config": {}, "class_name": "Zeros"}, "trainable": true, "beta_constraint": null, "momentum": 0.99}, "class_name": "BatchNormalization", "name": "batch_normalization_198", "inbound_nodes": [[["conv2d_198", 0, 0, {}]]]}, {"config": {"trainable": true, "activation": "relu", "name": "activation_198"}, "class_name": "Activation", "name": "activation_198", "inbound_nodes": [[["batch_normalization_198", 0, 0, {}]]]}, {"config": {"padding": "same", "activation": "linear", "name": "conv2d_196", "bias_initializer": {"config": {}, "class_name": "Zeros"}, "dilation_rate": [1, 1], "strides": [1, 1], "data_format": "channels_last", "activity_regularizer": null, "filters": 192, "kernel_regularizer": null, "kernel_initializer": {"config": {"scale": 1.0, "seed": null, "mode": "fan_avg", "distribution": "uniform"}, "class_name": "VarianceScaling"}, "bias_regularizer": null, "use_bias": false, "kernel_constraint": null, "bias_constraint": null, "trainable": true, "kernel_size": [1, 1]}, "class_name": "Conv2D", "name": "conv2d_196", "inbound_nodes": [[["block8_8_ac", 0, 0, {}]]]}, {"config": {"padding": "same", "activation": "linear", "name": "conv2d_199", "bias_initializer": {"config": {}, "class_name": "Zeros"}, "dilation_rate": [1, 1], "strides": [1, 1], "data_format": "channels_last", "activity_regularizer": null, "filters": 256, "kernel_regularizer": null, "kernel_initializer": {"config": {"scale": 1.0, "seed": null, "mode": "fan_avg", "distribution": "uniform"}, "class_name": "VarianceScaling"}, "bias_regularizer": null, "use_bias": false, "kernel_constraint": null, "bias_constraint": null, "trainable": true, "kernel_size": [3, 1]}, "class_name": "Conv2D", "name": "conv2d_199", "inbound_nodes": [[["activation_198", 0, 0, {}]]]}, {"config": {"center": true, "gamma_initializer": {"config": {}, "class_name": "Ones"}, "epsilon": 0.001, "axis": 3, "name": "batch_normalization_196", "beta_regularizer": null, "gamma_regularizer": null, "moving_variance_initializer": {"config": {}, "class_name": "Ones"}, "beta_initializer": {"config": {}, "class_name": "Zeros"}, "scale": false, "gamma_constraint": null, "moving_mean_initializer": {"config": {}, "class_name": "Zeros"}, "trainable": true, "beta_constraint": null, "momentum": 0.99}, "class_name": "BatchNormalization", "name": "batch_normalization_196", "inbound_nodes": [[["conv2d_196", 0, 0, {}]]]}, {"config": {"center": true, "gamma_initializer": {"config": {}, "class_name": "Ones"}, "epsilon": 0.001, "axis": 3, "name": "batch_normalization_199", "beta_regularizer": null, "gamma_regularizer": null, "moving_variance_initializer": {"config": {}, "class_name": "Ones"}, "beta_initializer": {"config": {}, "class_name": "Zeros"}, "scale": false, "gamma_constraint": null, "moving_mean_initializer": {"config": {}, "class_name": "Zeros"}, "trainable": true, "beta_constraint": null, "momentum": 0.99}, "class_name": "BatchNormalization", "name": "batch_normalization_199", "inbound_nodes": [[["conv2d_199", 0, 0, {}]]]}, {"config": {"trainable": true, "activation": "relu", "name": "activation_196"}, "class_name": "Activation", "name": "activation_196", "inbound_nodes": [[["batch_normalization_196", 0, 0, {}]]]}, {"config": {"trainable": true, "activation": "relu", "name": "activation_199"}, "class_name": "Activation", "name": "activation_199", "inbound_nodes": [[["batch_normalization_199", 0, 0, {}]]]}, {"config": {"trainable": true, "axis": 3, "name": "block8_9_mixed"}, "class_name": "Concatenate", "name": "block8_9_mixed", "inbound_nodes": [[["activation_196", 0, 0, {}], ["activation_199", 0, 0, {}]]]}, {"config": {"padding": "same", "activation": "linear", "name": "block8_9_conv", "bias_initializer": {"config": {}, "class_name": "Zeros"}, "dilation_rate": [1, 1], "strides": [1, 1], "data_format": "channels_last", "activity_regularizer": null, "filters": 2080, "kernel_regularizer": null, "kernel_initializer": {"config": {"scale": 1.0, "seed": null, "mode": "fan_avg", "distribution": "uniform"}, "class_name": "VarianceScaling"}, "bias_regularizer": null, "use_bias": true, "kernel_constraint": null, "bias_constraint": null, "trainable": true, "kernel_size": [1, 1]}, "class_name": "Conv2D", "name": "block8_9_conv", "inbound_nodes": [[["block8_9_mixed", 0, 0, {}]]]}, {"config": {"function": ["4wIAAAAAAAAAAgAAAAMAAABTAAAAcxQAAAB8AABkAQAZfAAAZAIAGXwBABQXUykDTukAAAAA6QEA\nAACpACkC2gZpbnB1dHPaBXNjYWxlcgMAAAByAwAAAPpvQzpcVXNlcnNcSm9lXEFwcERhdGFcTG9j\nYWxcUHJvZ3JhbXNcUHl0aG9uXFB5dGhvbjM1XGxpYlxzaXRlLXBhY2thZ2VzXGtlcmFzXGFwcGxp\nY2F0aW9uc1xpbmNlcHRpb25fcmVzbmV0X3YyLnB52gg8bGFtYmRhPqgAAADzAAAAAA==\n", null, null], "arguments": {"scale": 0.2}, "name": "block8_9", "trainable": true, "output_shape_type": "raw", "output_shape": [8, 8, 2080], "function_type": "lambda"}, "class_name": "Lambda", "name": "block8_9", "inbound_nodes": [[["block8_8_ac", 0, 0, {}], ["block8_9_conv", 0, 0, {}]]]}, {"config": {"trainable": true, "activation": "relu", "name": "block8_9_ac"}, "class_name": "Activation", "name": "block8_9_ac", "inbound_nodes": [[["block8_9", 0, 0, {}]]]}, {"config": {"padding": "same", "activation": "linear", "name": "conv2d_201", "bias_initializer": {"config": {}, "class_name": "Zeros"}, "dilation_rate": [1, 1], "strides": [1, 1], "data_format": "channels_last", "activity_regularizer": null, "filters": 192, "kernel_regularizer": null, "kernel_initializer": {"config": {"scale": 1.0, "seed": null, "mode": "fan_avg", "distribution": "uniform"}, "class_name": "VarianceScaling"}, "bias_regularizer": null, "use_bias": false, "kernel_constraint": null, "bias_constraint": null, "trainable": true, "kernel_size": [1, 1]}, "class_name": "Conv2D", "name": "conv2d_201", "inbound_nodes": [[["block8_9_ac", 0, 0, {}]]]}, {"config": {"center": true, "gamma_initializer": {"config": {}, "class_name": "Ones"}, "epsilon": 0.001, "axis": 3, "name": "batch_normalization_201", "beta_regularizer": null, "gamma_regularizer": null, "moving_variance_initializer": {"config": {}, "class_name": "Ones"}, "beta_initializer": {"config": {}, "class_name": "Zeros"}, "scale": false, "gamma_constraint": null, "moving_mean_initializer": {"config": {}, "class_name": "Zeros"}, "trainable": true, "beta_constraint": null, "momentum": 0.99}, "class_name": "BatchNormalization", "name": "batch_normalization_201", "inbound_nodes": [[["conv2d_201", 0, 0, {}]]]}, {"config": {"trainable": true, "activation": "relu", "name": "activation_201"}, "class_name": "Activation", "name": "activation_201", "inbound_nodes": [[["batch_normalization_201", 0, 0, {}]]]}, {"config": {"padding": "same", "activation": "linear", "name": "conv2d_202", "bias_initializer": {"config": {}, "class_name": "Zeros"}, "dilation_rate": [1, 1], "strides": [1, 1], "data_format": "channels_last", "activity_regularizer": null, "filters": 224, "kernel_regularizer": null, "kernel_initializer": {"config": {"scale": 1.0, "seed": null, "mode": "fan_avg", "distribution": "uniform"}, "class_name": "VarianceScaling"}, "bias_regularizer": null, "use_bias": false, "kernel_constraint": null, "bias_constraint": null, "trainable": true, "kernel_size": [1, 3]}, "class_name": "Conv2D", "name": "conv2d_202", "inbound_nodes": [[["activation_201", 0, 0, {}]]]}, {"config": {"center": true, "gamma_initializer": {"config": {}, "class_name": "Ones"}, "epsilon": 0.001, "axis": 3, "name": "batch_normalization_202", "beta_regularizer": null, "gamma_regularizer": null, "moving_variance_initializer": {"config": {}, "class_name": "Ones"}, "beta_initializer": {"config": {}, "class_name": "Zeros"}, "scale": false, "gamma_constraint": null, "moving_mean_initializer": {"config": {}, "class_name": "Zeros"}, "trainable": true, "beta_constraint": null, "momentum": 0.99}, "class_name": "BatchNormalization", "name": "batch_normalization_202", "inbound_nodes": [[["conv2d_202", 0, 0, {}]]]}, {"config": {"trainable": true, "activation": "relu", "name": "activation_202"}, "class_name": "Activation", "name": "activation_202", "inbound_nodes": [[["batch_normalization_202", 0, 0, {}]]]}, {"config": {"padding": "same", "activation": "linear", "name": "conv2d_200", "bias_initializer": {"config": {}, "class_name": "Zeros"}, "dilation_rate": [1, 1], "strides": [1, 1], "data_format": "channels_last", "activity_regularizer": null, "filters": 192, "kernel_regularizer": null, "kernel_initializer": {"config": {"scale": 1.0, "seed": null, "mode": "fan_avg", "distribution": "uniform"}, "class_name": "VarianceScaling"}, "bias_regularizer": null, "use_bias": false, "kernel_constraint": null, "bias_constraint": null, "trainable": true, "kernel_size": [1, 1]}, "class_name": "Conv2D", "name": "conv2d_200", "inbound_nodes": [[["block8_9_ac", 0, 0, {}]]]}, {"config": {"padding": "same", "activation": "linear", "name": "conv2d_203", "bias_initializer": {"config": {}, "class_name": "Zeros"}, "dilation_rate": [1, 1], "strides": [1, 1], "data_format": "channels_last", "activity_regularizer": null, "filters": 256, "kernel_regularizer": null, "kernel_initializer": {"config": {"scale": 1.0, "seed": null, "mode": "fan_avg", "distribution": "uniform"}, "class_name": "VarianceScaling"}, "bias_regularizer": null, "use_bias": false, "kernel_constraint": null, "bias_constraint": null, "trainable": true, "kernel_size": [3, 1]}, "class_name": "Conv2D", "name": "conv2d_203", "inbound_nodes": [[["activation_202", 0, 0, {}]]]}, {"config": {"center": true, "gamma_initializer": {"config": {}, "class_name": "Ones"}, "epsilon": 0.001, "axis": 3, "name": "batch_normalization_200", "beta_regularizer": null, "gamma_regularizer": null, "moving_variance_initializer": {"config": {}, "class_name": "Ones"}, "beta_initializer": {"config": {}, "class_name": "Zeros"}, "scale": false, "gamma_constraint": null, "moving_mean_initializer": {"config": {}, "class_name": "Zeros"}, "trainable": true, "beta_constraint": null, "momentum": 0.99}, "class_name": "BatchNormalization", "name": "batch_normalization_200", "inbound_nodes": [[["conv2d_200", 0, 0, {}]]]}, {"config": {"center": true, "gamma_initializer": {"config": {}, "class_name": "Ones"}, "epsilon": 0.001, "axis": 3, "name": "batch_normalization_203", "beta_regularizer": null, "gamma_regularizer": null, "moving_variance_initializer": {"config": {}, "class_name": "Ones"}, "beta_initializer": {"config": {}, "class_name": "Zeros"}, "scale": false, "gamma_constraint": null, "moving_mean_initializer": {"config": {}, "class_name": "Zeros"}, "trainable": true, "beta_constraint": null, "momentum": 0.99}, "class_name": "BatchNormalization", "name": "batch_normalization_203", "inbound_nodes": [[["conv2d_203", 0, 0, {}]]]}, {"config": {"trainable": true, "activation": "relu", "name": "activation_200"}, "class_name": "Activation", "name": "activation_200", "inbound_nodes": [[["batch_normalization_200", 0, 0, {}]]]}, {"config": {"trainable": true, "activation": "relu", "name": "activation_203"}, "class_name": "Activation", "name": "activation_203", "inbound_nodes": [[["batch_normalization_203", 0, 0, {}]]]}, {"config": {"trainable": true, "axis": 3, "name": "block8_10_mixed"}, "class_name": "Concatenate", "name": "block8_10_mixed", "inbound_nodes": [[["activation_200", 0, 0, {}], ["activation_203", 0, 0, {}]]]}, {"config": {"padding": "same", "activation": "linear", "name": "block8_10_conv", "bias_initializer": {"config": {}, "class_name": "Zeros"}, "dilation_rate": [1, 1], "strides": [1, 1], "data_format": "channels_last", "activity_regularizer": null, "filters": 2080, "kernel_regularizer": null, "kernel_initializer": {"config": {"scale": 1.0, "seed": null, "mode": "fan_avg", "distribution": "uniform"}, "class_name": "VarianceScaling"}, "bias_regularizer": null, "use_bias": true, "kernel_constraint": null, "bias_constraint": null, "trainable": true, "kernel_size": [1, 1]}, "class_name": "Conv2D", "name": "block8_10_conv", "inbound_nodes": [[["block8_10_mixed", 0, 0, {}]]]}, {"config": {"function": ["4wIAAAAAAAAAAgAAAAMAAABTAAAAcxQAAAB8AABkAQAZfAAAZAIAGXwBABQXUykDTukAAAAA6QEA\nAACpACkC2gZpbnB1dHPaBXNjYWxlcgMAAAByAwAAAPpvQzpcVXNlcnNcSm9lXEFwcERhdGFcTG9j\nYWxcUHJvZ3JhbXNcUHl0aG9uXFB5dGhvbjM1XGxpYlxzaXRlLXBhY2thZ2VzXGtlcmFzXGFwcGxp\nY2F0aW9uc1xpbmNlcHRpb25fcmVzbmV0X3YyLnB52gg8bGFtYmRhPqgAAADzAAAAAA==\n", null, null], "arguments": {"scale": 1.0}, "name": "block8_10", "trainable": true, "output_shape_type": "raw", "output_shape": [8, 8, 2080], "function_type": "lambda"}, "class_name": "Lambda", "name": "block8_10", "inbound_nodes": [[["block8_9_ac", 0, 0, {}], ["block8_10_conv", 0, 0, {}]]]}, {"config": {"padding": "same", "activation": "linear", "name": "conv_7b", "bias_initializer": {"config": {}, "class_name": "Zeros"}, "dilation_rate": [1, 1], "strides": [1, 1], "data_format": "channels_last", "activity_regularizer": null, "filters": 1536, "kernel_regularizer": null, "kernel_initializer": {"config": {"scale": 1.0, "seed": null, "mode": "fan_avg", "distribution": "uniform"}, "class_name": "VarianceScaling"}, "bias_regularizer": null, "use_bias": false, "kernel_constraint": null, "bias_constraint": null, "trainable": true, "kernel_size": [1, 1]}, "class_name": "Conv2D", "name": "conv_7b", "inbound_nodes": [[["block8_10", 0, 0, {}]]]}, {"config": {"center": true, "gamma_initializer": {"config": {}, "class_name": "Ones"}, "epsilon": 0.001, "axis": 3, "name": "conv_7b_bn", "beta_regularizer": null, "gamma_regularizer": null, "moving_variance_initializer": {"config": {}, "class_name": "Ones"}, "beta_initializer": {"config": {}, "class_name": "Zeros"}, "scale": false, "gamma_constraint": null, "moving_mean_initializer": {"config": {}, "class_name": "Zeros"}, "trainable": true, "beta_constraint": null, "momentum": 0.99}, "class_name": "BatchNormalization", "name": "conv_7b_bn", "inbound_nodes": [[["conv_7b", 0, 0, {}]]]}, {"config": {"trainable": true, "activation": "relu", "name": "conv_7b_ac"}, "class_name": "Activation", "name": "conv_7b_ac", "inbound_nodes": [[["conv_7b_bn", 0, 0, {}]]]}, {"config": {"trainable": true, "data_format": "channels_last", "name": "global_max_pooling2d_1"}, "class_name": "GlobalMaxPooling2D", "name": "global_max_pooling2d_1", "inbound_nodes": [[["conv_7b_ac", 0, 0, {}]]]}, {"config": {"units": 128, "name": "dense_1", "bias_initializer": {"config": {}, "class_name": "Zeros"}, "kernel_constraint": null, "activity_regularizer": null, "kernel_regularizer": null, "kernel_initializer": {"config": {"scale": 1.0, "seed": null, "mode": "fan_avg", "distribution": "uniform"}, "class_name": "VarianceScaling"}, "bias_regularizer": null, "bias_constraint": null, "trainable": true, "use_bias": true, "activation": "softmax"}, "class_name": "Dense", "name": "dense_1", "inbound_nodes": [[["global_max_pooling2d_1", 0, 0, {}]]]}], "input_layers": [["input_1", 0, 0]], "output_layers": [["dense_1", 0, 0]], "name": "model_1"}, "keras_version": "2.1.6", "backend": "tensorflow", "class_name": "Model"}